data/saved_models/model_FF_saved.pt (torch, 398227 bytes, 9 tensors)

weight f4 [128, 380]
000000 18 8c fb 3c 7d 87 de bc ba ce e9 3c 57 25 04 3d
       0.03070645 -0.027164215 0.028540958 0.032262173
000010 aa dc 14 3d ba 0f 1d bb e0 da 0e bc bf 30 95 bc
       0.036343254 -0.0023965673 -0.008719176 -0.01821172
000020 d6 7c 35 3c 13 fe 3d 3c 5e 96 19 bd ea 6c 45 3b
       0.0110771265 0.011596221 -0.037496917 0.0030124732
000030 38 ac 8d 3c 3a 18 b1 3c 4d ef a1 bb 63 d9 9a 3c
       0.017294034 0.021617997 -0.004941857 0.018902486
000040 57 26 93 3c a9 55 4b 3b 49 1e 39 bd 55 ef 53 bd
       0.017962618 0.00310264 -0.045194898 -0.051741917
000050 a6 10 15 3d a8 ad 2f bb 8f 49 14 3d 23 c7 e8 3c
       0.03639283 -0.0026806388 0.036202963 0.028415268
000060 a3 30 ea b9 5b a5 ad 3b 08 24 d0 3c 24 98 2a bd
       -0.00044668195 0.005299253 0.025407806 -0.041649
000070 d8 8d cf 3a 82 61 99 3c b7 60 0c bd bf df 47 bd
       0.0015835119 0.018723253 -0.034271922 -0.048797365
000080 95 f5 eb bb 69 41 8f bc 06 63 ed bc 9f 91 14 3c
       -0.0072009065 -0.017487245 -0.028977882 0.009067922
000090 2a 8c 43 bd 99 e5 a7 bc 8b f8 37 bc 99 65 b1 bc
       -0.047741093 -0.020495223 -0.011228691 -0.02165489
0000a0 6a aa 7d bc 11 37 e7 3c 6e c9 89 ba ef 37 66 bb
       -0.015482524 0.0282245 -0.0010512301 -0.0035128554
0000b0 ba 57 b3 3b 1e 1d 09 3c 8a 7c f4 3b bf 80 10 3d
       0.0054731043 0.0083687585 0.0074611353 0.03527903
0000c0 3f eb fd bc 05 91 40 bd c0 f7 c0 3c a3 67 5f 3c
       -0.030995963 -0.0470133 0.023555636 0.013635549
0000d0 17 b5 38 ba dc 9e 87 3c 7e 9b 0b bd ba c1 6b bc
       -0.00070460275 0.016555242 -0.034083836 -0.01438945
0000e0 bf d7 d9 ba c9 be cb 3c a5 e6 21 3c a8 5d dd bb
       -0.0016620083 0.024871247 0.00988165 -0.0067555495
0000f0 a7 34 ee bc 20 e7 e1 3c 76 4f 0d 3d 07 dd e9 3b
       -0.029077841 0.02757603 0.034499608 0.007136944
000100 60 c3 99 3c d9 8e 12 bd 46 d1 19 bd 6c 8c c5 bc
       0.01876992 -0.03578076 -0.037553094 -0.02411481
000110 2d c8 00 bd 67 d8 d9 3c 74 a3 4f ab d1 20 59 bc
       -0.031440903 0.026592446 -7.376801e-13 -0.013252453
000120 3d 53 19 bc bc 46 73 3c c7 5d 20 3c 69 d6 86 3c
       -0.009358224 0.014848407 0.009787983 0.01645966
000130 c1 b9 c7 3c eb 53 37 bd d4 04 d6 3c ad dc de bc
       0.024380567 -0.044757765 0.02612535 -0.027204836
000140 37 97 9f bc bf 2c 6a bb ac 0a 8b bc 3c 3b 33 3c
       -0.019481285 -0.0035732237 -0.016972862 0.010939416
000150 9b 9a ec 96 ef b1 d4 ba f6 37 6d 3b 57 28 86 ba
       -3.8225426e-25 -0.0016227345 0.0036196685 -0.0010235411
000160 4f 37 0c bd ca 2f 2f bd 6f 3e d5 bc 36 fc d7 3c
       -0.034232434 -0.042770185 -0.026030747 0.02636538
000170 ea 30 29 bd 7a 38 09 bc 5f 45 db bb d8 87 c1 3a
       -0.041306414 -0.0083752815 -0.0066916193 0.0014765216
000180 a1 15 8f 3a 3b 08 70 3c 5c 11 87 15 6f 18 3e a5
       0.001091648 0.0146504 5.4553454e-26 -1.6488151e-16
000190 22 0f 07 bc a8 33 a2 3c e9 d9 62 3b 4e 39 ad 3c
       -0.008243354 0.019800022 0.0034614748 0.021145489
0001a0 2f 66 b7 bc cc d7 58 3c f8 69 a8 3c 8b af 9c bb
       -0.022387592 0.013235044 0.020558342 -0.0047816685
0001b0 28 60 32 3c 62 ed 6c bc 06 2b ef ba 2a e7 cb bc
       0.010887183 -0.014460893 -0.0018247075 -0.024890501
0001c0 c9 46 51 96 ec e7 22 96 e3 1b 6b b6 ec d1 4f bb
       -1.6905221e-25 -1.3159437e-25 -3.503396e-06 -0.0031710817
0001d0 5f f1 25 bd 3e 8c 39 3c 58 04 45 bc 82 6a 90 bc
       -0.040513393 0.01132494 -0.012024961 -0.017628912
0001e0 95 24 f7 bb 94 b0 b0 3c 12 67 cf bc cf 0f 0e bd
       -0.0075422027 0.021568574 -0.025317702 -0.034683045
0001f0 0c 34 20 3c 54 90 5c bc 36 0f a0 96 da cb 70 16
       0.009778034 -0.013462145 -2.5858994e-25 1.945137e-25
000200 4a 81 b4 9a 3b a8 9f bc 0e 71 0f 3d 89 86 c9 bc
       -7.465513e-23 -0.019489398 0.035019927 -0.024600284
000210 54 c9 ef bc 47 a1 17 3c e6 16 47 bb 99 81 0a bb
       -0.029270805 0.00925476 -0.0030378639 -0.0021134375
000220 84 23 b1 bc 9a 4c 8a bc b2 8c 2a 3c 9f fd 22 3b
       -0.02162338 -0.01688223 0.010409521 0.0024870408
000230 14 f2 cd bc df 2f a9 bc 9d 7b 2e bc 22 e4 de 32
       -0.025139846 -0.02065271 -0.010649589 2.5947944e-08
000240 e2 7d 0d 97 e8 78 2b bd fc 24 8d bc b9 81 81 bc
       -4.5718444e-25 -0.041863352 -0.01722955 -0.015808927
000250 b7 f8 75 2c ce f8 55 16 04 37 62 3c 50 9f 92 bc
       3.4954659e-12 1.7284512e-25 0.013807062 -0.017898232
000260 94 8a 1e 3c 18 dc 81 2d 82 5b a5 94 17 3c 0e bd
       0.009676594 1.4763343e-11 -1.6696836e-26 -0.034725275
000270 41 f0 ff bc ab 1a 06 bb 8f f1 af 9c f9 fd b6 96
       -0.031242492 -0.0020462673 -1.164297e-21 -2.9563965e-25
000280 13 14 ce 3c 04 c0 62 bc bc fb ce bb ab 5b 24 1f
       0.025156057 -0.013839725 -0.00631663 3.4804177e-20
000290 e2 e0 05 15 21 a7 c5 ba c1 41 ce bc 0e b8 67 b9
       2.7036537e-26 -0.0015079716 -0.025177838 -0.00022098442
0002a0 fb df 0b 97 6e 1d 20 15 00 71 b6 3c a5 d8 c1 3b
       -4.5196025e-25 3.233496e-26 0.02227068 0.0059157186
0002b0 55 f4 f4 39 fe 2c 23 19 08 01 37 94 b8 1d 17 3c
       0.00046721348 8.4359886e-24 -9.239342e-27 0.009223394
0002c0 03 cf e1 b9 24 3d 2a 99 5e db 15 16 ea 23 86 96
       -0.0004306958 -8.801141e-24 1.2105344e-25 -2.1671533e-25
0002d0 0c 1c ff ba a5 37 05 bb bc 47 b2 35 7a 89 af 17
       -0.0019463315 -0.0020327356 1.3282911e-06 1.1343814e-24
0002e0 17 ad 4d 97 2c 5e a1 ba da 97 b5 b3 cc 00 08 97
       -6.6457543e-25 -0.0012311391 -8.456091e-08 -4.3944976e-25
0002f0 de e9 62 96 6e 02 85 16 6f a0 97 bc cc 84 b1 3c
       -1.832993e-25 2.1488842e-25 -0.018509118 0.021669768
000300 61 e1 16 bd 9f 32 ae bb a9 e6 e9 bc 12 1f 02 bc
       -0.03683603 -0.005316093 -0.02855237 -0.007941978
000310 87 1d 3c bc 5b 11 e1 3b 7b 8a 0c bd 0b f6 2d bd
       -0.011481649 0.006868524 -0.034311753 -0.042470973
000320 58 16 80 3a 6a be 2a bd 22 4a ec bc 20 d6 73 bc
       0.0009772284 -0.0416855 -0.028843943 -0.014882594
000330 08 d4 17 bc 5b d4 cf bb 91 6c 85 bc 3d ac 1f bb
       -0.009266861 -0.0063424534 -0.01628712 -0.0024364137
000340 ae a9 c0 bc f2 9d 81 3c f2 9c bd bb c9 cf 12 bd
       -0.02351841 0.015822385 -0.0057865316 -0.03584269
000350 09 7e 11 bd 3e 82 e5 bc a8 ce 03 bd 10 49 40 bb
       -0.035520587 -0.028016206 -0.032179505 -0.0029340424
000360 06 f6 7b 3b 87 5b 60 bb 86 fe 04 3b e9 44 74 39
       0.0038446202 -0.0034234242 0.002029331 0.00023295324
000370 b2 28 48 ba 98 97 ad bb 37 fd 5d bc 32 1e 9a bc
       -0.00076354586 -0.0052976124 -0.013549141 -0.018813226
000380 47 c8 08 bb 5c 8d 9e bc 2b 7f be bc dd 1e 1a bc
       -0.0020871328 -0.019354515 -0.023253998 -0.009406772
000390 41 8a 91 3c 1a eb be bc cd f0 cf bb 8f 65 c6 bb
       0.01776612 -0.023305465 -0.0063458444 -0.006054587
0003a0 5d a6 30 37 15 51 17 bb 4a ae 3f 3b bd 4a e6 b9
       1.0529152e-05 -0.00230891 0.0029248171 -0.00043924703
0003b0 fa b1 57 3b 55 16 4f bc 09 02 b4 bb ca 86 37 3c
       0.0032912479 -0.012639602 -0.0054934067 0.01120157
0003c0 2a 47 8d bb 6b 49 c0 bb e7 42 c3 3b d6 fe 44 bb
       -0.004311462 -0.005868127 0.005958903 -0.003005912
0003d0 5f d5 02 b9 0a af ab 38 63 d5 42 9d 30 10 24 b7
       -0.00012477253 8.186519e-05 -2.5786005e-21 -9.778931e-06
0003e0 dc 8a 49 b9 3d c2 ab bb 1b 95 1b bc f7 f0 46 bc
       -0.00019220583 -0.005241661 -0.009495999 -0.012142411
0003f0 cc 01 f0 ba 6c 96 44 39 c2 6d 3a bb 06 e3 52 bc
       -0.0018311082 0.00018748053 -0.0028446768 -0.012871509

bias f4 [128]
000000 93 b4 3b bc 85 97 ac b6 14 6d ea bc 55 08 1b 3c
       -0.0114566265 -5.1436386e-06 -0.028616466 0.009462436
000010 63 47 74 3c b4 5d 5f ba ad 3e e6 bb dc ee b4 3c
       0.014909598 -0.0008520738 -0.0070265145 0.022086553
000020 6f 94 29 bd 60 12 07 1a bb 0c 21 3d 0a 57 41 bd
       -0.041401323 2.793219e-23 0.03931878 -0.047202148
000030 eb e6 23 bb 6f 6d 2b 3d 0e 09 48 3d 6d 29 b7 bb
       -0.0025009464 0.04185241 0.04883676 -0.005589655
000040 12 e4 f5 3c 63 e4 3e ac 99 0a e9 3c 2e 22 f8 3c
       0.030015979 -2.7127404e-12 0.028447436 0.030289736
000050 18 7e 07 bb 26 a5 3d bb 8b 2e aa 3c 70 ab aa bb
       -0.0020674523 -0.0028937547 0.020774147 -0.005208425
000060 6d 79 cc b9 80 02 27 bd 0a a1 b6 36 c6 8b 98 bb
       -0.0003900038 -0.04077387 5.44277e-06 -0.004655334
000070 9c 86 09 bb cd c5 c8 bb 13 a0 38 b4 99 54 50 99
       -0.0020984774 -0.0061270953 -1.719457e-07 -1.0770432e-23
000080 2c f3 5c 3d 45 39 ac ba 5e e0 83 bc 15 cb fd 3c
       0.053942844 -0.0013139626 -0.016098198 0.030980626
000090 87 f5 26 bd 14 a4 6e bb 6b f6 24 3d e6 e1 fb bb
       -0.040761497 -0.0036413716 0.040274065 -0.0076868413
0000a0 be ed 42 aa e7 0f c9 3c a4 a6 04 bd 91 2f 9f 3b
       -1.7313145e-13 0.024543716 -0.032385483 0.0048579653
0000b0 1d f4 ac 3b db bd 55 bd 4c 2f f2 ba 31 b2 73 bb
       0.005278124 -0.052183013 -0.001847723 -0.0037185068
0000c0 97 cb 05 bd 6c 90 05 3c c9 94 30 3d 3e eb 2b bc
       -0.03266486 0.008152109 0.043110643 -0.010493098
0000d0 99 ed 23 3c 5a 4e 27 3d 0c ca 69 3d 51 07 1b 3d
       0.010005378 0.040846206 0.057077453 0.037848774
0000e0 c8 2e d6 a8 c3 90 22 bb 9b 59 7d bb 36 8c 2a 21
       -2.3779061e-14 -0.0024805523 -0.0038658145 5.778381e-19
0000f0 f4 55 0c bd 70 a5 28 3d 06 4a b6 3b b7 f1 12 19
       -0.03426166 0.0411734 0.0055630235 7.596837e-24
000100 6c 47 09 3d 31 44 b3 bb a2 c2 3a ac cf 56 c5 bb
       0.03351538 -0.0054707755 -2.6540233e-12 -0.0060223113
000110 2f be 19 bd 0a 15 20 bc d5 8e 1e 3d d6 22 96 3c
       -0.03753489 -0.009770641 0.038710434 0.018327158
000120 63 11 17 3d 02 53 00 3c 66 83 b1 3b c9 c0 75 3d
       0.036881816 0.007832291 0.0054172752 0.059998307
000130 78 bc 17 b9 e0 38 6b 3d b6 fd 66 b9 b8 9a 31 3d
       -0.00014470692 0.057427287 -0.00022029024 0.043360442
000140 17 29 5c ba 91 df 05 bc 8d ca e0 3c 8a 0e 8d bc
       -0.0008398457 -0.008170978 0.027440334 -0.017218847
000150 c5 29 e9 bc 58 29 64 3d 8e 38 71 3b ba 80 48 3c
       -0.0284623 0.05570349 0.003680739 0.012237722
000160 ac d6 2b 3d 66 46 0e bc ff 3c 73 bb 18 25 31 38
       0.041952774 -0.0086837765 -0.0037115214 4.2234635e-05
000170 be 2b b0 ba 37 58 01 bd a4 97 e8 bb 89 06 81 bc
       -0.001344077 -0.03157827 -0.007098155 -0.015750187
000180 51 35 9f b6 ec 11 88 bc 27 42 79 b7 87 fa b1 bc
       -4.744776e-06 -0.016610108 -1.4856959e-05 -0.021725906
000190 ef c2 f9 bc ca 89 8e 3c 2a 46 63 97 75 47 1d 3a
       -0.03048846 0.017399687 -7.3436215e-25 0.00059997226
0001a0 64 23 0a bc b2 20 2e bd 22 b3 ed ba 4d 34 7d 9a
       -0.008431289 -0.04251165 -0.0018135051 -5.2361422e-23
0001b0 7d 07 da 3c ee 70 a8 bc 0a 17 25 bd 8c 24 2c af
       0.026614899 -0.020561662 -0.040305175 -1.5656293e-10
0001c0 f0 10 8d 3b 50 dc 31 3d 4c 73 1f bb 3e a6 be bc
       0.0043049976 0.043422997 -0.0024330197 -0.02327263
0001d0 08 1c 29 3c 23 9e ae bc 81 b5 d1 bb 35 aa 1a af
       0.010321625 -0.02131564 -0.006399811 -1.4066688e-10
0001e0 71 37 34 bd 40 9e 4e bc 41 65 f6 3c 51 58 95 b9
       -0.043998186 -0.012610972 0.030077578 -0.00028485295
0001f0 ef 7c 37 bd 4b ef bf bc 6e 70 ed bb 71 74 2b 3c
       -0.04479688 -0.023429533 -0.0072460687 0.0104647735

weight f4 [128, 128]
000000 24 96 4f bd 16 c2 5c ba 91 25 a2 3d d0 f1 59 bd
       -0.050680295 -0.0008421255 0.079173215 -0.053209126
000010 8c b6 c8 3d ac 24 97 bc ef 64 03 3d 69 c9 d4 bc
       0.09800443 -0.018450104 0.03207868 -0.025974946
000020 51 51 90 bd ca 33 5b 18 b4 93 f6 bc ea fa 61 bc
       -0.0704676 2.8331233e-24 -0.030099727 -0.013792733
000030 be 9a aa bd 83 46 7e 3d 0f ba 15 bc a7 60 d4 b9
       -0.08330296 0.062078964 -0.009138598 -0.00040507803
000040 5d 99 87 3d 1b 56 07 97 d2 45 9e 3d 5e ac f1 3c
       0.066210486 -4.3729533e-25 0.07728161 0.029501136
000050 8c fd 92 3d 4e ac 4c bb a8 83 88 bd 11 4c 0f 97
       0.071772665 -0.0031230631 -0.066657364 -4.63018e-25
000060 54 81 18 19 d2 21 85 3d b6 66 30 31 81 98 84 3c
       7.8843334e-24 0.06500591 2.5669755e-09 0.016186
000070 da 4f 84 3c 78 e1 14 39 6e 49 20 98 6e 28 2d 17
       0.016151357 0.00014198374 -2.0716588e-24 5.5950344e-25
000080 41 ed 69 bd 63 c1 f3 bb 50 70 c1 bb a6 c4 1c bd
       -0.05711103 -0.007438825 -0.0059032813 -0.038273476
000090 58 9f 12 bd 8b 55 3e 3d 74 67 a4 3d 59 e9 ef bc
       -0.035796493 0.0464683 0.080275446 -0.029286074
0000a0 80 00 3c 96 37 b4 8c 3d d5 52 ae 3d ea 72 fe 39
       -1.5186677e-25 0.06870311 0.08511893 0.00048532273
0000b0 13 31 19 bc 48 85 ae 3b f4 bb 89 bb e7 a3 3e bd
       -0.009350079 0.005325947 -0.004203314 -0.04654303
0000c0 b3 9d 81 3d 64 23 7e 3d 5b f5 71 bd d3 53 2a bd
       0.06328907 0.06204547 -0.05907188 -0.041583847
0000d0 5f 47 3d af 91 97 40 bd 41 3e 71 bd a5 5e 73 3c
       -1.7214806e-10 -0.047019545 -0.05889726 0.014854108
0000e0 ad b4 6e 17 4c a9 dd 3d c8 a0 df bb 8f 72 e3 99
       7.7129992e-25 0.108233064 -0.0068245865 -2.351752e-23
0000f0 38 44 38 3d 8f fc 9b 3d 7f f0 06 3d 23 e2 02 9a
       0.044986933 0.07616531 0.0329442 -2.7066042e-23
000100 5f 92 5b bd b7 69 bb 3b 59 fc cd 99 89 97 85 bb
       -0.053606387 0.0057193893 -2.1298426e-23 -0.0040769023
000110 72 a6 42 ba d0 e0 77 bc ab 22 65 bc 46 e1 85 bd
       -0.0007425315 -0.015129283 -0.013985316 -0.06537108
000120 87 29 88 3d 67 54 68 3d 97 0f 2e bd b8 94 b1 3d
       0.06648546 0.056721117 -0.042495336 0.08670944
000130 bf ec a6 3b 4d 06 9a 3c 04 39 cf 16 34 84 a7 bd
       0.0050941403 0.018801833 3.3478636e-25 -0.081795126
000140 78 46 2c b9 f6 e4 78 bc 19 99 91 ba 18 6f 62 bd
       -0.0001642945 -0.015191307 -0.0011108249 -0.05528173
000150 fa b5 b5 bb 08 7b c1 3d 1b dc f4 bc 4b d4 94 bd
       -0.005545375 0.094472945 -0.02989011 -0.07267054
000160 19 a4 00 3d 26 5c 14 bb d8 8e ad bd 7e be 37 3d
       0.031406496 -0.0022637933 -0.08474511 0.044859402
000170 2c 2e a3 3d fa b1 0b 3c 86 2b 0d bd 0e 59 dc bb
       0.07967791 0.00852632 -0.034465335 -0.0067244833
000180 3c d7 1c 98 b4 d8 0b bd 8e 67 a4 15 a0 8e 02 3d
       -2.0271193e-24 -0.03414221 6.640245e-26 0.0318743
000190 42 61 31 3d 39 84 b9 3d e2 2e da 18 81 63 ae 96
       0.043305643 0.090584226 5.639902e-24 -2.8174012e-25
0001a0 6a 97 89 3d 8d 6f 35 3d 6e 74 c9 bc 26 1d 91 98
       0.06718333 0.044295836 -0.02459165 -3.7511054e-24
0001b0 40 0b 5f 3d de c5 c9 3b 4a 5c a6 bc 02 e7 30 97
       0.05445409 0.006157621 -0.020307679 -5.716024e-25
0001c0 ae d7 80 bc fb 8d 3a 3b 3b 24 03 bc ff 5d 99 3d
       -0.015727844 0.0028465975 -0.0080042435 0.074886315
0001d0 89 cc 9c 3d 47 bb c9 bc e9 51 f1 3b 03 6c 34 97
       0.076561995 -0.024625434 0.007364501 -5.8297467e-25
0001e0 7c 65 a7 3c 0c e0 03 3d 6b 2d ce 3c 91 70 3d bb
       0.020434134 0.03219609 0.025168141 -0.0028906206
0001f0 32 aa 14 bd 18 5c 16 3d 1f 9a 59 3c 0c 85 56 bd
       -0.036295123 0.03670892 0.013281374 -0.052372977
000200 25 10 24 96 84 02 95 98 4b ed 3d b8 af fc 44 16
       -1.3252909e-25 -3.8518137e-24 -4.5282108e-05 1.5912487e-25
000210 2b 44 8f 98 90 57 b4 9a f3 0d 85 b9 63 07 84 17
       -3.7033466e-24 -7.458772e-23 -0.0002537813 8.532165e-25
000220 51 30 a8 b5 96 7d 40 16 34 77 82 b7 47 db 92 19
       -1.2531037e-06 1.5549264e-25 -1.5552716e-05 1.5184612e-23
000230 eb 8d b8 b3 dc f3 95 97 e9 5d 0f af b1 bb 8c 95
       -8.5939824e-08 -9.690458e-25 -1.3039138e-10 -5.6841675e-26
000240 c1 09 71 19 11 4a 2c 97 49 9b 3a b6 6f af 1c b8
       1.2461378e-23 -5.566968e-25 -2.7806548e-06 -3.7356684e-05
000250 98 17 ff 13 b8 d5 cb 95 40 92 90 12 8e 76 f8 98
       6.4394315e-27 -8.2328236e-26 9.123731e-28 -6.4226207e-24
000260 24 bd c4 15 64 b1 7a 19 4e 30 ef 96 c9 58 3d 16
       7.946218e-26 1.2960521e-23 -3.8643017e-25 1.5295314e-25
000270 ca af 19 36 59 3c ac 98 14 0c bc 95 c5 dd 02 96
       2.29011e-06 -4.4521893e-24 -7.595165e-26 -1.0571294e-25
000280 ce 07 17 b2 92 f8 d3 95 0b 93 87 17 c0 fc 4a 37
       -8.791131e-09 -8.5614396e-26 8.761289e-25 1.2098986e-05
000290 19 5e 33 15 85 69 ef 95 1c f7 e2 36 71 b6 1f ab
       3.6222992e-26 -9.669781e-26 6.764092e-06 -5.6741336e-13
0002a0 1d ef 8f 9a da 8d 24 16 5a 66 19 b9 78 88 6a 16
       -5.952972e-23 1.3292575e-25 -0.00014629346 1.8945431e-25
0002b0 2c 25 f5 96 a9 68 f7 16 7b ac 1c 17 db 26 e8 18
       -3.9605344e-25 3.9971052e-25 5.062402e-25 6.000983e-24
0002c0 91 21 ac 17 cc 04 5a 9a ba cb cc 18 3e e2 19 b8
       1.1123713e-24 -4.5085218e-23 5.2938475e-24 -3.6688747e-05
0002d0 7b e5 b0 17 9b b1 a4 23 09 b4 17 b7 92 8b f0 b3
       1.1431662e-24 1.7856134e-17 -9.042219e-06 -1.12012586e-07
0002e0 5a 50 14 16 e6 be 83 96 18 27 53 94 81 d9 d6 1a
       1.1980699e-25 -2.1284665e-25 -1.06604875e-26 8.885972e-23
0002f0 96 9c 26 17 0c 93 f4 94 4b f3 b5 97 a1 1e 7f 17
       5.383513e-25 -2.4695704e-26 -1.1758267e-24 8.2433603e-25
000300 b4 ad cb 37 ac 0d 9c 95 a2 40 9a 14 82 ff 12 16
       2.4280373e-05 -6.302947e-26 1.557552e-26 1.187441e-25
000310 38 45 aa 16 e6 56 15 36 7f 38 4a 19 2d bb 0d 36
       2.7508664e-25 2.2253312e-06 1.04545645e-23 2.1119588e-06
000320 13 9b 0c 1a 6f 65 33 95 b7 a6 54 b7 fd ba 16 b9
       2.907659e-23 -3.622878e-26 -1.2675001e-05 -0.00014374773
000330 4c ce 88 95 8a 13 ab b4 3b 7b 51 17 10 aa 9e b5
       -5.525544e-26 -3.186545e-07 6.768708e-25 -1.1821412e-06
000340 b3 e1 c4 99 ac bb 90 b3 c0 3f bb b8 42 da 41 b6
       -2.0357084e-23 -6.73966e-08 -8.928729e-05 -2.8886284e-06
000350 e6 28 0e 17 9b 22 2b b2 a0 ea 11 9b db 50 57 b7
       4.5934296e-25 -9.961378e-09 -1.206993e-22 -1.2833824e-05
000360 08 73 f4 b6 23 71 7e 16 9d 7d 7e 98 89 f5 ea ae
       -7.285158e-06 2.0553656e-25 -3.289215e-24 -1.0684704e-10
000370 e9 fc 12 b5 45 65 dd 1a 7b 78 61 1c 7e 19 38 b5
       -5.475727e-07 9.156707e-23 7.460197e-22 -6.858244e-07
000380 84 a9 87 95 61 99 99 b4 ac 50 9b 94 19 b4 2f 96
       -5.4793514e-26 -2.861007e-07 -1.568282e-26 -1.4193216e-25
000390 bc 4c cb 15 a5 ce 02 b7 bf 70 97 98 d2 fc 32 17
       8.211211e-26 -7.796717e-06 -3.914643e-24 5.7834006e-25
0003a0 2b 33 19 15 7b cd 9d b5 9a b6 76 16 82 7f 63 99
       3.0938468e-26 -1.1757214e-06 1.9929341e-25 -1.1761375e-23
0003b0 92 78 02 1b 9d 34 df b3 2c 8c 00 18 ab c3 e4 95
       1.0792306e-22 -1.0393817e-07 1.661438e-24 -9.2397176e-26
0003c0 33 27 d4 b5 60 50 c0 15 ba e2 0e 97 83 f9 27 b7
       -1.5806639e-06 7.767499e-26 -4.6168844e-25 -1.001207e-05
0003d0 41 29 ca 94 f5 1a c2 9a 59 2b c5 96 41 f5 0d 1b
       -2.041306e-26 -8.028007e-23 -3.1854423e-25 1.1742492e-22
0003e0 43 a8 e1 9a 98 9d eb 96 6a b7 ef b8 50 a4 d5 97
       -9.332966e-23 -3.8065753e-25 -0.000114305716 -1.3806281e-24
0003f0 fa 51 a5 15 24 ee d7 24 33 1b 9d 18 b6 a8 8a b7
       6.6772305e-26 9.364481e-17 4.0611013e-24 -1.6529444e-05

bias f4 [128]
000000 48 37 64 3c 53 8f 6f 1a 26 a7 30 37 f5 7d be a7
       0.013929196 4.9539818e-23 1.0529335e-05 -5.2872157e-15
000010 c0 71 84 b6 f4 6e 04 bc 91 55 3a bb ab 04 ff bb
       -3.947149e-06 -0.008083094 -0.002843235 -0.007782539
000020 10 61 c3 bc 47 03 1d ad c7 c1 42 3d 97 c0 1e 3d
       -0.023849994 -8.9251445e-12 0.04754808 0.038757887
000030 43 52 c6 3d 5c 88 2b bd ee 2e 50 bd 9d 2d 17 39
       0.09683659 -0.04187809 -0.050826006 0.00014417474
000040 ea f6 04 bd 2a 6a 98 a7 a2 cf 68 bd c6 1e 1f bc
       -0.032462038 -4.230358e-15 -0.05683864 -0.009711927
000050 6d 4a 5c 3d 6b 70 8c bd bb f9 2f bd 5a c2 bd bb
       0.053781915 -0.068573795 -0.04296277 -0.005790991
000060 27 7d ae bb ad 64 c3 3d c2 80 64 b7 62 1c 12 bd
       -0.005324978 0.09540687 -1.3619838e-05 -0.0356716
000070 dc fe e5 bc 62 93 7c 3d 6c 21 0e 3d 19 5f 67 bd
       -0.028075628 0.061663993 0.034699842 -0.056487177
000080 d8 40 2a bd 3d 79 c8 bb 38 95 86 3c 16 da 50 ba
       -0.041565746 -0.0061179684 0.016428575 -0.00079670676
000090 a3 1c 48 3d 8c 1f 15 3d 77 da ee ba 6b d5 8c 3d
       0.048855435 0.03640704 -0.0018223067 0.06876644
0000a0 ab f6 f6 bc 06 c8 c7 b7 af ab 2f 3c 7d 50 79 b9
       -0.030146917 -2.3815792e-05 0.010722085 -0.00023776475
0000b0 62 56 14 bd a7 19 1b bd 6e c6 f0 3c 43 fa 0c bd
       -0.036215194 -0.03786626 0.029391494 -0.034418356
0000c0 44 4a 7e 21 f0 8a 91 3d b2 9c b8 3c 87 2a 93 b4
       8.6156837e-19 0.07106578 0.022535656 -2.7411826e-07
0000d0 ef 77 95 3b 59 3e 1d bd d1 78 89 3d 08 16 af bd
       0.0045614163 -0.038389537 0.06712497 -0.08549124
0000e0 15 b3 29 bb 46 14 56 bd 47 89 e7 bb 84 54 70 bd
       -0.0025894095 -0.052265428 -0.0070659253 -0.05867435
0000f0 a4 4f c0 3d ae e5 f8 b9 10 73 83 bd aa 87 3a 3d
       0.0939019 -0.0004747337 -0.06418431 0.045539536
000100 1f 46 8c 3c 5d df 20 ba 08 8d 27 3d 6c bc 80 bd
       0.01712328 -0.00061367993 0.040905982 -0.062859386
000110 8f 5c bc 3b 64 e3 02 3c 27 04 fb bb 11 b9 15 bc
       0.0057483385 0.007988784 -0.007660407 -0.009138362
000120 5e 01 ae bc 18 9d 3a bd 6e da 9a 3d 4e c4 07 bd
       -0.021240886 -0.045559973 0.075611934 -0.033146195
000130 dd c2 8b 3d 4f d9 f3 bb fb 85 a6 ac 70 4f 31 3d
       0.068242766 -0.0074416767 -4.7328786e-12 0.043288648
000140 33 09 96 bd cb db bc 3d 09 0c b1 3d 94 e9 57 3d
       -0.07325973 0.0922161 0.08644874 0.05271299
000150 d2 c1 92 bd 6a 12 7e 3a d6 29 c2 bc bb 75 c5 3d
       -0.071658745 0.0009692075 -0.02370159 0.09641596
000160 4c fc 70 bc 7f 21 40 bd ac 54 74 bd f0 fa f5 bb
       -0.01470859 -0.046906944 -0.059651062 -0.0075067207
000170 15 b6 13 bb 9a a4 90 bb 39 c4 d1 bc fd 88 98 39
       -0.002253895 -0.0044141533 -0.025606262 0.00029093763
000180 fb 69 6e 3c 53 09 d0 bb e6 ce ff bb 16 1a 9f bc
       0.014551635 -0.006348768 -0.0078066466 -0.019421618
000190 8b 6a bc bb c9 94 1d ba 3c 99 15 3a a9 94 91 3d
       -0.0057500056 -0.00060112454 0.00057067326 0.07108433
0001a0 e4 f0 66 bd e5 c1 b5 bc 3e f2 13 3d 19 d4 8e bd
       -0.056382075 -0.022187183 0.036119692 -0.06974048
0001b0 2e 31 86 3d 50 0a 75 bb 9c 95 7a bc b2 52 89 3d
       0.06552349 -0.003739018 -0.015294459 0.06705226
0001c0 5a e7 f2 27 8b 5e b0 3c 6a 0d 69 21 a7 f1 af bb
       6.7419325e-15 0.021529457 7.8961224e-19 -0.0053693834
0001d0 fe f1 be bc 38 57 ce 3c d9 ad 22 ba 19 31 90 3d
       -0.02330875 0.025188074 -0.0006205715 0.07040615
0001e0 aa bf 8f bd c1 6e ed bc e4 94 3c bd 9c 03 06 bc
       -0.07018979 -0.028983476 -0.04604043 -0.0081795715
0001f0 6e 2e 5a 3d 3d ed 4c 3c 26 04 77 3d 9c 13 90 bb
       0.053266935 0.012507734 0.06030669 -0.004396869

weight f4 [128, 128]
000000 95 5b 8b 3d e9 7d 90 19 42 c4 b2 a0 c4 20 ac a7
       0.06804577 1.4940106e-23 -3.0284245e-19 -4.7775115e-15
000010 d9 36 95 bb 47 87 81 3d fb 33 ba bb de 72 f5 3b
       -0.0045536575 0.0632463 -0.005682466 0.0074905
000020 af 92 0d b7 22 80 3f ba 2e 9f 04 bc c7 77 b2 bc
       -8.438407e-06 -0.0007305165 -0.008094592 -0.02178563
000030 ad 93 93 3d 0f ca 19 bd f3 84 0e 3d 58 44 d6 16
       0.07205901 -0.037546214 0.03479476 3.4616696e-25
000040 1a 23 5e 3c b6 f9 eb 26 95 2c 12 3c 4d 0b 68 bc
       0.013558174 1.6374085e-15 0.008921762 -0.014162851
000050 7c 7a f1 3c 54 62 5d bc 8d bc 8a bc 53 b4 a6 3c
       0.02947735 -0.013512213 -0.016935611 0.020349657
000060 62 0a af 3d f4 a8 02 3d d0 aa 95 3d c7 9e 8a 3d
       0.08546902 0.031899408 0.073079705 0.067685656
000070 bf cf a8 bb c7 19 99 bd 52 98 09 3c f2 c1 08 3d
       -0.0051517184 -0.0747562 0.008398132 0.033388086
000080 db 35 b8 3d 41 e6 66 bc df 59 c4 3c 51 c3 10 bd
       0.08994647 -0.014092983 0.023968635 -0.03534252
000090 ed 46 48 bb 01 36 03 bd d1 75 30 bc d8 a6 49 3d
       -0.0030559853 -0.032033924 -0.010770277 0.04923138
0000a0 8b ee fd bc 01 e8 b7 af 27 72 99 bc e8 00 73 3a
       -0.030997535 -3.3452355e-10 -0.01873119 0.00092698494
0000b0 46 3b a2 bb c3 6b c2 3d 2f c1 50 bd ca b3 67 3d
       -0.0049509136 0.0949321 -0.050965484 0.056567945
0000c0 96 ce ff a4 30 56 9b 3d a1 8e 4d bc 8f 96 f1 3b
       -1.1093859e-16 0.07584798 -0.012546212 0.0073726843
0000d0 f8 00 2b 3c 44 15 28 3d 2b 1f 5a bd 5b b8 b7 bc
       0.010437243 0.041035905 -0.05325238 -0.022426775
0000e0 f4 16 58 bc fa 1f 91 bd e6 76 54 3c dc 85 a6 3c
       -0.013189066 -0.07086177 0.012967801 0.020327501
0000f0 be cd 45 3d 28 42 7e ab ad 93 6f bd 95 0f 3c 3d
       0.048291914 -9.033074e-13 -0.058490444 0.045913298
000100 25 e0 8c 3d 8d ca c9 3d 52 84 04 3d 2b a1 a0 bd
       0.0687869 0.098530866 0.032352753 -0.0784324
000110 27 d0 6d bc 15 ee e9 3c 34 fd 49 bc 18 27 07 3c
       -0.014514959 0.02855591 -0.012328435 0.008249067
000120 3e b6 ab 3d d9 bc d1 3c 9f 2f 9b 3c ff de d5 b9
       0.08384369 0.025602745 0.018943606 -0.0004079267
000130 bc 9c ac 3d 9a e3 7d 3c 56 f9 45 98 e2 70 88 3d
       0.08428332 0.015496159 -2.5587536e-24 0.06662156
000140 fe 73 23 3d 4c f2 89 3d f0 a5 79 bd 84 fe 30 3d
       0.03990554 0.067356676 -0.060949266 0.043211475
000150 bf bd 3f 3d d3 0d d1 bc b0 8c 84 3d 2c 8b b5 3c
       0.046811815 -0.025519287 0.064721465 0.022161089
000160 a1 57 8b 3c 69 4e b1 3d 55 4b da bc 89 53 77 b7
       0.017009558 0.08657534 -0.02664725 -1.4741797e-05
000170 a3 9a 65 3d 71 b5 f8 bc ae 49 ba bc 75 4b a0 3d
       0.056055676 -0.030359956 -0.022740211 0.07826892
000180 09 4c 4d 3d 77 96 87 3b cb 22 fa 3a 32 fc a3 3c
       0.05012134 0.00413781 0.0019083855 0.020017717
000190 28 60 23 3c 0a d3 24 3c 56 07 ef 29 78 09 0a 3d
       0.009971656 0.010060081 1.0615005e-13 0.033700436
0001a0 40 b3 6d 3d 7d 4e c6 3d 12 33 c1 3d 10 cd 83 bd
       0.058032274 0.09682939 0.09433569 -0.06435597
0001b0 fc 1a d4 bc b2 81 a4 bb 35 9a 30 3d 3d 9f 53 3d
       -0.025891773 -0.0050203437 0.043115813 0.051665533
0001c0 27 aa 45 bc b4 8c 56 bd 35 2d 50 22 62 4f f3 3b
       -0.012064493 -0.05238028 2.8213189e-18 0.0074252347
0001d0 b5 69 52 3d cd b3 9c bd 20 8d 64 bb c2 7a 2b bd
       0.05137034 -0.07651482 -0.0034874156 -0.041865118
0001e0 22 21 9c 3d a5 29 43 3a 38 d8 67 3c 5f e0 a9 bc
       0.07623507 0.0007444865 0.014150672 -0.020736871
0001f0 52 d6 28 bd f8 1a a9 bc 74 07 21 3d cc 61 74 3d
       -0.041220017 -0.020642743 0.03931375 0.05966358
000200 d7 b2 0f 3d a7 f7 e2 95 a8 c9 db 17 42 ae 00 97
       0.035082664 -9.16714e-26 1.4203448e-24 -4.1578975e-25
000210 36 15 d4 16 8a 24 a9 3d d8 70 84 96 a8 40 1c 97
       3.4263833e-25 0.082589224 -2.1396965e-25 -5.0487926e-25
000220 d4 09 9a 96 90 52 7f 17 e4 28 a8 bd d9 9a d2 3c
       -2.4886244e-25 8.249915e-25 -0.08210924 0.025708603
000230 23 bd 93 bd 11 82 a2 97 bd 29 91 bc 66 55 26 16
       -0.07213809 -1.0501838e-24 -0.017720098 1.343632e-25
000240 a7 5e 08 3d a5 a3 19 9a 3d dc 7a bd 4c 3d 57 95
       0.033293393 -3.177185e-23 -0.06124519 -4.346726e-26
000250 f7 c9 cd bb 5f f4 ed 3b 00 8c 45 3d 8c 81 7d 16
       -0.0062801796 0.0072617973 0.048229218 2.0478055e-25
000260 c4 56 ec 3b 5b 98 25 bc 7a b7 87 3c 57 91 96 bd
       0.0072124917 -0.010107125 0.01656698 -0.0735194
000270 6f 15 5a bd 58 38 0b 3d 29 b8 39 3a fa f0 7c bd
       -0.053243097 0.03398928 0.0007084632 -0.06175325
000280 72 03 3e 3d e7 c6 71 18 93 a0 b4 bb 9d 86 41 bd
       0.046390004 3.124894e-24 -0.005512306 -0.047247518
000290 84 db 86 3d 91 68 9a 15 6c 1e d1 16 bf a9 73 bd
       0.06584838 6.236508e-26 3.378497e-25 -0.059488054
0002a0 23 f5 66 3c 87 53 c4 96 ac dc ca 3c d9 d6 44 96
       0.014096531 -3.171822e-25 0.024763428 -1.5900548e-25
0002b0 f0 a0 a4 bd a4 00 99 3d 32 53 8c bd ee f6 1b bd
       -0.08038509 0.07470825 -0.06851806 -0.038077287
0002c0 04 63 e4 96 11 dd a6 bd 8e 23 60 bd 6d c6 b7 9a
       -3.6897874e-25 -0.08147634 -0.054721408 -7.60076e-23
0002d0 55 81 ed ba 68 0b 2f 3d 9a 52 01 bd 1a d3 62 bd
       -0.0018120209 0.042735487 -0.031572916 -0.055377103
0002e0 46 db aa 95 16 c2 bf bc 84 35 6b 96 24 12 9a 9a
       -6.9008406e-26 -0.023407977 -1.9000035e-25 -6.3722215e-23
0002f0 66 1b ec b9 58 12 48 96 f7 2a 99 3d 2a 61 7d 3d
       -0.0004503384 -1.616166e-25 0.07478898 0.06186024
000300 22 f6 d7 3b 34 3c 9d 3c aa 86 35 bd f4 d1 85 99
       0.0065906206 0.019193746 -0.04431788 -1.3836677e-23
000310 33 28 5a 99 9a 50 f8 16 a9 0c c2 97 05 71 45 bd
       -1.1278454e-23 4.0117428e-25 -1.2540152e-24 -0.048203487
000320 d8 a2 93 3d 6c 13 09 3d 08 92 81 3d e6 f0 bc b7
       0.07208794 0.033465788 0.063266814 -2.2523524e-05
000330 89 2e 90 3c 54 d5 73 16 5b c0 9d 17 0d c1 7d bc
       0.017600315 1.9696698e-25 1.0194445e-24 -0.015487921
000340 6e 65 58 3d d0 df 18 bc ef fc a4 bc 71 3d fb 3c
       0.052831106 -0.009330705 -0.02014014 0.030668946
000350 93 04 4f bd e5 d3 f4 3b e0 7a 1d bd 45 34 c6 bc
       -0.05054147 0.007471549 -0.03844726 -0.024194846
000360 1a e8 b2 15 f9 97 a6 3d 80 34 d5 3b a0 1c 5a 19
       7.225982e-26 0.08134455 0.0065065026 1.1276117e-23
000370 8d b6 80 3d 30 dd 54 98 ff ac 42 15 64 e7 86 3d
       0.06284819 -2.7512029e-24 3.9314458e-26 0.06587103
000380 eb af 36 3d 68 6c 37 93 db 63 09 9a af 4e 46 3d
       0.044601362 -2.3151296e-27 -2.84116e-23 0.048414882
000390 0d fb 55 95 40 f5 cc 13 ba 58 ed 95 65 ad 4e bd
       -4.3213052e-26 5.1738675e-27 -9.5863524e-26 -0.05045833
0003a0 89 b3 a5 3b 60 eb 7f bc 5f 29 22 bd 85 71 ae bd
       0.0050568026 -0.015620083 -0.039590236 -0.08517746
0003b0 1d 45 a5 3c 7b 1a a0 93 2c 9c 0c bb be f1 76 3c
       0.020174557 -4.041579e-27 -0.002145539 0.015072284
0003c0 26 af 2b 96 9e f0 8d 15 c0 0f 13 13 fe b9 4e 95
       -1.3868537e-25 5.7329073e-26 1.8561774e-27 -4.174809e-26
0003d0 62 97 0c 3b 38 67 12 3d 17 00 61 19 c0 c6 16 bd
       0.0021452536 0.03574297 1.16322455e-23 -0.036810637
0003e0 e2 aa 6f bd 37 9e 25 3a ad 52 59 3d e1 de 95 bd
       -0.058512576 0.00063178263 0.05305736 -0.073179014
0003f0 9c 11 49 bd 66 1b b6 95 d9 26 86 3d 74 53 a2 3d
       -0.04908906 -7.355244e-26 0.06550378 0.07926074

bias f4 [128]
000000 2c 1e 91 3d 65 42 4a 3d 7c 1e de bc 0e 93 d6 3c
       0.07085833 0.049379725 -0.027114145 0.026193168
000010 2c 6e 91 bc ad 9a 1e 3d 29 b7 63 bb 21 36 88 bb
       -0.01775273 0.03872173 -0.0034746623 -0.0041568433
000020 de 18 af bd e0 0e 85 bb 77 93 b1 3d 80 fe 95 3c
       -0.08549665 -0.004060611 0.08670705 0.018309832
000030 2c 0c 88 bc 1f 70 63 3b a5 58 c5 3d e8 d0 9a 3c
       -0.016607367 0.003470428 0.09636048 0.018898442
000040 23 a3 80 a2 29 02 c8 bb ad 0f 06 bc 0e 01 da 3b
       -3.4867197e-18 -0.006103773 -0.008182448 0.0066529578
000050 4a 0c 12 bb 62 c1 d4 3b d6 4e 67 b9 df 5e 6e b4
       -0.0022285157 0.0064927796 -0.00022059245 -2.2199991e-07
000060 50 7e 2b 3d cd 95 48 3d e2 09 5a b6 6d 99 86 bd
       0.041868508 0.048970986 -3.2490284e-06 -0.065722324
000070 63 70 07 3d 85 74 a8 3c 93 3d 22 3c 01 cf 55 bb
       0.033066165 0.020563373 0.009902376 -0.0032624605
000080 7a 0f e6 bc 27 2a 05 bc a6 5c 0f b7 b9 34 ab 3d
       -0.028083552 -0.008127726 -8.545036e-06 0.083596654
000090 0a 49 b6 3d ff 0d 4a 3d 56 71 b0 bd 81 f4 1f bd
       0.0890065 0.049329754 -0.08615367 -0.039051536
0000a0 5d 03 37 bc f1 54 36 bc 62 e0 d1 3c a0 28 53 bc
       -0.011170235 -0.01112865 0.02561969 -0.012888104
0000b0 f3 07 b1 bc 62 d9 5b 3d f2 62 3e 3c 2b 36 bc ba
       -0.021610236 0.05367411 0.01162027 -0.0014359405
0000c0 71 f7 3d bd 06 b8 1e bd e4 3d 00 bc fc e2 0a 3d
       -0.046378557 -0.038749717 -0.007827256 0.033907875
0000d0 b3 ac c3 bd 24 04 7e bb 6b 65 06 bd a6 e2 45 bd
       -0.09554424 -0.0038759792 -0.032811563 -0.048311852
0000e0 ce 26 11 bd b5 55 e4 3c 2c fa 41 bc b4 4b 83 bb
       -0.035437398 0.0278729 -0.011839431 -0.0040068273
0000f0 23 a6 29 ba fa 7f 43 3b 83 7b cc b8 15 85 86 bd
       -0.00064715947 0.0029830919 -9.750484e-05 -0.06568352
000100 98 bb 14 bd 3f 9e 61 3d 08 f8 81 bd 76 e4 c0 bd
       -0.036311716 0.055082556 -0.06346136 -0.094185755
000110 5b b5 83 3d 85 9c 71 3d 27 34 bf 3c ba 3b bd 3b
       0.06431075 0.05898716 0.023340298 0.005774942
000120 c7 5a 54 3d 57 35 2f b9 0e 57 07 ba 87 7e 5f 3d
       0.051844385 -0.00016709171 -0.00051628135 0.054564025
000130 29 97 aa 3c ad 51 96 3d 69 15 fa bb f4 d8 08 3d
       0.020824032 0.07339797 -0.007631947 0.033410028
000140 54 b1 96 3c 27 b5 a4 3d ff e7 0b bd 8c 8d fe 24
       0.018395104 0.080423646 -0.034156796 1.1039473e-16
000150 db 4f d8 bb aa c2 c8 bc d8 68 a4 3d 33 db 87 bd
       -0.0066013164 -0.024506886 0.0802781 -0.06633606
000160 3d a9 08 3d 5a 4b f0 3b 5e 60 aa bb 4f cb f1 3c
       0.033364523 0.0073332014 -0.005199476 0.02951589
000170 27 15 40 3d 57 c7 f2 bb 72 0a c3 bb 4d da 6f b8
       0.046895172 -0.007409017 -0.005952173 -5.718535e-05
000180 43 d0 92 bd 76 67 d6 bb bb 21 c8 3d 60 18 53 bd
       -0.07168629 -0.006543095 0.097720586 -0.051536918
000190 58 00 84 3d 50 50 f4 bb c2 5e 2f 3d 35 4e e0 ba
       0.06445378 -0.007455863 0.042814977 -0.0017113151
0001a0 e8 8c e3 3c 37 a9 32 3c 67 67 8e bc 91 79 63 ba
       0.02777715 0.010904602 -0.01738329 -0.00086774776
0001b0 76 5d b1 bd 14 66 50 bd 48 fc fa 3c 3f e3 0b a3
       -0.086604044 -0.0508786 0.030637875 -7.583326e-18
0001c0 55 b7 90 3d 49 7a 52 bd 80 83 83 bb a2 f8 89 a7
       0.07066218 -0.05138615 -0.0040134788 -3.8294707e-15
0001d0 b0 44 73 9b 0a f7 b1 9f 9c 5d a7 3d 12 09 7a bb
       -2.0122683e-22 -7.537111e-20 0.081721514 -0.003815238
0001e0 2f 69 ee bb a5 45 44 a4 d2 8f 2a bc 31 6d d7 bb
       -0.0072757225 -4.2559716e-17 -0.010410266 -0.006574296
0001f0 b6 91 bd bc fd 88 40 3d 42 89 87 bb b4 99 95 bd
       -0.02314077 0.047005642 -0.0041362355 -0.07304707

weight f4 [128, 128]
000000 0d 41 7d 3d 40 cf 10 bd 71 bc 80 1d e0 56 65 bc
       0.061829615 -0.0353539 3.407616e-21 -0.013997763
000010 b6 43 13 3d ab a3 d1 bc 6d 99 d3 98 28 ce 2a bc
       0.035953246 -0.025590738 -5.4697142e-24 -0.010425128
000020 4c c4 b8 97 c8 13 04 16 50 77 e1 b9 be 3c 95 bd
       -1.1940274e-24 1.0669117e-25 -0.0004300424 -0.07286976
000030 24 a3 47 bd c3 08 2e bb a5 0e 2a 3d ce a4 94 bd
       -0.048739567 -0.0026555515 0.041517872 -0.072579965
000040 87 52 02 99 c0 7b 55 94 a4 a0 ab bd a5 fa bd 3c
       -6.737509e-24 -1.0778157e-26 -0.08380249 0.023190806
000050 0c b7 81 15 63 71 f8 3c 1f 28 ae 1a 90 df 3c 98
       5.239148e-26 0.030327505 7.202953e-23 -2.44113e-24
000060 05 e7 86 bd a8 4d 83 3d 81 33 92 97 2c ab 8b 3d
       -0.06587032 0.06411296 -9.44803e-25 0.06819758
000070 74 40 3d bd d3 37 c7 3c e0 7a e1 96 18 bd 1a 18
       -0.046204045 0.024318611 -3.6428256e-25 1.9999501e-24
000080 bb 38 92 bd 5e e2 4c 16 c9 9c 04 97 dd cf 8a bd
       -0.07139727 1.6550418e-25 -4.284939e-25 -0.06777928
000090 58 04 93 3c c0 ee 28 3d 0c 51 2e 9b 80 db 96 bc
       0.017946407 0.041243315 -1.441913e-22 -0.018415213
0000a0 7d 9e 6d 9a 02 61 67 bb 09 cf 0e bd f6 8e 32 bc
       -4.9138477e-23 -0.0035305624 -0.034865413 -0.010898342
0000b0 26 0c a6 3c 1e 97 bf bd a3 bd 9d bc 10 a2 f1 94
       0.020269465 -0.09354995 -0.019255465 -2.4398704e-26
0000c0 c2 c4 99 16 10 9b 05 3c bb 89 4e b3 cf 6a 5d 3d
       2.4842655e-25 0.008154646 -4.8088378e-08 0.05405694
0000d0 38 3c c5 bc 82 8d d9 15 be 11 99 3d 2f 41 22 3c
       -0.024076566 8.786886e-26 0.07474087 0.009903236
0000e0 8f 45 55 bd 3d a6 4f 3a e0 00 39 95 72 32 e5 96
       -0.05206829 0.0007921195 -3.7361143e-26 -3.702878e-25
0000f0 ad 3f 75 17 3c d0 6f 3b 36 e7 a1 15 d5 70 89 3d
       7.924414e-25 0.0036592623 6.539217e-26 0.06710974
000100 91 08 b5 37 d3 a3 1f 3d 43 cb 85 95 1f 51 c0 95
       2.158087e-05 0.038974594 -5.403896e-26 -7.767617e-26
000110 34 a8 8e 3c da d1 1c bd cb c9 73 bd 64 58 48 3d
       0.01741419 -0.038286068 -0.059518617 0.04891242
000120 6b f2 a5 bd 0a 80 c3 1a 38 f5 a5 99 fa 17 81 bb
       -0.08102878 8.085697e-23 -1.7159643e-23 -0.003939626
000130 0a 95 d4 14 1e 00 94 bd 8c 14 5e bd f5 dc 3c bd
       2.1465315e-26 -0.07226585 -0.054218814 -0.04610916
000140 08 65 2b bd 24 84 0b 3d 26 84 af bc 3e cf 3f 18
       -0.041844398 0.034061566 -0.021425318 2.4790802e-24
000150 e8 c3 37 98 71 0e 7f bd 44 13 de 3c 69 a3 cc 93
       -2.3751103e-24 -0.06226963 0.027108796 -5.1657975e-27
000160 9e 7f 11 99 e8 95 38 3c 7c d7 2a 16 9f 06 84 3c
       -7.522096e-24 0.011266209 1.3800486e-25 0.016116438
000170 b8 8e 89 bc f2 fe cf 18 4d 7a b4 95 fd fb 1a 16
       -0.016791686 5.3765675e-24 -7.289438e-26 1.2519534e-25
000180 49 53 bf bc 8b 57 a7 bd 27 8b 91 bd fd 89 22 3d
       -0.023355143 -0.08170994 -0.07106619 0.039682377
000190 a6 68 60 16 bc 82 7a 16 cb c5 43 3d c1 2e 93 97
       1.8127597e-25 2.0236092e-25 0.047796052 -9.511455e-25
0001a0 30 28 b6 bd 13 04 99 17 4b 04 3c 3d a0 e6 0b 14
       -0.08894384 9.888422e-25 0.04590253 7.063189e-27
0001b0 44 27 18 3d 8e 6b b2 bd 0f 6b dd bc 23 e6 03 1a
       0.03714682 -0.08711921 -0.027028589 2.7276068e-23
0001c0 5f c3 80 3d 55 99 bc ba 27 f7 d2 9a 61 f3 26 9b
       0.06287264 -0.0014388958 -8.725326e-23 -1.3809838e-22
0001d0 f0 4e df 1a d0 d6 07 14 fa 2d 5c 16 e4 89 07 16
       9.235817e-23 6.8581225e-27 1.7785966e-25 1.0948724e-25
0001e0 18 ce 0e 16 f2 a5 de 16 99 ee f4 95 60 eb 7a 93
       1.15357e-25 3.597076e-25 -9.8927256e-26 -3.1670485e-27
0001f0 bf 74 75 97 0f 59 56 3c 0c ae 9a 14 7f e9 43 bd
       -7.9311124e-25 0.013082757 1.5618676e-26 -0.0478301
000200 49 1d 5f bd 6a a4 80 3d 13 ec 01 16 18 ca 84 bd
       -0.054471288 0.062813595 1.0495029e-25 -0.06483859
000210 e2 72 61 17 0d 66 8e b9 bc fd b4 93 76 31 a6 ba
       7.2846424e-25 -0.00027160384 -4.568859e-27 -0.0012679535
000220 7e 0f 16 16 14 b6 04 1a af b0 1f 3d ae 87 90 99
       1.2121792e-25 2.7444042e-23 0.038986858 -1.4944052e-23
000230 40 a5 80 3d bc 9d 09 3d 55 81 0b 18 b4 0c 33 bd
       0.06281519 0.033597693 1.8030625e-24 -0.043713287
000240 7f d1 6f 18 14 a3 98 16 7b df 20 17 25 18 b2 96
       3.0995794e-24 2.465984e-25 5.198086e-25 -2.8772688e-25
000250 a0 91 cc 98 33 51 97 bd 05 ff 85 96 f0 26 2f 94
       -5.2879808e-24 -0.073885344 -2.164825e-25 -8.842921e-27
000260 87 65 22 bd 43 42 b7 96 72 04 02 15 c5 c9 5f bd
       -0.039647605 -2.9607062e-25 2.6256798e-26 -0.05463578
000270 46 ce 9d 3b 15 5d 5c bd ac 05 0b 96 b3 b8 06 17
       0.0048158495 -0.053799707 -1.123012e-25 4.353086e-25
000280 d4 bc 13 97 7e 35 9f 19 1d c9 4b 9a 49 3a 98 bd
       -4.7736596e-25 1.646182e-23 -4.2141874e-23 -0.07432992
000290 d6 02 4b 3c 6c 2a e7 94 2c 0b ca 13 a9 7e 70 3c
       0.012390813 -2.3341772e-26 5.1002985e-27 0.014678636
0002a0 fb 7a f8 98 98 f1 29 97 03 25 ee 3c 8e e1 48 3d
       -6.4230676e-24 -5.491178e-25 0.029070383 0.04904323
0002b0 bf 6a 9b 3d bf b1 5d bd de bf 60 3d 68 26 01 17
       0.075887196 -0.05412459 0.05487048 4.1730624e-25
0002c0 9c 70 98 17 f1 7f 6c bd da a7 1c 17 00 c9 b2 94
       9.851196e-25 -0.057739202 5.0618177e-25 -1.8052687e-26
0002d0 a0 86 57 3d d2 0a aa 17 66 73 e0 1a 05 8b 1d bc
       0.052618623 1.0988724e-24 9.2830665e-23 -0.009615664
0002e0 71 5a 71 bc d6 34 f9 96 9b ff 2e 18 c0 8f 30 96
       -0.014731036 -4.0261464e-25 2.261802e-24 -1.4262526e-25
0002f0 fe 1f 89 17 1e e0 88 bd aa d9 ce 97 13 65 91 bd
       8.861493e-25 -0.06683372 -1.3367384e-24 -0.070993565
000300 9f 6c ab 18 3a c4 4c 3d f3 6a 17 95 f5 0d 81 3d
       4.4312143e-24 0.049991824 -3.0578575e-26 0.0630149
000310 c5 94 f4 3c ec bd b0 3c fe 47 1b 3a 98 cb d0 95
       0.029856095 0.021574937 0.00059235084 -8.4331745e-26
000320 62 f9 95 3d d7 6b c6 19 c4 03 31 96 bc 61 8d 94
       0.073229566 2.0516276e-23 -1.4299134e-25 -1.4275911e-26
000330 f5 23 2c bc ea 9b 86 3d cf 51 a1 3d 22 a4 0c 3d
       -0.01050662 0.06572707 0.07876932 0.034336217
000340 7a 14 f8 16 7f 1a 80 3d 01 7c f0 3c 82 93 73 16
       4.0079483e-25 0.06255054 0.029356005 1.9675929e-25
000350 fa de fd 19 ef d1 1f 3d be a3 8a 16 cc 35 ba 3c
       2.6249646e-23 0.039018568 2.2398438e-25 0.02273073
000360 52 a8 c9 95 55 68 3d bd 90 26 b3 96 f8 ca 11 96
       -8.1448816e-26 -0.046242077 -2.8943346e-25 -1.1777052e-25
000370 58 5d c6 bc c0 81 86 16 b6 f8 83 97 ed 45 ac 95
       -0.024214432 2.1730751e-25 -8.52846e-25 -6.958057e-26
000380 29 a3 ed bc a2 3d 6a bd fa 7b 7a 3c e4 ad 36 bd
       -0.029008465 -0.057187684 0.015288347 -0.04459943
000390 76 79 e4 3c 30 ca 87 98 e6 58 06 9a 76 e5 cc 95
       0.027889948 -3.510084e-24 -2.7782362e-23 -8.275697e-26
0003a0 93 85 87 3c 47 eb 42 16 38 a4 54 ba ca 34 6b 15
       0.016543185 1.5745436e-25 -0.00081116287 4.7499515e-26
0003b0 ce 97 aa bb f5 ed 22 3d 9e 61 ad bc 8f 4d b2 16
       -0.005206085 0.039777715 -0.021164712 2.8806397e-25
0003c0 76 5a 06 97 7c 6e e4 3c 32 a7 4c 96 3a 0f 66 17
       -4.3411913e-25 0.027884714 -1.6531746e-25 7.4336227e-25
0003d0 aa 7b b8 18 05 94 50 9a 38 e0 84 bb d3 c5 b1 16
       4.7687754e-24 -4.313296e-23 -0.0040550493 2.8720737e-25
0003e0 84 4c c7 18 1a ee 62 1a 55 f8 ce 15 18 4f 75 15
       5.1517555e-24 4.692804e-23 8.3594536e-26 4.953975e-26
0003f0 d1 85 36 3c d7 5e 38 bd 9a 9c d6 17 f0 22 b1 3c
       0.011140303 -0.04501232 1.3868958e-24 0.021623105

bias f4 [128]
000000 d1 db 84 3d a7 74 36 3d 7d 03 64 bb 17 5b a1 3d
       0.06487239 0.044544842 -0.0034792118 0.07878702
000010 63 fd 39 3d 74 15 63 3d ef 98 cf 3a 58 87 2e bb
       0.045407664 0.05544038 0.0015838424 -0.0026630964
000020 14 88 f9 3c 9b 3c 10 bc 95 97 8b bb d7 5d ed 3c
       0.030460395 -0.008803512 -0.0042600133 0.02897541
000030 d8 7a 49 3c 68 2d 40 bb 1c 97 01 3d 47 d6 bd 3d
       0.012297355 -0.002932394 0.03163825 0.09269386
000040 23 21 0e bc 11 97 63 3c b0 8f 00 bd 0d c3 b9 3c
       -0.008674893 0.0138909975 -0.03138703 0.022676015
000050 d3 da 4c bd 05 bd f2 3c 0c 61 be bb 8c ce 3e 3d
       -0.050013375 0.029631147 -0.0058099087 0.046583697
000060 2c 92 b6 3b a7 8a a9 3c 1b 60 a5 bd ec 5b 8a 3a
       0.0055716243 0.020695997 -0.08074971 0.0010555959
000070 a3 20 bd bb 18 5a c8 bd 6a 1d 06 bc 9e a5 16 bb
       -0.005771713 -0.09782809 -0.008185724 -0.00229869
000080 3e 0c d2 3d 74 ee 95 3d f2 91 39 bd 5a 41 0f bd
       0.10256241 0.07320872 -0.0453052 -0.034974433
000090 fa 1a 43 b6 58 93 78 b8 04 38 13 bc 2a f0 54 3d
       -2.9072967e-06 -5.9265032e-05 -0.008985523 0.05198685
0000a0 d4 fc b2 3c 18 95 c2 3c 5c 7e 16 3d f8 ca 7c 3d
       0.021849073 0.023752734 0.0367416 0.061717004
0000b0 ad ce 73 3d b4 9c 4b bd 03 e6 33 bb 8d e6 e3 3c
       0.059523273 -0.04970999 -0.002745033 0.027819896
0000c0 5e 50 3a bd aa 66 62 bb ff e1 32 3b 86 4d f2 28
       -0.0454868 -0.0034546056 0.0027295349 2.6901018e-14
0000d0 b8 e6 9f bb c9 61 9d 3c 28 4f 02 bb a1 d5 cc 3d
       -0.0048797987 0.019211667 -0.0019883607 0.10001684
0000e0 26 20 e5 3c c5 aa 86 bc e8 02 ff 39 fd 49 7c 3d
       0.027969431 -0.016438851 0.00048639555 0.061594
0000f0 8c 58 62 bc 54 de c1 3c ce cf a2 bc 28 66 e8 b9
       -0.0138150565 0.023665585 -0.01987448 -0.000443266
000100 e8 5c e6 bb 08 65 2a bc f5 be 67 bd 79 af 46 bc
       -0.0070301183 -0.010400064 -0.056578595 -0.012126797
000110 50 c2 13 3d 2d 3f 16 bc 33 c8 a6 ba 94 14 31 bd
       0.036073983 -0.009170336 -0.0012724459 -0.043232515
000120 5b 08 cf bc 27 99 1a 3c 89 4f 83 3d d4 f9 c1 3d
       -0.025272539 0.009435928 0.064116545 0.09471479
000130 70 86 8c bc 81 35 90 3d 82 45 50 26 f6 b4 be bd
       -0.017153949 0.07041455 7.2258697e-16 -0.09311859
000140 14 57 83 bb aa eb 6d 3b 88 f7 13 3d 3b 7f f5 bc
       -0.0040081833 0.0036303797 0.036124736 -0.029967895
000150 bf dc e0 bc c7 63 23 ba 78 0d 0e bc 50 3a e9 bc
       -0.02744901 -0.00062328245 -0.008670203 -0.028470188
000160 8c 89 ac 3d f4 ac 53 bc 1f 66 ac bd 0f e5 18 ba
       0.084246725 -0.012919653 -0.084179156 -0.0005832472
000170 0d 0e cc bb 53 c2 f0 3a 3f ce 34 bb 9e a5 6f bd
       -0.006227261 0.001836846 -0.0027588753 -0.058507554
000180 c6 c9 6d 3d 17 b3 96 3d 6c c5 0d 3d 87 c0 1e 3c
       0.058053754 0.073583774 0.034612104 0.009689457
000190 bd b4 54 3c de 32 5f bb af c9 32 3c d6 c0 09 3c
       0.0129825445 -0.0034057419 0.010912343 0.008407792
0001a0 9a ef 2f 3d 05 c5 c0 bc 32 9a 64 3d c9 cd 59 3d
       0.04295311 -0.023531446 0.055811115 0.053174768
0001b0 53 24 a9 3d d4 94 77 3d 39 7d 52 bb 46 de 84 3d
       0.082588814 0.060444668 -0.0032118096 0.06487708
0001c0 d1 86 28 bc 2c 51 7f 3c 99 c6 89 bc e3 17 88 bc
       -0.010286049 0.015583318 -0.016818332 -0.016612953
0001d0 d9 5f 29 bb 1b e9 27 3d 1d 20 07 bc 4f 0e 9e 3d
       -0.0025844483 0.04099379 -0.0082474025 0.07717573
0001e0 48 ec 48 3d a4 57 e1 bb c2 c0 9b bb f2 da 0f 3c
       0.04905346 -0.0068769027 -0.004753203 0.008780228
0001f0 ec 10 69 3d d4 7a 22 3d b2 19 5d 3d e7 40 1b bc
       0.056900904 0.03966792 0.053979583 -0.009475923

weight f4 [1, 128]
000000 6e ac 49 bd 94 42 57 3d 0d 50 68 bc 31 cb a6 3c
       -0.049236707 0.05255373 -0.014179242 0.020360561
000010 88 ba fe 3c 6d a4 87 bb 44 1f 81 3b 82 9b d5 3a
       0.031094804 -0.004139474 0.0039404947 0.0016296955
000020 fc 2e aa 3b 48 e2 d8 3b df 86 4b bc 61 86 05 3d
       0.0051935893 0.0066187717 -0.0124222925 0.032598857
000030 29 b3 91 bd bd 24 2f 3c 78 7d c5 3d 31 3b b8 3d
       -0.0711425 0.010689911 0.09643072 0.08995665
000040 ab 4d 50 3c 4d fc 3d 3d 52 b6 33 3b d8 4d 79 3c
       0.01271383 0.04638319 0.0027421904 0.015216313
000050 2f 61 9a 3c 68 1f bb bc ef f6 71 bc 07 45 bc 3d
       0.018845169 -0.022842124 -0.014768346 0.091928534
000060 18 e1 66 bd 16 cc 13 bc 7e 00 70 bd a0 5a 94 bd
       -0.05636701 -0.009020826 -0.05859422 -0.07243848
000070 b9 78 e1 3b 44 23 f0 bc b0 e9 64 3c 57 55 cf 3b
       0.0068808463 -0.029313691 0.013971731 0.006327312
000080 5a 29 84 3d 4d 7d 43 3d 5a ba e2 3c c4 7d 8e bd
       0.064532 0.047726918 0.02767675 -0.06957582
000090 54 b6 98 22 07 23 0d 39 8b 60 13 bd ae ed ee bb
       4.139273e-18 0.00013459857 -0.035980742 -0.007291517
0000a0 91 73 17 bb f6 57 c6 bc a5 f4 09 bd 70 79 9f 3d
       -0.0023109654 -0.024211865 -0.033680577 0.07786834
0000b0 08 80 c6 bc 7a 3f 71 bd 29 d9 8f ba bd 94 8e 3d
       -0.024230972 -0.058898427 -0.0010974753 0.06961963
0000c0 55 74 d1 3b 99 c3 2d ba b0 07 4f bb 68 2f be 3b
       0.0063920417 -0.00066285726 -0.0031590275 0.005803991
0000d0 06 68 0c 3c 4a 9b 3f 3d 57 64 3c bb db fb 42 3d
       0.008569723 0.046778955 -0.002874633 0.04760347
0000e0 92 0b c4 3d e2 4e 2d bc ab 3f 76 b3 8c f0 8f 3c
       0.09572519 -0.010577889 -5.7334244e-08 0.017570756
0000f0 31 96 37 3d 1b 94 34 bc 91 dd c5 3c 29 46 c8 9d
       0.044820968 -0.011021639 0.024153503 -5.3012103e-21
000100 6b 3b 36 bc c3 13 ee 3b a6 a1 9e 3b d0 ae 99 3c
       -0.011122565 0.0072655394 0.0048410473 0.018760115
000110 71 bd 5f bd 42 a5 31 bc 80 90 da 3b f9 ae 98 3d
       -0.054624025 -0.010842623 0.006670058 0.074552484
000120 cd bd a0 bc ae a8 d0 3c 6b 45 17 3c 6c 43 42 3d
       -0.019621754 0.025471058 0.009232859 0.04742758
000130 4e 19 26 3c 82 b3 c4 3d 04 da 13 34 08 46 18 3c
       0.010137869 0.09604551 1.3769755e-07 0.0092940405
000140 ac 03 9e 3b 0d 35 b7 3d a0 26 af 3d ad ae b5 3d
       0.004822215 0.089456655 0.08552289 0.088712074
000150 1a c1 b4 bb 41 67 f0 39 a7 d4 5f bc a2 99 64 3b
       -0.0055161836 0.00045853297 -0.01366154 0.0034881611
000160 f3 17 93 3d 7d 0b 81 3c f3 63 2b bb 73 b5 e4 39
       0.07182302 0.015752548 -0.0026152104 0.0004362274
000170 a1 0c 3a bc 76 43 26 bb 78 d3 42 bc e5 f0 21 3a
       -0.01135555 -0.00253698 -0.011891238 0.00061775587
000180 1a 0a ac 3b cd 13 27 3c be db 64 3d ad 4c 25 3b
       0.0052502276 0.010197592 0.055873625 0.0025222704
000190 4f 6e 2d 3b 5d 36 d2 a1 af be 85 3d b6 0b fa bc
       0.0026463454 -1.4244543e-18 0.06530511 -0.030523162
0001a0 83 06 c2 bc de 30 40 bd c2 a7 5f b8 18 93 bc bc
       -0.023684746 -0.046921603 -5.332358e-05 -0.023019359
0001b0 62 bd 50 3d c3 af c3 bc a0 68 5d bd 1d 8b 26 bd
       0.05096186 -0.02388752 -0.054054856 -0.040660013
0001c0 cb 3b 07 bc 62 97 b7 3c 75 d4 9d 3d 9b 83 8f 3c
       -0.008254002 0.022411052 0.077065386 0.017518809
0001d0 4e ac aa bb 73 ae f8 bc 3a 06 8a 3c 7e 04 1a 3d
       -0.0052085286 -0.030356621 0.016848672 0.03760194
0001e0 10 62 99 bd e3 3f 34 bc d6 83 50 3c e4 a4 81 bd
       -0.07489407 -0.01100156 0.012726745 -0.063302785
0001f0 74 ac e0 3c 7b db 01 3b 84 96 eb bb 90 b8 04 bc
       0.027425982 0.0019814658 -0.0071895737 -0.008100644
