data/saved_models/model_saved.pt (torch, 534447 bytes, 18 tensors)

weight f4 [128, 381]
00000000: 5327 76bd 2de7 7bbc a0fe 50bd 1966 04bd
00000010: 507c c4bb f75c 923b 9479 0b3c f85c c3bc
00000020: 96ec 1dbd efa7 54bd 46f1 f93b c44d 25bd
00000030: 63fe fa3c 3f91 163d 68d4 073d e822 20bd
00000040: f5c1 0bbd af97 fbbc feeb 6f39 5750 023c
00000050: 3561 70bd 338d 103d 28f0 13bd 9028 75bc
00000060: 8c07 273d 2297 0cbd 7e1d 96bc b6b3 ffbc
00000070: d768 c8bb 2086 b0bc fb7e b9bb 67d7 cebc
00000080: 4406 b93b ebf5 83b9 7266 463b 0030 3dbd
00000090: 8f15 47bd 3bf6 7fbb d54f 55bd 82f6 fbbc
000000a0: b39a d2bc 1270 34bd 4e82 313c 0b1d 41bd
000000b0: cd0f 54bd d8eb e53c f151 67bd c10c 013c
000000c0: 016f 1abd 7b2b 49bd d247 433d 5a14 c4bc
000000d0: 18be 103d df51 93bc 41bd 2bbd c772 02bd
000000e0: 222e 4dbd 6c46 7fbc 9e92 ca3c 9d9c fbbc
000000f0: 28ff f23b 6c13 febc 1fb1 fb3c 705d e23a
00000100: 24de b0bc 2433 813c fea9 03bc 3af7 79bc
00000110: 4d94 a7bc 7437 333d 2b9b 873c 2fd4 32bd
00000120: e74a 223d 80ba b2ba 81b2 f6bc e7c7 ffbb
00000130: b63f 823a 4dbc 173d a494 3abd 5934 3c3d
00000140: 5777 07bd 5a05 c43c fcc0 cabc 28b6 48bd
00000150: 2fc3 9bbb 9481 243d bc03 443d 3c27 3fbd
00000160: cc2b 0fbd ad98 fdbb e830 dfbc fa7a 173a
00000170: b979 f13c c592 d0bb 1572 12bd d7f1 563c
00000180: 7461 86bc 6378 4abd a591 31bd fcb4 11bd
00000190: 07f9 babc 0920 63bc 599d a13c ef8e 54bd
000001a0: bf32 63bd 5aba 0bbd d1fc 2e3b 70db 313b
000001b0: 0220 80bc 16e0 eabc 89c1 a4bc e3c0 863b
000001c0: 5fa1 fcbc 289b dc3c 6e4e 3ebc bc6d aab9
000001d0: a06d b73c 7473 953c a503 4ebd 7a14 293d
000001e0: 88e6 31bd 06f8 333d bc9b 0b3d e99d 763d
000001f0: 266c 1e3d 0238 7b3c 99cf a03c d8fb 2d3c
00000200: 0ab5 1ebd 99c5 613d 43b3 fbbc 5b2b 18bd
00000210: 7cbc 2fbd 1b1f e6bc 80e2 703c 9e5d 2a3c
00000220: ada0 a7bc 1177 1e3c 7e53 8cba b208 05bd
00000230: 4b0a 1a3c e152 693c a823 dbba 8cd5 3bbd
00000240: 5025 d23c e929 41bc 0852 c3bc f613 a7bb
00000250: 6683 5d3b 5ed4 563c 5928 6fbd 472e 6abd
00000260: efff bdbc 6b36 40bc 12b4 95bb b2d9 5dbd
00000270: 4ea0 7fbd 5bc7 0abd 9911 473d e7b8 213d
00000280: 5b7c ad3c 967b 9abb 00bf c83c f9e3 6abd
00000290: 5226 1ebd 0be9 25bd fc03 67bd d3ed f83c
000002a0: 8003 08bc c69a 253d 53f1 05bd d4e3 86bd
000002b0: 467d a83c 4640 0ebd 46cf 143b ba18 f3bc
000002c0: 297f d83c f0a9 423c 7cef e1bc c77a 503c
000002d0: dede 5cbd a70c 82bd 4353 6fbc a230 f1bc
000002e0: dd02 773d 9a1e e8bc 7374 82bc 4591 ba3c
000002f0: 67dc 783d 37ab 94bc f6e7 433d c63e 03bc
00000300: 1c9d 163c 0e65 493d 6678 f23b 2e5e 27bd
00000310: afdb 4b3d b35a 253d 4e55 153d b1f3 12bd
00000320: 0883 373d 6673 463d 21e2 a1bb 5e4a 30bd
00000330: 8267 163d e8ae 47bb d53c 96bc a1cd 4cbb
00000340: 9a0e 453c b742 313d e498 993c 7306 89bc
00000350: 7d7d 5b3d aba6 0cbd 7bee 713d 1837 903c
00000360: 8f96 553d 38bb f83c 01de 863d d78e a1bb
00000370: 4caf de3c 7f58 c0bc 736f d03c 5055 b5bc
00000380: 82a6 d4bc c1e7 c7bc 6213 02bd 38cf e23c
00000390: 7d14 87bc 12b2 b83c cb0b 0a3d d181 123d
000003a0: b32e 6d3c 33da cfbc 5b9a 023d c744 033d
000003b0: 97a2 76bc 9b49 583d af6d 323d e0c1 103d
000003c0: 63ad c6bc 4f5d 27bc cf65 893c f4e6 ac3c
000003d0: d0c1 423d b19b ddbb 53aa 3f3d fffd 3c3d
000003e0: 1975 d43c c130 aebb d0da c33b dc89 a2ba
000003f0: 403a fb3c 7c51 44bd 2957 c3bc 6ce7 9f3d
-0.060096096 -0.015374941 -0.05102408 -0.03232393 -0.0059962645 0.0044666487 0.008512873 -0.023848042
-0.038555704 -0.051917966 0.007627639 -0.040357366 0.03063888 0.03675961 0.03316155 -0.03909579
-0.03412052 -0.030711977 0.0002288073 0.007953725 -0.058686454 0.035290908 -0.036117703 -0.014963284
0.04077868 -0.03432382 -0.01832461 -0.031213623 -0.0061160135 -0.02154833 -0.005660889 -0.025249196
0.005646499 -0.0002516949 0.0030273465 -0.046188354 -0.048604544 -0.0039056677 -0.052078087 -0.030757193
-0.025708532 -0.04405219 0.01083429 -0.04714684 -0.05177288 0.02806656 -0.05647463 0.007876576
-0.037703518 -0.04911373 0.047675915 -0.023935486 0.035337538 -0.017983375 -0.041928533 -0.03184774
-0.050092824 -0.015580755 0.024728116 -0.030714327 0.007415671 -0.03101512 0.030724106 0.0017270278
-0.0215903 0.015771456 -0.008036135 -0.015256697 -0.020456458 0.043754056 0.016553482 -0.043659385
0.039622214 -0.0013635904 -0.030114414 -0.0078058126 0.00099372 0.037044812 -0.04555191 0.04594836
-0.033072796 0.023928333 -0.024750225 -0.049001843 -0.0047534923 0.040162638 0.047855124 -0.046668276
-0.034953877 -0.0077391476 -0.027245 0.0005778518 0.029476987 -0.0063651525 -0.03575333 0.013119183
-0.016403891 -0.049431216 -0.043351788 -0.03557299 -0.022823824 -0.013862618 0.01972835 -0.051894125
-0.055468317 -0.034113266 0.0026700983 0.0027138852 -0.015640263 -0.028671306 -0.020111816 0.0041123494
-0.030838666 0.026929453 -0.011615379 -0.00032506685 0.02239114 0.018243529 -0.050296444 0.041279294
-0.043432742 0.043937705 0.034084067 0.06020919 0.038677357 0.0153331775 0.01963024 0.010619126
-0.03874687 0.055120084 -0.030725127 -0.037150722 -0.042904362 -0.028091004 0.014702439 0.010398297
-0.020462358 0.009671942 -0.0010706035 -0.032478996 0.009401868 0.014240951 -0.0016719 -0.04585795
0.025652558 -0.011789777 -0.023842826 -0.005098815 0.0033800243 0.013112156 -0.058388088 -0.05717304
-0.023193328 -0.011731724 -0.004568585 -0.05416269 -0.062408738 -0.033881526 0.048600767 0.039482977
0.021177461 -0.0047144396 0.024505138 -0.057346318 -0.038610764 -0.04050545 -0.056400284 0.03038684
-0.008301616 0.040430807 -0.032700848 -0.065864235 0.020567548 -0.034729265 0.0022706552 -0.029674876
0.026427822 0.011881337 -0.027580015 0.012724585 -0.05392348 -0.063500695 -0.0146072535 -0.029442135
0.060305465 -0.028334904 -0.015924668 0.022774348 0.060757067 -0.018148048 0.047828637 -0.008010572
0.009192731 0.04916864 0.0073996065 -0.0408613 0.049770053 0.0403697 0.036458306 -0.035876933
0.044802696 0.048449896 -0.0049402867 -0.043039672 0.036719806 -0.0030469242 -0.018339554 -0.0031250494
0.012027407 0.043276515 0.018749662 -0.016726708 0.05358647 -0.034338634 0.059065323 0.017604396
0.052145537 0.03036271 0.06585313 -0.004930358 0.027183197 -0.023479698 0.025443768 -0.022135407
-0.025958303 -0.024402501 -0.031756766 0.0276867 -0.016489262 0.022545848 0.033702653 0.035768334
0.014476466 -0.0253726 0.031885486 0.032048013 -0.015053413 0.05280457 0.043561634 0.035341144
-0.0242526 -0.010215118 0.016772179 0.02110622 0.047548115 -0.0067629446 0.046793293 0.046140667
0.025934743 -0.0053158705 0.005977012 -0.0012400704 0.030667424 -0.047929272 -0.023845272 0.07807812

bias f4 [128]
00000000: cca4 d13c eb42 8e3b 3a61 ae3c 89fe 323c
00000010: 2775 513b b589 ec3b bb4a c6bc e85d 063d
00000020: 89ab 7eb9 dced 63bb faeb 6bbd 117a c0bd
00000030: 6a47 8c3c 1db6 9dbc 961d 62bd 27b3 53bd
00000040: 86de 993c 3811 febc acc3 ea3c 8525 3fbb
00000050: b39e f6bc 9c1e b2bb 7319 0c3d 6589 5fbc
00000060: ee55 8c3c a3b7 0d3d 04e4 e63a f6e6 73bd
00000070: 533e 46bd 2a57 223d c261 043c daa5 4e3b
00000080: c195 1d3d 32ec 743d 4ed5 86bc cfd6 e6bc
00000090: 37d9 adbc ca88 a43c 1a26 5bbd 2d8f e9bc
000000a0: 91a2 14bd 926e e6ba 0804 97bc 45d7 53bd
000000b0: 69e2 c4bc 7839 bdbc 0a8a fbbc 05d2 763d
000000c0: 2f71 303d 059d 8e3c c21b c1bc 4920 95ba
000000d0: 0836 bfbb b660 6b3d 5fd8 813d 49b9 40bb
000000e0: bbef 56bc 7613 a4bd 44b1 6abc ae88 d5bc
000000f0: 5cec 423c b7bf 943c ff89 5dbc a182 fb3c
00000100: 414b 44ba d6df 5bbd 7f38 3ebc 7407 e23a
00000110: fd8e 67bd 38ee 8e3c d478 f43c 7330 5cbc
00000120: 6809 403c d2d5 cabc 41c6 67bd f975 523d
00000130: aef5 203d 82b0 0e3d ed4c a4bc f103 d9bc
00000140: d5e5 1dbc d9a4 303d 4def 173d b6ec 0cbc
00000150: 5aa2 9dbd 81a8 153c dc1e 76bc 6e04 4d3d
00000160: d230 9d3c b326 003c 8777 033d fa1c 5c3b
00000170: 292c 2bb9 6f9a cfbb e1a1 d13c dda0 fbbc
00000180: 3bb8 6dbd b4b2 c23c b4b5 143c 1196 493c
00000190: df1e a9bd 34be 1d3d 79a9 903d 1ed6 8d3d
000001a0: 7785 10bd 86f0 84bd 607c e9bc 119d 85bb
000001b0: 7807 273d fa04 ab3c 45cb c93c 6a46 7fbd
000001c0: 7a73 3abd d2e3 85bd 6ccd 6b3d 61b5 ae3c
000001d0: f3fd e4bc ced4 b1bc e720 f63c c37a 11bd
000001e0: eafd b0bb 748c 513d 573f 203d 7439 9c3c
000001f0: 18db e43c 0753 a0bc f063 e43c d2df 053b
0.025591277 0.0043414733 0.021286596 0.010924944 0.0031960697 0.0072185644 -0.024205556 0.0328044
-0.0002428723 -0.0034779226 -0.05759809 -0.09398282 0.017123897 -0.019251877 -0.055203997 -0.051684525
0.018782865 -0.03101407 0.028657757 -0.002916665 -0.03010497 -0.005435778 0.034203958 -0.013643597
0.017130818 0.034598958 0.0017615561 -0.059546433 -0.04839928 0.039633907 0.008079948 0.003153196
0.038472895 0.059795566 -0.016459133 -0.0281786 -0.02122174 0.020084757 -0.053503133 -0.028510654
-0.036287848 -0.001758056 -0.01843454 -0.05171897 -0.024033742 -0.023098692 -0.03070547 0.060258884
0.04307669 0.017408857 -0.023572806 -0.001137742 -0.0058352984 0.057465278 0.06340098 -0.0029407314
-0.01311868 -0.080115244 -0.01432449 -0.02606615 0.011897173 0.018157823 -0.01352167 0.030701937
-0.00074880203 -0.053680263 -0.011610149 0.0017244653 -0.05653285 0.017447576 0.029842772 -0.013439286
0.011720993 -0.02476016 -0.056585554 0.05138204 0.0392968 0.0348363 -0.020056212 -0.026491137
-0.009637316 0.04312596 0.03709345 -0.008601358 -0.07696982 0.009134413 -0.015022006 0.050053053
0.019188318 0.007821727 0.032096412 0.0033586607 -0.00016324282 -0.0063355486 0.025589885 -0.030716354
-0.058037024 0.023766853 0.0090765245 0.012303845 -0.08257841 0.03851147 0.07063574 0.06925605
-0.035283532 -0.06491189 -0.02850169 -0.0040775617 0.040778607 0.020876396 0.02463306 -0.06232301
-0.045520283 -0.06537594 0.057568952 0.021326723 -0.027953124 -0.021707918 0.030044986 -0.035517465
-0.0054013627 0.051159337 0.039122906 0.019070365 0.027936503 -0.01957084 0.027879685 0.0020427597

weight f4 [88, 128]
00000000: c4cb d3bc 0976 713c d40f 7b39 6d65 bf3d
00000010: e5be c8bc c4b5 8e3d 7757 8a3c 7d0d a93d
00000020: a196 263d c62e c33c da4b 0fbd 8000 39bd
00000030: dc1f bcbd ba02 b53d 3b33 2fbc a66d 4339
00000040: 2e62 55bd a9ea d4bc 2857 ae3c 0d4d 943d
00000050: 9047 413b 6c43 8e3d 6031 cb3b ba25 7c3d
00000060: cbd5 313c dc5b 82bd 2f64 8a3d 5494 b8bd
00000070: c8b2 0b3d f602 cbbb 70bc 1cbd 8e59 a1bd
00000080: e897 09bd f045 3c3d a099 05bd a9a4 5ebd
00000090: e867 a33d 6436 a7bd a70e 68bd aacf 7bbd
000000a0: 0093 75bd a0e7 a03c c3d3 203d c65c 46bd
000000b0: 4f15 163d fadb bfbd c9fa 083c cf02 a23c
000000c0: 4f40 59bd 9b4b 1ebd ed6e a63c 2cb1 10bd
000000d0: 4fc9 bb3d e609 7a3d a833 ed3c a6d7 51bd
000000e0: 3dec 83bc 6f48 66bd e243 2f3b f34a 0b3d
000000f0: c063 973d 0b41 9fbc 8b25 933c cfd7 82bd
00000100: dd3e eabc 9c91 373d d7d8 d03d 2355 263c
00000110: d067 673d e926 e73c cf81 c5bd b48a 423d
00000120: 6ca2 493c a7e3 ecbc 972f 163d 7039 89bb
00000130: d4bb 20bd 2a17 21bd 2a75 5fbb 3750 773d
00000140: 0183 97bd 4c86 58bc b44d 1bbd fa81 0bbd
00000150: 6cae 2ebc be68 0cbd 227d 17bd 3e81 19bd
00000160: fe6b cb3a b6ea b6bd c82c 06bd 3c50 09bd
00000170: 74e9 12bd 836a 52bd f401 153d 0f78 55bd
00000180: 6144 803c c62c 5e3d 9052 7dbd c87f 873d
00000190: b45b 54bd b434 783d 7988 a3bb 3de1 fbbc
000001a0: 3534 153d 0acf 18bc d75f 8dbd c285 ee3c
000001b0: 34aa 79bd 4a71 863d 3b80 9dbd 577a b63d
000001c0: 9f77 b33c a835 e63d 85ce 98bb 4b58 8e3d
000001d0: 4367 1fbd fb48 973d c3ff b23b a841 83bd
000001e0: c8b8 33bd 32bf bebd bed1 593d eaa6 dbbc
000001f0: 257c a3bc 790a 15bd 4bfc 9c3d 7904 a13d
00000200: e85b a0bd d0b4 96bd d2cb 57bd 1e1f dbbd
00000210: ea33 2f3d 1b40 0b3d a88e 90bd 49e6 4e3a
00000220: 440c f03c 9b46 0dbd 0504 11be 1983 62ba
00000230: 9b57 53bd 0834 7cbd f806 35bc 0b93 7bbd
00000240: 1966 2a3d 4409 c1bd cc2d abbd e4aa 883d
00000250: 8eb7 3c3d 7216 813c 6450 003d 0f00 08bd
00000260: 38af 0a3d daeb 53bc e471 69bd b073 9ebb
00000270: 9372 b63b 44e6 c53c 6821 c83d 87e0 783d
00000280: 63fb de3b 307c 303d f4aa f2bc 5988 563d
00000290: c2ed 96bd 76e3 7f3d 30f5 c2bd c0d3 0e3d
000002a0: 4cc5 86bd 58a4 37bd f110 dcbb 40dd b0bd
000002b0: e9ed 683d 6049 593d 0d7e 9a3c e686 db3d
000002c0: 12a2 aa3d 15d6 783d 0a88 8abd 9ce8 9cbc
000002d0: ce19 5f3d e970 9c3c 75ad a03c 395f 903d
000002e0: 58fa 723d 9655 19bd 2ec5 e53d fa08 db3d
000002f0: 15aa 853c 143f 653d 77b7 603d db25 933d
00000300: e1bc 97bc 1b4a 883d a739 5c3c 8bb5 87bd
00000310: ab36 d7bb 5cc2 863b 509d 4bbd 3015 b3ba
00000320: 8ea5 1dbc 8a50 8dbc 93d9 c7bc 78f5 68bd
00000330: 46e8 d63c a3f9 76bd 93c4 cd3d 675e 62bc
00000340: e61f c33c 0e16 d33c 86f8 c33d 7079 a5bd
00000350: 7651 fcbc c409 223d 9c27 1abd 7c61 ad3d
00000360: 859c 963d 5b01 b3bc 1399 7ebc a933 bf3c
00000370: 5a96 4f3d ee75 f7bc dffa c4bb bed1 3f3d
00000380: 6cfb 23bd b455 973d 3df5 803d 97a6 c3bc
00000390: 5887 cb3c 7a57 2e3d 32d3 093d d241 d53d
000003a0: 2396 923d 0377 d13d 39fa 3cbd 5386 94bd
000003b0: 6938 c53d f0d3 34bd 3779 8a3c 3b51 c8bb
000003c0: 0d0e 91bd 9583 a1bd 48da 263d eb2b 8cbd
000003d0: db45 c93d a192 e33c 39ee 0d3c 03ad cdbb
000003e0: b412 1fbd 32ad a53d d128 35bd 5c7a 0e3e
000003f0: 542f 9fbd d369 c03c 50e8 96bd 13a6 df3d
-0.025853999 0.014737614 0.00023943122 0.09345517 -0.024505088 0.06968263 0.01688741 0.08254526
0.040670995 0.023826014 -0.034984447 -0.045166492 -0.09185764 0.08838411 -0.010693367 0.00018637496
-0.052095585 -0.025990801 0.021281794 0.07241259 0.0029492117 0.069464535 0.0062009543 0.061559416
0.010854195 -0.06365177 0.0675739 -0.09012666 0.034106046 -0.0061954213 -0.038265646 -0.07878409
-0.033592135 0.045965135 -0.03261721 -0.05435625 0.07978803 -0.08164671 -0.0566546 -0.06147734
-0.059954643 0.019641697 0.03926445 -0.04842832 0.036641415 -0.09368129 0.008360573 0.01977673
-0.053039845 -0.03864632 0.020316565 -0.035325214 0.09169256 0.061044596 0.028955296 -0.05123105
-0.016103858 -0.05622142 0.0026743342 0.034007024 0.07392073 -0.019440195 0.017962238 -0.063888185
-0.028594429 0.0448166 0.10197609 0.010152134 0.056495488 0.028216796 -0.096439 0.04749556
0.012306791 -0.028917147 0.03666648 -0.0041877553 -0.039241627 -0.03932873 -0.0034096935 0.060379233
-0.07398034 -0.013215613 -0.0379159 -0.034059502 -0.010661703 -0.034279577 -0.03698457 -0.03747677
0.0015519855 -0.08931486 -0.03275755 -0.033523783 -0.03586717 -0.05137111 0.036378816 -0.05211645
0.015657606 0.054241918 -0.061846316 0.06616169 -0.051845267 0.060597137 -0.004990634 -0.03074705
0.03642674 -0.009326706 -0.069030456 0.029116515 -0.060953334 0.06564577 -0.07690474 0.08910053
0.021907626 0.11240703 -0.004663291 0.06950434 -0.038916837 0.07386967 0.005462618 -0.06409007
-0.043877393 -0.09313811 0.05317854 -0.02681299 -0.019956658 -0.03638694 0.076653086 0.07862181
-0.0783003 -0.07358706 -0.052684613 -0.106992945 0.04277412 0.033996683 -0.070584595 0.00078925915
0.029302724 -0.034491163 -0.1416169 -0.0008640751 -0.05159722 -0.06157306 -0.011049025 -0.061419528
0.041601274 -0.094255954 -0.083583444 0.0667322 0.04607349 0.015757773 0.031326666 -0.03320318
0.033858508 -0.012934649 -0.05699338 -0.0048355684 0.0055678575 0.02415765 0.09771997 0.060761
0.00680487 0.043087184 -0.029622532 0.052376125 -0.073695675 0.062472783 -0.09519422 0.03486991
-0.065806 -0.044834465 -0.0067158868 -0.0863595 0.056867514 0.05304849 0.018858934 0.10719089
0.08331694 0.06075104 -0.06764229 -0.019153886 0.05446797 0.019096809 0.01961396 0.07049412
0.059320778 -0.037435137 0.1121925 0.106950715 0.016316453 0.05596836 0.054862466 0.07184955
-0.018522682 0.066547595 0.01344148 -0.066264234 -0.006567796 0.004112525 -0.04971057 -0.001366293
-0.009621991 -0.017250318 -0.02439574 -0.056874722 0.026233803 -0.060296666 0.10047259 -0.013816453
0.023818921 0.025767352 0.095688865 -0.08079803 -0.030800562 0.039560094 -0.03763543 0.08465859
0.073540725 -0.021851232 -0.015539425 0.023340063 0.050680496 -0.0302076 -0.0060113515 0.046830885
-0.040034696 0.073893934 0.062967755 -0.023883147 0.02484481 0.042563893 0.033648677 0.10412945
0.071575426 0.10227778 -0.04613707 -0.07252183 0.096299 -0.04414743 0.016903503 -0.006113199
-0.07082758 -0.078864254 0.040735513 -0.06844314 0.09827777 0.027779879 0.008662754 -0.006276728
-0.038836196 0.08089675 -0.04422838 0.13913864 -0.07772699 0.02348796 -0.07368529 0.10920348

bias f4 [88]
00000000: 15bf beba 72fc 0ebc ffd9 c1bd 1c25 003d
00000010: d012 903d 1d62 653d a389 67ba 4503 88bd
00000020: db85 6d3d 5380 333d 33f5 8e3d b7ad f43c
00000030: 13f1 223d c399 ebbc cbfe b6bc d070 963d
00000040: 08ba 76bd 4d4a a2bd b72a 563d a56b 51bd
00000050: 8450 6dbc 126c 85bd e8eb 40bc 4325 47bd
00000060: ba2f e8bb 0ad9 ed3c 6810 31bd fe5a 73bc
00000070: a10b 72bd 5fba 8d3b 95d3 c4bd 233b 073c
00000080: fe27 cf3d 2f7e 0cbd 3a24 52bd ac30 213d
00000090: 0e2a 66bb b09f 7dbd 6ac1 723d 23b7 3cbc
000000a0: cbec 093b 544e 313d 3793 8b3d 8c46 6e3d
000000b0: c590 013c 776f 46bd 40c3 57bd 9907 33bc
000000c0: 5b83 c4bd 4ab9 783d b9aa 863d c5f5 f4bc
000000d0: 5f75 04bd f304 78bd a7ac 553d 06b7 203d
000000e0: ad39 34bd 747c dbbc 44e2 e7bd 1c97 813d
000000f0: 858c 5c3b 2a00 99bd 42c6 d13d 30cd 2dbc
00000100: 089f a03c dec8 923d ab82 4dbd 26c6 bebd
00000110: 248f 313d f2a2 713b b806 92bd ff1e 253d
00000120: 623b 243d aef1 323d 7803 963c 77e7 a23d
00000130: 3d6a 53bd 282e 26bd f8df 873c 3cde 0d3c
00000140: 5e4b c9bd 9633 d13c 1f44 f1bc a353 a63c
00000150: f4c1 b3bd e38d 89bd 59d3 743d 5af5 88bc
-0.0014552796 -0.00872718 -0.094654076 0.03128539 0.07034838 0.05600177 -0.000883246 -0.066412486
0.057988983 0.04382355 0.06980362 0.02986799 0.039780688 -0.028759843 -0.022338292 0.07345736
-0.060236007 -0.07924328 0.05228683 -0.05112805 -0.014484528 -0.065147534 -0.011774994 -0.04861952
-0.0070857676 0.029034156 -0.043228537 -0.014853237 -0.05909312 0.0043251957 -0.096106686 0.008253845
0.1011505 -0.034300026 -0.05130408 0.039353058 -0.0035120281 -0.061919868 0.059266485 -0.011518273
0.002104568 0.04328759 0.068151884 0.058172747 0.007908051 -0.048446145 -0.05267644 -0.010927104
-0.095953666 0.06072358 0.065755315 -0.029902348 -0.032338496 -0.060551595 0.052166607 0.039237045
-0.044000316 -0.026792742 -0.113224536 0.0632765 0.0033653092 -0.074707344 0.10242893 -0.010608003
0.019607082 0.071672186 -0.050173443 -0.093151376 0.0433494 0.0036870805 -0.07130188 0.040312763
0.040095694 0.043687515 0.0183122 0.07954305 -0.05161499 -0.04057136 0.016586289 0.008658942
-0.09828828 0.025537293 -0.029451428 0.020303553 -0.08777228 -0.06716516 0.05977187 -0.016718555

weight f4 [49, 88]
00000000: 730f 0f3d ad99 9fbd 75db a83d adf7 df3c
00000010: 3f71 353d ebdc 8e3d b0fa e1bb e178 843d
00000020: 3545 ecbd e312 9c3c a213 a83d 1882 24bb
00000030: da78 7bbd c182 0c3d df30 b03d 4afa 58bc
00000040: 2992 53bc 6ecb ec3b f336 a3bd 1dac f73b
00000050: 71cf 94bd 1603 953d 3229 27bd 82b7 e53d
00000060: 88c1 d43d 19ab 80bd 3cb7 b7bd 6166 b2bd
00000070: 9741 8b3d 2bca e33d 03aa 6cbc 4a66 22bd
00000080: 7f7f 8abd 447a 2c3c 7cd5 263d ebd6 d43d
00000090: 8fea 8bbd 15f6 0ebc e435 2d3d fb1b 0d3c
000000a0: 3409 64bb 3836 0bbd 19ce 1b3b 6f4c a13d
000000b0: 4529 403d 3395 1f3d 5344 07bd 0d63 0bbd
000000c0: 5b7d f23c 14c2 833c b5a7 2cbd 85e1 683c
000000d0: ca0a a2bd 5be0 e8bc d094 98bd 988f d03c
000000e0: 6342 363c 577f 8c3d b9f0 913d e7f9 793d
000000f0: 3580 82bd ea66 85bd f54a cebc 31a3 32bd
00000100: ed93 9d3b 274c 823d cc3c 4c3d 0d56 d33d
00000110: ae43 b8bd 37ae 343d 8738 bcbd 8f45 2f3d
00000120: 7e1b 84bd 6251 cc3d 487e 7f3d 9cef a0bb
00000130: 9883 c03d 1de5 8d3d fd95 ca3d bbc6 c43d
00000140: 4acd e4bd 4e51 79bd 863e 84bd 78ef aa3d
00000150: 85cb 043d 83e4 c2bd f0b6 c13d a697 b4bc
00000160: 7cb0 6b3d d3f9 043e ec35 ee3b d091 6dbd
00000170: d496 9fbd 43f6 ba3d 35d4 fdbc 105a bdbd
00000180: f502 3abd f226 4a3c daed f63c 4b85 3c3b
00000190: 811c b63c b7dd f43d 7f57 99bd b67a 11bd
000001a0: d55a 1b3c 84cf febd 37df edbd ec9c b8bd
000001b0: 0a8f 3f3c 312e 5dbc 89de 04b8 b20c 103d
000001c0: 76e0 99bc ade4 1bbc f8a1 b53d 3483 aebd
000001d0: 9d22 a5bd 6956 d9bd 41b7 91bd 50f4 df3c
000001e0: df18 cbbc 6c44 20bd 8a7b 193c 7e6a 463d
000001f0: 9619 3f3a e6dc 123c c675 e43d 0673 56bd
00000200: 6eb9 723d b2f9 1dbc 3f77 65bd c2bd eabd
00000210: 817f 823d 74bf 25bd f91c df3d 8f6a dbba
00000220: 8a8d 6f3c 7b21 ae3d c142 fabc a4d6 ba3c
00000230: f412 223d 0616 ca3d 5476 afbd 5179 78bd
00000240: 825c bd3d 68b9 8abd 71e0 743c d5cb d5bd
00000250: 1bd4 cc3d f549 483d 7375 99bc 7b7e f83d
00000260: c2e8 a03d e034 0fbb b8f2 a7bb f044 603d
00000270: 095f e9bc 485e afbd 67d7 283d b720 af3d
00000280: fc2b 763d 5608 803d 4c2f 153d 92ca 19bd
00000290: fdd2 c83d 6bed 89bd c159 03bd a067 35bc
000002a0: 1294 903d c503 6e3d b8b2 d2bd ef56 3d3c
000002b0: 3832 403d 3f89 71bd 1554 dc3d eec1 d5bc
000002c0: 8cb1 84bd 9ec8 b13d 3608 9cbc dd85 84bd
000002d0: 9a51 7f3d 7a01 abbd 1fe6 5ebd 9b7b 1a3d
000002e0: ac94 063d 977d 8cbd 48d0 1ebc 1711 833d
000002f0: f944 93bd eb97 45ba 46f5 8c3d 2fc5 acbc
00000300: f03f 47bd a789 8c3c 268f 5d3d 1943 b8bd
00000310: b5f9 803c 6f0d ccbd 9d0e 85bc 6e94 bf3a
00000320: 745a e0bc 5bf5 acbd 2251 e33d 5534 47bd
00000330: b091 833d 4c39 48bd 3fce 943b 95a8 733d
00000340: 49ff dd3c d4a9 b7bd 5b43 8e3d 931c e4bc
00000350: c6d2 223c 3c9d bcba c69b b1bc 1227 4bbd
00000360: ff1e 093d 7238 61bd e81e 2fbd 404a 303c
00000370: 47c6 e73c 19e4 73bd 1c20 63bc 0e92 a1bd
00000380: 5945 653d 3282 633d 5441 2b3d 7095 dcbd
00000390: 05cd 703c a453 80bd c64a 1b3d f13d 84bd
000003a0: 9fc3 183d 747b f53d 71c6 123d 9650 703d
000003b0: 974e 52bd 643a 06be 290c f4bc 1f56 93bd
000003c0: c384 afbd 3aa9 c7bd b08c 943d aec0 be3d
000003d0: 323e 2b3d 8cd3 55bd c2cf 83bd fbc9 fe3c
000003e0: ec38 b43c 2fb9 dd3c f701 b63c cec6 a9bd
000003f0: 02d6 833d 128b 133b abf2 45bd e40e 87bc
0.034926843 -0.07792983 0.08244983 0.02733978 0.044297453 0.069757305 -0.0068963394 0.06468368
-0.11536638 0.019051975 0.0820687 -0.0025101956 -0.06139455 0.034304384 0.086030714 -0.013243267
-0.012913265 0.007226399 -0.07969465 0.0075583593 -0.07266129 0.07275979 -0.04081077 0.11216642
0.10388476 -0.06282634 -0.08970496 -0.087109335 0.0679962 0.11122545 -0.014444831 -0.03964833
-0.06762599 0.010527197 0.04073094 0.10392555 -0.06831848 -0.008725663 0.042287722 0.008612628
-0.0034795525 -0.033987254 0.0023773967 0.07875907 0.046914358 0.038960647 -0.033024143 -0.03403001
0.02960079 0.016083755 -0.042152125 0.014213924 -0.07912214 -0.028427294 -0.07450259 0.025459096
0.011124226 0.06860226 0.07125992 0.06102934 -0.0637211 -0.0651377 -0.025182227 -0.043612663
0.004808894 0.06362181 0.049862668 0.10319147 -0.08997284 0.044111457 -0.09190469 0.042790946
-0.06450556 0.0997646 0.06237629 -0.004911376 0.094000995 0.069284655 0.09891889 0.09608217
-0.11171968 -0.060868554 -0.06457238 0.08346456 0.032420654 -0.095162414 0.09458721 -0.022044968
0.057541355 0.12985925 0.0072696116 -0.058000386 -0.0779244 0.09129002 -0.030984977 -0.09245694
-0.045412976 0.012338387 0.030142713 0.0028765972 0.022230389 0.11956351 -0.07487392 -0.035517417
0.009482105 -0.12441924 -0.116148405 -0.090143055 0.011691818 -0.013499782 -3.1678504e-05 0.035168357
-0.01878379 -0.00951497 0.08868784 -0.08521119 -0.080632426 -0.106121846 -0.07115031 0.027338177
-0.024792133 -0.039127752 0.009367833 0.048441403 0.00072898844 0.008963799 0.11155276 -0.05235579
0.05925887 -0.0096420515 -0.056021925 -0.11461975 0.06371976 -0.040465787 0.10894198 -0.0016740131
0.014621148 0.0850248 -0.030549409 0.022807427 0.039568856 0.09867482 -0.08567491 -0.06066257
0.0924616 -0.06773645 0.014946089 -0.104392685 0.100013934 0.048898656 -0.018732762 0.12133499
0.07856895 -0.0021851584 -0.00512537 0.054753244 -0.0284877 -0.085629046 0.04122105 0.08551162
0.06010054 0.0625159 0.03642206 -0.0375467 0.09805868 -0.06734737 -0.032068018 -0.011072069
0.07059492 0.058109064 -0.10287994 0.011556371 0.046922892 -0.05896878 0.10758225 -0.02609345
-0.06479177 0.08680843 -0.019046884 -0.06470845 0.06233368 -0.08349891 -0.05441868 0.037715536
0.03285663 -0.06859892 -0.009693213 0.06399744 -0.0719089 -0.0007537591 0.0688272 -0.021090118
-0.04864496 0.017155482 0.054091595 -0.08997173 0.01574407 -0.099635 -0.01624232 0.0014616379
-0.027386881 -0.08445235 0.11099459 -0.048633892 0.06424272 -0.048882768 0.004541188 0.059486944
0.027099269 -0.08967939 0.06946441 -0.027845656 0.009937948 -0.0014390121 -0.021680724 -0.049597807
0.033476826 -0.05498547 -0.042754084 0.01075989 0.028292788 -0.059543703 -0.013862636 -0.07889186
0.05597434 0.055544086 0.04181035 -0.107706904 0.014697318 -0.06265953 0.037913106 -0.06457127
0.037295934 0.119864374 0.03583378 0.058670603 -0.05134448 -0.13108212 -0.029790955 -0.07194161
-0.08570244 -0.09749074 0.072533965 0.093140945 0.04180736 -0.0522037 -0.06436111 0.031102171
0.021999799 0.027065841 0.022217734 -0.08289872 0.06437303 0.0022513312 -0.04832713 -0.016486593

bias f4 [49]
00000000: caf5 8c3d 75f2 a6bd 4fdc 463c 2d20 12bd
00000010: fd5e 93bd 6c20 1abd 3e56 f33c 045f 4d3d
00000020: ea9f 973d 534d 62bb a809 d4bd d9e0 3a3d
00000030: 429b f83c 1f94 6abc e930 19bc 8017 98bd
00000040: c12d 76bd f38b 9cbd 2077 3f3d 0abc c2bd
00000050: 13d3 5bbc 57b1 94bd 83db 10bd 2f07 80bc
00000060: 287e 8bbc 9c7c 9dbc d988 abbd 9eb1 9cbd
00000070: 27c6 86bd e8de f13b 0d69 8a3d 98b4 9bbc
00000080: 0091 b73d dfe7 923d ad92 84bd 4c9e c8bd
00000090: 2a0e 8d3c 7675 b43d 9345 5dbc da67 7cbd
000000a0: 31f9 fbbd d867 65bd b592 653d 777c bfbc
000000b0: 5ed3 17bd 313d a5bd 131b da3d d416 a03c
000000c0: d417 c83c
0.06882818 -0.08151714 0.012137487 -0.035675216 -0.07195852 -0.037628576 0.02970421 0.050139442
0.07403548 -0.0034530952 -0.10353404 0.045624588 0.03034747 -0.014317541 -0.00935004 -0.07426357
-0.060102228 -0.07643881 0.046744466 -0.09508522 -0.013417023 -0.072603874 -0.035365593 -0.015628425
-0.01702793 -0.019224457 -0.08375711 -0.07651065 -0.06580763 0.007381309 0.06758318 -0.019007012
0.089632034 0.07173132 -0.06473289 -0.09795818 0.017218668 0.088114664 -0.013505357 -0.061622478
-0.12303389 -0.056007236 0.056048114 -0.02337478 -0.03706681 -0.08068312 0.10649695 0.019542135
0.024425425

weight f4 [10, 49]
00000000: 74b6 d0bc 5ded a13d b73c 75bc 1f24 863d
00000010: ef00 213d 5139 a9bd 4a77 41bc 2502 ee3d
00000020: 77c3 7cbc 27c6 f03c 81b9 5abd e8c7 b8bd
00000030: 0036 36bc 0e32 08bd 70bc b53b d52c 9e3c
00000040: 2af3 ac3d 317e a23c 822a bebd 4bbd 933d
00000050: 3f92 213d 1244 483d e6da 3fbd 87c1 51bc
00000060: 93f5 b8b9 9ddd 54bc d0e9 9dbd 505b eebd
00000070: 7815 6f3c e225 f9bb 685a 1a3c 7bb6 e5bd
00000080: d525 b6bd 7427 313d 050d 0cbd 212a b0bd
00000090: 1059 9b3b 61da ce3d a5c2 053e 77f3 453c
000000a0: 19d7 ab3b 6da4 adbd d118 1d3d ef39 903d
000000b0: cccd 3fbd 9dcb 0c3c a3df b3bd dd4a b03d
000000c0: bbcb a2bd ba77 a7bc 28ed 3c3d 9d7b fbbb
000000d0: 1c64 e53d ba65 76bd 2340 87bd bf48 5f3d
000000e0: edb5 cf3d 0f31 4bbd 9dbe fc3d 56a2 84bc
000000f0: e570 bdbc e020 873c 3962 5cbd 1a18 64bd
00000100: 73ec 1abd 48ee 7abc 4369 40bd 7d30 2f3d
00000110: d18b 943d a5de ecbd afd6 ed3d 1952 bebd
00000120: 7cfc 4fbd 6693 133d e429 d2bd 954a 7c3d
00000130: 11c7 94bd 0583 e33d f14c 42bd be56 83bd
00000140: 5ec3 b63d 889d b53c 135e ed3c a4fe 57bd
00000150: 5645 103d 01ab 61bd 5c7e 78bd 613b c2bc
00000160: 1baa 9e3d 9673 833b 5ba1 153d 55ac ca3b
00000170: 2119 b03a 4c0a d93d b294 bebd 10e7 f43d
00000180: 8beb 08be 2ee7 87bc 79ba 743c eb1f dcbd
00000190: 3124 883d b7e5 f5bc bfea d73b f6c5 8ebd
000001a0: 8a01 0c3d cd4a 53bd 1957 08bd 4baa b4bc
000001b0: 3f77 f53d d088 763c d382 673d 5ad1 b63c
000001c0: 1590 f13d 77fd a73b 67a0 06bd 3958 93bd
000001d0: cfe7 b03d 56cb 08be 596f d4bc 3fb2 d73c
000001e0: a0eb bd3d 64ce 98bc cc39 f3b7 070b 3c3d
000001f0: 4ed6 6d3a 8df0 5f3d 18bf 733d 74fe d93d
00000200: 01a8 bb3d 8880 203e acd7 303d 9528 96bd
00000210: 47de 3e3c 1b6a b5bd 7b9e 4cbd bbac bdbd
00000220: ef52 aa3d bcfe 19bd 17ef babd 113e e23d
00000230: 507f 92bb 2d52 973d 6a38 963d c669 4ebc
00000240: 97f2 90bd ea2c 0bbd 3306 3fbd 5a07 d53d
00000250: 7189 813d 6c87 263d ac6e 663d a138 08be
00000260: 3676 343d 1aef 463c d720 2f3a 1c40 723d
00000270: 1eda d6bc f0a2 59bd 1a2e 903d d6a0 3abd
00000280: 78ed cbbd f2df 2cbd 352f 273d 5cb6 f3bd
00000290: b0c7 74bd 7552 00bc a3c1 e9bc 49a9 e83c
000002a0: 4712 b1bd 529a 843d e143 b2bc dc45 85bd
000002b0: fa67 9a3d 085e 4f3b 5e40 0c3d 5577 09be
000002c0: d14c 413c b55d 97bd 255e 533d 2e49 e1bd
000002d0: 0007 783d 82c3 e0bd ac1c febd 0d3e 243d
000002e0: 3128 853d 28d9 52bd 49d7 903d 5026 9cbd
000002f0: ca25 24bd 852c 7cbd 2fe0 9ebd c2eb 93bd
00000300: 51dd debc 44c7 033e 34ba 103d da8f 8c3d
00000310: 254f 4ebd 6976 0e3e 2fc8 efbd 1798 f83d
00000320: fa8f 9fbd 6840 f13c 19a7 76bc cd3c 3dbd
00000330: 918c 193d c896 f83d 068a e9bd 56b6 1f3d
00000340: 4d72 1e3e a05b 2cbc bfc8 9a3d d934 94bd
00000350: 1ff3 863d cdd4 273c 0599 4c3d 0649 c93b
00000360: c34e 45bd 507d f0bd 579b 813d a02b 8d3d
00000370: 04ee e13b e775 503d 37eb 1fbc 985b cb3d
00000380: 4927 bdbc 5995 80bd f7a8 dfbc bf84 673b
00000390: 5e9d e9bd 07a2 943d 73d2 9dbc d61f d23d
000003a0: ec2e 853d 9d65 09be a907 afbd 7ae6 50bd
000003b0: 8b12 41bd 1b56 67bd 5685 2d3c 1efe 76bc
000003c0: 9e58 ed3c 8087 943d 5280 9abd 2f56 8cbd
000003d0: 387f 9ebd 4a17 15be 21c0 a13d 5fec 15be
000003e0: fc27 3fbd ca69 38bc 48c7 46bd a057 e53d
000003f0: ebd5 0a3e c185 a43d 8c1f d9bd a739 9fbd
-0.025477625 0.079066016 -0.014968089 0.06549858 0.03930753 -0.08262885 -0.011808226 0.11621503
-0.015427462 0.029391361 -0.053399567 -0.09022504 -0.011121273 -0.03325086 0.005546145 0.019308487
0.08444817 0.019835563 -0.092854515 0.07213839 0.03944611 0.048893042 -0.046839617 -0.012802488
-0.00035278182 -0.01299229 -0.07710612 -0.1163851 0.014592521 -0.007603393 0.009420969 -0.11216446
-0.08893935 0.043250516 -0.034192104 -0.086017855 0.0047408417 0.10100246 0.13062532 0.012081972
0.0052441475 -0.08478627 0.038353745 0.070423 -0.046827123 0.008593467 -0.0878289 0.08608029
-0.07949015 -0.020442832 0.046124607 -0.007674648 0.11200735 -0.060155608 -0.0660403 0.054512735
0.101421215 -0.049607333 0.12341044 -0.016190689 -0.023125121 0.016495168 -0.05380461 -0.055687048
-0.03782315 -0.0153156 -0.046975385 0.04277085 0.0725323 -0.115659036 0.11613213 -0.09293003
-0.050777897 0.036029242 -0.10261896 0.061594564 -0.072645314 0.11108974 -0.04743666 -0.06413029
0.08923982 0.022169843 0.028975522 -0.05273308 0.035222374 -0.055094723 -0.06066738 -0.023709955
0.07747289 0.0040115817 0.036530834 0.0061850944 0.0013435223 0.10597667 -0.09305705 0.11958134
-0.13371103 -0.016589727 0.014937037 -0.10748275 0.06647528 -0.030016763 0.006589263 -0.06971352
0.034181155 -0.051585007 -0.033286188 -0.022053858 0.11985635 0.015047267 0.056521248 0.022316623
0.117950596 0.005126651 -0.032867815 -0.071945615 0.08637964 -0.13358817 -0.025932001 0.026330112
0.092734575 -0.018653102 -2.8994771e-05 0.045908954 0.00090727664 0.054672766 0.059508413 0.10644236
0.091629036 0.15674031 0.04317443 -0.07331959 0.011649675 -0.08858129 -0.049955826 -0.09261461
0.083165996 -0.03759645 -0.09127634 0.110469945 -0.0044707432 0.07388721 0.07334979 -0.012598461
-0.0707752 -0.03397838 -0.04663677 0.10401793 0.06325043 0.040656492 0.05625789 -0.13302852
0.044058047 0.012141967 0.0006680614 0.05914317 -0.026227053 -0.053133905 0.07040043 -0.04556354
-0.09957403 -0.04220576 0.040816505 -0.11900017 -0.05976075 -0.007832159 -0.028534716 0.028401034
-0.08646064 0.06474747 -0.021760883 -0.06507465 0.07539363 0.003164174 0.034241073 -0.13424428
0.0117981 -0.0739092 0.051603455 -0.11000286 0.06055355 -0.1097479 -0.124078125 0.04009824
0.065018065 -0.051476628 0.070723124 -0.07624495 -0.0400751 -0.061565895 -0.077576034 -0.072227016
-0.027205141 0.12868983 0.035333827 0.06863375 -0.050368447 0.13912357 -0.11708104 0.12138384
-0.07791133 0.029449657 -0.015054488 -0.046200562 0.03748757 0.12138134 -0.11403279 0.03899225
0.1547329 -0.010519892 0.075578205 -0.072366424 0.065893404 0.010243607 0.04995062 0.0061427383
-0.048170816 -0.117426515 0.06328457 0.068930864 0.0068948288 0.05089369 -0.009760669 0.099295795
-0.023090022 -0.06278486 -0.027302248 0.0035326926 -0.114069685 0.07257467 -0.01926539 0.102599785
0.0650309 -0.13417669 -0.08546383 -0.05100105 -0.047136825 -0.0564786 0.010590872 -0.015075235
0.02897292 0.07252407 -0.075440064 -0.06852376 -0.07739109 -0.14559665 0.07897974 -0.1464095
-0.04666899 -0.011255691 -0.048529893 0.11198354 0.13558166 0.08033324 -0.1060172 -0.07774668

bias f4 [10]
00000000: 810a 4f3d 429f ef3c 2ec4 06be e04d 96bd
00000010: 584d b23d 78dc 603d 9778 b6bd 249e 0cbe
00000020: 083a 423c 0f42 b83b
0.050547127 0.029250745 -0.13160774 -0.07339072 0.087061584 0.054897755 -0.089097194 -0.13732201
0.011854656 0.005623109

weight f4 [10, 49]
00000000: b89d 813d e391 c3bd ccf1 bebd cda2 ce3d
00000010: c886 783d 0e48 c83d 017a 1abe aa72 1abd
00000020: cd88 583d bba0 16bd 948e 0abe ab02 063d
00000030: 22a4 d1bd 8720 4ebd eac6 93bd f645 f23d
00000040: 98fc 68bd 55a5 b7bd a320 803d 70b1 b6bd
00000050: 26e9 62bd e57d 973d 7dd4 223d a097 9dbd
00000060: a5e4 313d 5ed9 ef3d 4bc0 59bd 4e6c 60bd
00000070: 91e0 f53d 9601 e13d 0b50 7ebd 089a 0d3d
00000080: 304e 98bc 688d 443d f525 f5bd 47a3 b33d
00000090: 463a 123d c493 87bc 5c25 213d 6ad5 da3d
000000a0: a7bb f2bd 01b2 ca3b ff04 073c e8d3 02be
000000b0: ed52 fbbc a122 ec3d 7843 f8bd 910a de3d
000000c0: 4d91 f03d 982b 43bd 6ea8 c8bd ff55 50bd
000000d0: ac00 ed3d 8508 0b3e 78e4 21ba 8404 7dbb
000000e0: 8b5a 1e3d 902d bf3d 7c6f f4bd 79dc 8e3d
000000f0: c5a9 4c3d 05ac 993a 2962 53bc 7924 84bd
00000100: 6837 88bd f4af d3bd 5f32 053c 8645 583d
00000110: 71fb 8cbd 6c18 ae3d bdc3 583d 76bb 25bd
00000120: f80b 833c 98ed 8a3d b1f9 733d 863e 413d
00000130: 817e eabd 3542 a93d f3af c8bd 9ec5 3abd
00000140: c3d2 d13d 1a2f 633c 08a9 943d 1a22 abbd
00000150: b006 173e 09af 70bd 9cad be3b 8fcf f13d
00000160: aad1 7d3d 3b80 09be 926c a5bd 843a 88bd
00000170: 6d0e 9ebd 0613 ac3d 1229 ef3b a55b 643d
00000180: 99f6 0bbe bc5a 6dbc a29b 6b3a 5789 5bbd
00000190: 9052 bdbd b0c3 8c3d 4c3c ac3d 5d19 663d
000001a0: 4783 a3bc 17c6 3e3b cc2d 0e3d b3ff d9bd
000001b0: d4e9 f13d 86af e83d 61d8 853d 0045 8a3d
000001c0: c05e 38bb 76fe babd 83f2 9a3d ddf4 b73d
000001d0: f165 a93c f673 a83c 25ca e93a 0c17 23bd
000001e0: cea2 82bb ec6e e63d b6a0 463d e16c cc3d
000001f0: e31f 89bd c650 a3bd cdbe d0bc 5a64 12be
00000200: 268e dfbd 5496 00ba d63f bb3d d88b a7bd
00000210: ea0e 743d 0cfb 01be 09fb 69bd 40ac 07bd
00000220: 4a4a 4bbd 79a3 87bd eb23 2dbd d6f9 bd3d
00000230: ca7f d1bd c82c bebd e1fe 36bd 7325 893c
00000240: 7e9d 0d3d f102 00be 7467 e03b 22e9 0fbc
00000250: 5c0b a5bd 4bc8 313c 5745 a9bc 9beb 83bd
00000260: 558d 593d 3432 81bd 00c7 8fbc ad60 983d
00000270: cf21 90bd f572 f3ba 2458 453d f1a2 b63d
00000280: 5db2 ec3d fe0c b43d 2ecb ff3d a2ed c83d
00000290: 082d 8fbc eb83 b23d f9dc b2ba 8371 0b3d
000002a0: 40fc 683d 4e22 d23d 971d 30bd b3a2 563c
000002b0: 757f f5bc 2c1c 83bd f353 adbd bb46 aabd
000002c0: a8b8 aa3d 607a a73d 86c2 9abc fc78 4bba
000002d0: 6c6d 6cbc 6eac 583d 49f8 fbbd 3267 b53d
000002e0: 049b 523d a267 8b3c 8b8d a4bd b0c6 0d3d
000002f0: d1d2 8dbd f306 833d 8c00 3b3d 69ff b2bc
00000300: 2fa0 89bd c463 703c ccba 1abe 6d5c acbd
00000310: d8e5 67bb 7019 203e b891 5a3c 0926 7c3d
00000320: d011 4b3d 0e0c 483e c9d2 41bc f658 82bc
00000330: 2a39 04be d254 20be a1e5 babc 5e2d da3d
00000340: 4eee 03bc 5959 f0bd e7fd d0bd 8e56 c03d
00000350: 5a3a 2f3e e587 81bc fef1 013d d4db 243e
00000360: 7ade fcbd 18d9 fb3c fdad 1dbd 69d1 2f3e
00000370: 3049 7f3b 7575 db3b f968 273c df5e b6bc
00000380: 21d7 50bd 5235 b7bd a6ee c73c 02ea f43d
00000390: 0e70 33be a569 c1bd 2110 cc3c 5094 3a3e
000003a0: b5cb 12be e32a 32bd b62e 9ebd 4bf3 e7bd
000003b0: d66e 3e3d 3e7a f9bb d501 20bd 4b47 f33c
000003c0: b655 b0bd 825e 27bd 4f25 2fbe 5ba0 233c
000003d0: c6fa 16be d877 6ebd 09e2 963c b732 52bd
000003e0: 53d7 e53d 67dc a4bd cd82 16bd cd44 92bd
000003f0: 13a5 debb c11c 13be 42d8 abbd 57a2 bebc
0.063289106 -0.0954931 -0.09323463 0.100896455 0.060675412 0.09779368 -0.15085603 -0.03770701
0.05286484 -0.03677438 -0.13530952 0.032717388 -0.10236384 -0.05032399 -0.07215674 0.1182975
-0.056881517 -0.089670815 0.06256225 -0.08920562 -0.05539813 0.07397059 0.039753426 -0.07694936
0.043430943 0.117113814 -0.0531619 -0.054790787 0.12005723 0.109866306 -0.062088054 0.034570724
-0.01859197 0.047986418 -0.1197013 0.08771377 0.035700105 -0.016549952 0.03934227 0.10685237
-0.11852198 0.0061857705 0.008240937 -0.12776148 -0.03067919 0.115300424 -0.12122244 0.10841859
0.11746464 -0.047648996 -0.097977504 -0.050863262 0.11572394 0.13577469 -0.0006175707 -0.0038607428
0.038660567 0.09334862 -0.119353265 0.069756456 0.049966592 0.001172424 -0.012901821 -0.06452269
-0.06651193 -0.10336295 0.008129685 0.052800678 -0.06883896 0.08500752 0.052921046 -0.04046198
0.015996918 0.06783599 0.059564296 0.047178768 -0.1144991 0.08264581 -0.09799185 -0.04559862
0.10245278 0.01386621 0.07258803 -0.08356114 0.14748645 -0.058760677 0.0058190357 0.11807167
0.06196753 -0.13427822 -0.08077349 -0.06651786 -0.07717595 0.08402066 0.007298597 0.05575146
-0.13668288 -0.014486965 0.00089877297 -0.053597774 -0.09244263 0.06873262 0.08409938 0.056176532
-0.019960059 0.002910977 0.034711644 -0.10644474 0.11812177 0.113616034 0.065354116 0.06751442
-0.0028132647 -0.09130566 0.07565787 0.08982251 0.020678492 0.020563107 0.0017836733 -0.0398169
-0.003986693 0.112516254 0.04849311 0.099817045 -0.06695535 -0.07974391 -0.025481606 -0.14296094
-0.109157845 -0.0004905213 0.09143035 -0.0818097 0.059584536 -0.12693423 -0.05712417 -0.033123255
-0.049631394 -0.06622977 -0.042270582 0.09276168 -0.10229452 -0.09285885 -0.044676665 0.01674149
0.034574024 -0.12501122 0.00684827 -0.008783611 -0.08058807 0.010850976 -0.020662947 -0.064414226
0.0531133 -0.063084036 -0.017550945 0.074403144 -0.070376985 -0.0018573689 0.04817976 0.08917797
0.115574576 0.087915406 0.12489925 0.0981095 -0.017477527 0.087165676 -0.0013646177 0.0340438
0.05688119 0.10260449 -0.04299697 0.013100314 -0.029968003 -0.06401858 -0.08463278 -0.08314272
0.08336002 0.08177638 -0.018891584 -0.00077618635 -0.014430385 0.052898817 -0.12303216 0.088575736
0.051417366 0.01701719 -0.0803481 0.03461331 -0.06924976 0.0639781 0.04565482 -0.021850305
-0.06720006 0.0146722235 -0.1511032 -0.08416066 -0.00353848 0.15634704 0.013340406 0.06155971
0.049577534 0.19535848 -0.01183004 -0.01591156 -0.12912431 -0.15657356 -0.022814574 0.10653184
-0.008052422 -0.11735792 -0.10204678 0.09391509 0.17112103 -0.01581187 0.031724922 0.16099483
-0.123471215 0.030743167 -0.038496006 0.17169727 0.0038953535 0.0066973516 0.0102178985 -0.022262035
-0.050986413 -0.08945717 0.024405789 0.11958696 -0.17523214 -0.09443978 0.024910035 0.18220639
-0.1433552 -0.04349793 -0.07723753 -0.11325701 0.04649242 -0.0076134494 -0.039064247 0.029697081
-0.08610098 -0.040861614 -0.17104076 0.009986962 -0.147441 -0.05821976 0.018418329 -0.051317897
0.112227105 -0.08049851 -0.036745835 -0.07142029 -0.0067945807 -0.14366437 -0.08390857 -0.023270769

bias f4 [10]
00000000: 8164 1f3c ed35 7f3d c0a7 e43d 030b 13bd
00000010: 0311 40bd 0faf a93d a936 2ebd 6a5d 3bbd
00000020: 0d54 063d befd af3b
0.009728552 0.062307287 0.11164808 -0.035899173 -0.046891224 0.08285343 -0.042532597 -0.045743383
0.032795 0.0053708246

weight f4 [50, 11]
00000000: fe1f 00be d7e9 5cbd 2888 0b3a 7be6 d3bd
00000010: f6d4 28be 2108 59bd 6ac3 7e3c 2238 0cbc
00000020: 1578 14bb d61a 0c3e ae79 84be 010d 383e
00000030: 339a 2fbe 6c9a d1bb a3a6 a0bd 440b 513d
00000040: 8fa9 07be 452e 5ebc 3cbe 533e 49d1 28be
00000050: 79be 413d a564 67be c07f 363e c80d 1cbc
00000060: 54df 60bd 3212 cc3d e0f2 193e 3c39 d43d
00000070: 1d84 3bbe 81ff a7bd d9ec ce3d 97e7 89bd
00000080: 97c4 d7bd c439 c0bd d372 43be 16b3 353e
00000090: c19a 063e cb8e 103e 8bb5 fb3c db8d 223e
000000a0: 90ba 993d 5350 c4bd 8a9f 7a3d 85c6 1c3c
000000b0: c682 b13d 56a6 f33d 1cdf 7e3b 0f57 aabd
000000c0: dc7b 4abe b633 303d bc33 153e 34a5 66bb
000000d0: 2070 2cbe 0537 083d 87d2 8a3d 8cf3 dabd
000000e0: be33 0fbe 8549 2bbd 5dfe 83bd 227b 0f3d
000000f0: 2b01 69bd d60e 023c 23c4 78bc a394 e93d
00000100: f735 82bd f4e2 9abe f580 48be 03fc 8fbb
00000110: 0efa 82bd 7ffc 193e 3955 6039 ffad 113e
00000120: c441 0ebd b53f 9a3d ee75 043e e6fc f3ba
00000130: 4f3c a8be 90aa 85bd 053f e83d 62e8 533d
00000140: aaa7 07be 2f91 343e efdf 593e 547b 063e
00000150: 29dd e53d e819 97bd 8a67 983d 289b 443e
00000160: f92b 6ebe 099b 89bd 7bfb f13d c9fe 603e
00000170: 0c47 8bbe 1e98 68bd eefe 1dbc e5c7 f63c
00000180: d3b4 2f3e 0dfa 0cbe 0af6 a23e 241a 43be
00000190: 4faf efbd b615 1a3e 7c18 cd3d abda e5bd
000001a0: bf04 0bbe 248e 1fbd b9a5 a53d 77a0 f53d
000001b0: 5324 953d ad42 91be cfa4 00be 5625 19be
000001c0: 7978 0a3e 82ba 243e aa6a ba3e f135 a43c
000001d0: 8c35 f63d 8af4 b63d 0760 d13d 6c50 dabd
000001e0: 9f64 43be 2aef 40be ae1d 1c3e 55e3 bcbd
000001f0: 3c2c 89bd ff05 b7be fb55 553e f9f2 dd3d
00000200: 288a 413e 8bcd 37be b790 433e 478a 0cbe
00000210: 808b ad3d ffdb ec3d 1c47 4ebd 0ee1 c93d
00000220: 0218 e93d 7eb7 b8bd c4f6 c9bd a7e3 243d
00000230: 4057 eb3d a41e c2bd 4b20 48be 44d0 dfbd
00000240: 5c02 5e3e 8d07 3e3e 63d8 8b3c 5780 cab9
00000250: 9f76 d7bd b340 96bd a2b0 15be d8e2 02be
00000260: 9db6 e53c 5a66 f43c 30c4 043e ff94 693e
00000270: aa09 fb3c f6e5 abb7 4af9 b63d ea1b 583d
00000280: 0e49 19be 3f1f d63d 1849 9bbc 0b64 9ebd
00000290: 950d ac3e 068b f2bd 10ea 05be e958 db3d
000002a0: 185e bebd c4df d43e d893 32be 6243 1f3e
000002b0: 9dea b5bd 8768 363e 75a9 8f3c d506 c83d
000002c0: b988 4f3e b0b8 3fbc 8666 5c3d 7120 9abd
000002d0: 2667 c4be 6c51 55be f58e 443e ec29 f8bd
000002e0: eb9c d93c 44d1 873d d29b 7a3e 6d26 a3bd
000002f0: b3ae 4d3e 28f8 153e 3dd3 743d 29aa 9a3e
00000300: 93fb a23e a6d1 3dbe 4c40 4fbd b19b 2e3e
00000310: 57b4 23be 60ee 4b3e 80b7 01bb 2bce debc
00000320: 5006 653e 21d2 243d 1747 483e 3c04 bebd
00000330: 8180 97bc 9b56 0d3d 358c 013e aaae c23d
00000340: d1a2 9b3e 2294 3e3e 6b3c 91bd 03bb 903d
00000350: 8789 cf3d 5ab5 123e c0cd 07be e431 dbbd
00000360: 085d 27be 31a8 ad3d 07be 1fbe 24fa 6abe
00000370: 9d7b ccbb 4651 17be 101a d43d 0132 443c
00000380: f6b8 05bf 0c76 cbbd 691a 0abe bc44 203e
00000390: 4bb0 363e 2e8f 8abd 58d1 e33c 28a7 29bd
000003a0: efe0 dbbd 2181 79bd f9c8 c9bd 6b47 893e
000003b0: 5679 3fbe 7a5f e6bc de06 863d 91a5 1cbd
000003c0: 9c77 0fbe f868 203d 0fa8 c3bd 6860 023e
000003d0: 036e b53d 7148 1f3e 9420 873e 645c febd
000003e0: fe4c 18be 6cd8 933a 88ff 10bd c876 debd
000003f0: 1aca 213e 9a7c 883d d657 9cbd d05c dabd
-0.12512204 -0.053933945 0.0005322718 -0.10346695 -0.16487488 -0.052986268 0.01554952 -0.008558305
-0.0022654582 0.13682112 -0.25874084 0.1797371 -0.17148666 -0.0063965824 -0.078442834 0.051036134
-0.13248275 -0.013560836 0.20678037 -0.16486086 0.04730079 -0.22596987 0.1782217 -0.00952477
-0.054900482 0.09964408 0.15034056 0.10362479 -0.18312116 -0.082030304 0.10103769 -0.067336254
-0.105355434 -0.09386018 -0.1908677 0.17744097 0.13144971 0.14116971 0.030726215 0.15874426
0.07506287 -0.09585633 0.061187305 0.009568815 0.08667521 0.118969604 0.0038890308 -0.08317386
-0.19773811 0.043018065 0.14570516 -0.0035193684 -0.16839647 0.033255596 0.06778436 -0.10690984
-0.13984582 -0.04181816 -0.06445 0.035029538 -0.05688588 0.0079381075 -0.015183481 0.11405303
-0.06357949 -0.30251276 -0.19580443 -0.004394056 -0.063953504 0.15037726 0.00021394053 0.1422653
-0.034730688 0.075316824 0.12935612 -0.0018614798 -0.32858512 -0.06526673 0.11340145 0.05173529
-0.13247553 0.17633508 0.2127683 0.13132983 0.112238236 -0.07377988 0.074416235 0.19199812
-0.23258962 -0.06719024 0.11815544 0.21972193 -0.27202642 -0.056785695 -0.0096432995 0.030124614
0.17158823 -0.13767262 0.31828338 -0.1905294 -0.11703359 0.15047345 0.10014436 -0.11223348
-0.13576029 -0.038953915 0.0808825 0.11993497 0.07282319 -0.28371182 -0.1256287 -0.14955649
0.13522519 0.16086772 0.36409503 0.020045253 0.12021932 0.08933361 0.10223394 -0.106598705
-0.19081353 -0.18841234 0.15245697 -0.09223048 -0.0669789 -0.35746762 0.2083358 0.10837359
0.18900359 -0.17949502 0.19098173 -0.13724624 0.08473873 0.115653984 -0.050360784 0.09857379
0.11381532 -0.09019373 -0.0986152 0.04025617 0.11491251 -0.094785005 -0.19543569 -0.109283954
0.21680588 0.18557568 0.017070955 -0.00038624063 -0.10520672 -0.07336559 -0.14618161 -0.12781847
0.028041178 0.029833961 0.12965465 0.22810744 0.030644257 -2.0491872e-05 0.08934267 0.052760996
-0.14969274 0.104551785 -0.018955752 -0.077339254 0.33604112 -0.11842923 -0.13077569 0.10710318
-0.09295291 0.4157697 -0.1743921 0.15553048 -0.088826396 0.17813312 0.017536858 0.09766928
0.20267 -0.011701748 0.05380871 -0.07525719 -0.38359946 -0.20831841 0.19195159 -0.12117371
0.026564082 0.06631711 0.24473503 -0.079663135 0.20086174 0.14645445 0.059771765 0.30207947
0.3183256 -0.18537006 -0.050598428 0.17051579 -0.15986763 0.19915152 -0.0019793212 -0.027197918
0.2236569 0.040239457 0.19558369 -0.092781514 -0.018493893 0.03450642 0.12651141 0.09505971
0.30397657 0.18611196 -0.07091602 0.0706692 0.10133653 0.14326993 -0.13262081 -0.10702875
-0.16344082 0.084793456 -0.15599833 -0.22946984 -0.006240322 -0.14777097 0.103565335 0.0119748125
-0.52235353 -0.09934625 -0.13486637 0.1565122 0.17840688 -0.067655906 0.027809784 -0.04141918
-0.10736262 -0.060914163 -0.098527856 0.268123 -0.1869863 -0.028121699 0.065442786 -0.038243834
-0.14010471 0.039162606 -0.09553539 0.12732089 0.08858874 0.15554978 0.26392043 -0.12419966
-0.1487312 0.0011279709 -0.035399944 -0.108624995 0.15799752 0.06664391 -0.07633941 -0.10662234

bias f4 [50]
00000000: 92e5 e6be 3bdf 353e 863f 34be 0ecd 81be
00000010: eca0 13be 2343 61be 0ba0 3bbe 23dd 9bbd
00000020: 64f6 d43b 3ef8 a93e fd90 eb3c cc1a 983e
00000030: 1eb2 b7be 5400 be3e 457b ae3d b498 fe3d
00000040: f4d8 20be 3a9f 563e 3cf6 433d 9c80 bdbe
00000050: 0114 9bbe af17 88bd 1103 29be 4e50 a4be
00000060: 083f 7cbe f825 e5be 9eb6 b13e 96ba b23d
00000070: 7077 53be c3c7 13be 38e5 1dbe b8e2 0cbe
00000080: 5757 79bd 4c21 8bbd 7363 33bc 66d6 22be
00000090: a703 37be dbdf 3d3e d960 8bbe ebdc 74be
000000a0: 5aca 72be aa45 dfbd db1e a6be 8940 5abe
000000b0: 80be 23be 8e0f 27bc 2fc2 9e3d f2cb 99be
000000c0: 8c97 85bc b260 6b3e
-0.45097023 0.17760937 -0.17602357 -0.25351757 -0.14416856 -0.21998267 -0.1832277 -0.07610538
0.0064990986 0.33197206 0.02875566 0.29707944 -0.3587808 0.37109625 0.085196055 0.124314696
-0.15707761 0.20959178 0.04784225 -0.37012184 -0.302887 -0.06645142 -0.16505076 -0.32092518
-0.2463342 -0.4475553 0.34709638 0.08726995 -0.2065103 -0.14431672 -0.15419471 -0.13758361
-0.06087431 -0.0679346 -0.0109490035 -0.15902099 -0.17872487 0.18542425 -0.27222326 -0.23912399
-0.23710003 -0.10901959 -0.32445416 -0.2131368 -0.15990639 -0.01019658 0.07751881 -0.3003841
-0.016307615 0.22986105
