data/saved_models/model_FF_saved.pt (torch, 397511 bytes, 9 tensors)

weight f4 [128, 380]
0	0x3d660ff9	0.056167576
1	0xbc92a6d9	-0.017901825
2	0xbca78955	-0.020451227
3	0x3d276c27	0.040874626
4	0x3bd5f7e9	0.0065297973
5	0xbc974510	-0.018465549
6	0x3c6daadd	0.014506069
7	0xbb9ce87f	-0.004788458
8	0x3d6f2d44	0.058392778
9	0x3cd0b42f	0.025476543
10	0x3cd4262a	0.025897104
11	0xbc31fb1b	-0.010863091
12	0x3d21ccec	0.03950207
13	0x3a6951fe	0.00089004624
14	0x3b015617	0.0019735151
15	0xbc291ff4	-0.01032256
16	0xbcefc13f	-0.029266952
17	0x3d0f98ff	0.035058018
18	0xbd017861	-0.031608943
19	0xbc608774	-0.01370417
20	0x3c8bf403	0.017084127
21	0xbbf9ff53	-0.007629314
22	0x3d0e4eb0	0.03474301
23	0x3d2b963a	0.041891314
24	0x39a9d9f8	0.0003239659
25	0x3cc2ba34	0.02377043
26	0x3c945a20	0.018109381
27	0xbd19a7d1	-0.037513558
28	0xbcfd0b56	-0.030889194
29	0x3d4319de	0.04763209
30	0xbbd4474c	-0.006478226
31	0x3d124ccc	0.03571777
32	0x3c609501	0.0137074
33	0xbd0f8d2e	-0.03504675
34	0x3d0e7165	0.03477611
35	0x3d00e771	0.03147072
36	0x3c613003	0.013744357
37	0x3d3b7794	0.045768335
38	0x3d3c4390	0.04596287
39	0xbb3e682d	-0.0029053793
40	0x3bfc1a9b	0.0076936013
41	0x3d80c3e9	0.06287367
42	0xbcd2c540	-0.025728822
43	0xbc99e3b7	-0.01878534
44	0xbc85e3ec	-0.016344033
45	0xbc831dde	-0.016005453
46	0xbc9892c3	-0.018624669
47	0xbd1bb517	-0.038014498
48	0xbc89d3f4	-0.0168247
49	0x3c5a8e96	0.013339659
50	0x3d1a6244	0.03769137
51	0xbc329b57	-0.010901294
52	0x3d67f7cf	0.056632813
53	0x3d053548	0.032521516
54	0xbc6f41ad	-0.014603061
55	0xbc7126a4	-0.014718685
56	0x3bd76aaf	0.006573997
57	0xbd177f3d	-0.03698658
58	0xbc09177a	-0.008367414
59	0x3d1310a1	0.03590453
60	0xbc8a780b	-0.016902944
61	0x3d1b1623	0.037862908
62	0x3bbe0251	0.005798616
63	0x3c989c38	0.018629178
64	0xbd293145	-0.041306753
65	0x3d504132	0.050843425
66	0x3c8e6a54	0.017384686
67	0xbc25142d	-0.010075611
68	0xbd188a1b	-0.037241083
69	0x3d104229	0.035219345
70	0xb87345a4	-5.8000573e-05
71	0x3cc85fc4	0.024459727
72	0xbc07a34c	-0.008278679
73	0x3d3c5446	0.045978807
74	0x3cb5506b	0.022133073
75	0xbbd6c668	-0.0065544136
76	0x3c9de575	0.019274453
77	0x3d08f3fe	0.033435814
78	0x3c5f1fb4	0.013618398
79	0x3c3378ac	0.010954063
80	0x3a6d8e5a	0.00090620446
81	0xbd1721d1	-0.036897484
82	0xbb3459e4	-0.00275194
83	0x3d4d271a	0.05008612
84	0x3dacc43e	0.08435868
85	0xbc91e421	-0.017808976
86	0x3d5eba93	0.05437715
87	0x3d3297dd	0.04360186
88	0x3ce68963	0.028141683
89	0xbc5c5808	-0.013448723
90	0x3c97b0e2	0.018516961
91	0xbb8d76a5	-0.004317122
92	0xbd384a14	-0.04499252
93	0x3d31db77	0.04342219
94	0xbc94d3ea	-0.018167455
95	0xbd018a98	-0.031626314
96	0xbd04cedc	-0.03242384
97	0xbbbd3939	-0.0057746437
98	0x3acb4658	0.0015508635
99	0x3db343b8	0.08753151
100	0x3ca066c9	0.019580262
101	0xbd0204fa	-0.031743027
102	0x3aa1010f	0.0012283641
103	0xbce817f6	-0.028331738
104	0xbce14a43	-0.027501231
105	0xbd1a2bdc	-0.037639484
106	0xbcb349e2	-0.021885816
107	0x3cf06c93	0.029348647
108	0xbc3cb1d7	-0.01151701
109	0x3c983d45	0.018583903
110	0xbc539fbd	-0.012916503
111	0x3d6ee19d	0.05832063
112	0x36e930ad	6.9496077e-06
113	0x3df9c834	0.12196389
114	0x3cfd3503	0.030909067
115	0x3aedf26a	0.001815391
116	0xba891eb1	-0.0010461417
117	0x3d1907ed	0.037361074
118	0x3c26ab6d	0.010172707
119	0x3ccc34c6	0.024927508
120	0xbbf33475	-0.007422025
121	0x3d3ce088	0.046112567
122	0x3d64cb5f	0.055858012
123	0x3cc62c87	0.024191154
124	0x3d06d235	0.032915313
125	0x3b34d9fc	0.002759575
126	0x331655b6	3.500255e-08
127	0x3ddb9f04	0.10723689
128	0x3e198c72	0.14994982
129	0x3b6c4a1b	0.0036054912
130	0xbd211ee6	-0.039336108
131	0xbbfa4e46	-0.0076387255
132	0x3d307d80	0.043088436
133	0x3ce5f700	0.02807188
134	0xbd011c45	-0.0315211
135	0xbcf066f9	-0.029345976
136	0x3be159ea	0.0068771737
137	0x3d5ef72f	0.05443495
138	0x3d6216ac	0.055197403
139	0x3d5e1a5a	0.05422435
140	0x3d0ab33e	0.033862345
141	0xbcbfde32	-0.02342138
142	0xbd0f43d6	-0.034976803
143	0xbcc07bc8	-0.023496523
144	0xba74a744	-0.0009332786
145	0x3d07563b	0.03304122
146	0x3cf94aa1	0.030431094
147	0x3d68d8d3	0.056847405
148	0x3ca8d7b5	0.02061067
149	0x3a8c4dd8	0.0010704352
150	0x3cd245c3	0.02566803
151	0x3aed864e	0.0018121691
152	0xbd31ee3d	-0.043440092
153	0xbc007045	-0.007839267
154	0xba834d41	-0.001001753
155	0x3d3479fc	0.044061646
156	0xbd4d3e40	-0.050108194
157	0x3d320904	0.04346563
158	0x3d894bdb	0.067039214
159	0x3a58f9de	0.0008276979
160	0x3d193d1a	0.037411787
161	0xbd03e32f	-0.03219908
162	0xbcd9c52c	-0.026583277
163	0xbc01e1ed	-0.0079274
164	0xba4ab652	-0.00077328563
165	0xbcfea70d	-0.031085515
166	0x3ca5c5b5	0.020235876
167	0x3d3dd0ee	0.04634183
168	0x3daa168f	0.08305084
169	0x39f066ee	0.00045853056
170	0xbce10990	-0.02747038
171	0x3d298bb8	0.04139301
172	0xbd01aac9	-0.031657014
173	0x3d401570	0.046895444
174	0xb8574a0c	-5.1328956e-05
175	0x3cfeb525	0.031092236
176	0xbc2cc32c	-0.0105445795
177	0x3d333e02	0.043760307
178	0x3bac3740	0.0052556098
179	0x37642a05	1.3599642e-05
180	0xbc695530	-0.014241502
181	0x3cf3af8d	0.029746795
182	0xbc2ffd9f	-0.01074162
183	0xbc940023	-0.018066471
184	0xb8151a84	-3.5549063e-05
185	0xbd72c08a	-0.05926565
186	0x3cb3b19f	0.021935282
187	0x3d318a48	0.043344766
188	0xb93d448d	-0.00018049982
189	0xb2183563	-8.859703e-09
190	0x3cdcccc7	0.026953114
191	0x3d310ff6	0.043228112
192	0x3c673a36	0.014113
193	0xbc972dce	-0.018454459
194	0xbcddaae6	-0.02705903
195	0x3cc2c32b	0.023774704
196	0xbd00b5b6	-0.031423293
197	0x3d5d3661	0.054006938
198	0xbcd61c38	-0.026136503
199	0x3cd5a2c6	0.026078593
200	0xbb2e0b5a	-0.002655706
201	0x3d55c9d1	0.05219442
202	0xbc9ce4c8	-0.01915206
203	0xbcd9d4bd	-0.0265907
204	0x3c9a5f89	0.018844383
205	0x3b680af7	0.0035406926
206	0xbc2d32f5	-0.010571231
207	0x3d386730	0.045020282
208	0xba697bb9	-0.0008906681
209	0xbcc45711	-0.023967298
210	0xbc05414d	-0.008133245
211	0x3d560e3e	0.052259676
212	0xbc9de722	-0.019275252
213	0x3d015671	0.031576578
214	0x3cb6773d	0.022273654
215	0x3a899166	0.0010495603
216	0x3d160eda	0.036635257
217	0x3c5b75aa	0.0133947525
218	0xbc500989	-0.012697586
219	0x3a6b04ca	0.0008965252
220	0x3cb19d9e	0.021681603
221	0x3b87d1d7	0.004144888
222	0x3b79afec	0.0038099242
223	0x39fbf3df	0.0004805615
224	0x3b780782	0.0037846272
225	0xbbaa3cca	-0.005195235
226	0x3c803da2	0.015654389
227	0x3d43e843	0.047828924
228	0xbc4b510e	-0.012409462
229	0x3d2dccd2	0.04243166
230	0x3d2f35f5	0.042776067
231	0x3d0d214e	0.03445559
232	0xbd370da4	-0.044690743
233	0x3c7a2b00	0.015269041
234	0x3d3c5591	0.04598004
235	0xbc994375	-0.018708924
236	0xbd473fc5	-0.0486448
237	0x3bd2f694	0.006438086
238	0xbcce9347	-0.025216712
239	0x3c67aec8	0.014140792
240	0x3c2514cd	0.01007576
241	0x3bc7f552	0.0061022425
242	0x3c5c49e2	0.013445349
243	0xbcc1149e	-0.023569401
244	0x3cbb0cd8	0.022833273
245	0x3d980e9b	0.07424661
246	0x3c420a21	0.011843235
247	0xbcdbdd86	-0.026839029
248	0xbd1a585c	-0.037681922
249	0x3d2133a8	0.039355904
250	0xbbf696a2	-0.007525281
251	0x3d1047f9	0.03522489
252	0x3c3f4cab	0.011675994
253	0xbc131076	-0.008976093
254	0x3d1e1271	0.038591806
255	0x3b91f48c	0.004454201

bias f4 [128]
0	0x3d348434	0.04407139
1	0xbc379cd8	-0.011206828
2	0x3cab4324	0.020906039
3	0xbd085c50	-0.03329116
4	0xbb2b27f1	-0.0026116336
5	0xbb6e6aad	-0.0036379502
6	0x3d1bd4b2	0.03804464
7	0xbb8ed9b6	-0.0043594493
8	0xbd2fc203	-0.042909633
9	0xbd17e80c	-0.03708653
10	0x3d2e107e	0.042496197
11	0xbb0bc87b	-0.0021329212
12	0x3c6a7032	0.014308976
13	0x3d6f1111	0.058365885
14	0xbd39558a	-0.045247592
15	0x3d150d5a	0.036389686
16	0xbca20d6d	-0.019781793
17	0x3c2fbbdf	0.010725944
18	0x3adcf085	0.0016856348
19	0x3c19c649	0.009385654
20	0x3d5ab5c8	0.053396016
21	0x3d0e8e36	0.03480359
22	0xbd24a4df	-0.040196296
23	0x3beeab07	0.0072835716
24	0x3c88e0f9	0.016708838
25	0xbbca376e	-0.0061711585
26	0xbc7d85f9	-0.015473836
27	0xaec55f29	-8.9754267e-11
28	0xbbb2b6fb	-0.005453942
29	0xa990f4d5	-6.437356e-14
30	0xbbff0853	-0.0077829747
31	0x3cd0ac32	0.025472734
32	0x3c1631a4	0.009167109
33	0xbbff4fcc	-0.007791495
34	0x24d7a0d9	9.3513873e-17
35	0x3c7595ca	0.014989326
36	0xb240f0b6	-1.1230602e-08
37	0xbd4f2587	-0.0505729
38	0xbd0d5b1a	-0.03451071
39	0xbd0f6c0c	-0.03501515
40	0xbcfceb28	-0.03087385
41	0xbbe96211	-0.007122286
42	0x3b4bad4c	0.0031078635
43	0xbd038a65	-0.032114405
44	0xbb9df0e6	-0.004819977
45	0xbbea86be	-0.007157176
46	0x3a5c6240	0.00084069744
47	0x3d3b3f9a	0.045714952
48	0xbb773662	-0.0037721624
49	0x3d19bcdf	0.037533637
50	0x3be0bb58	0.0068582706
51	0xba45a28a	-0.0007539174
52	0x3cae72a4	0.0212949
53	0xbd14b7a8	-0.03630796
54	0x9a025308	-2.6950442e-23
55	0xb8927cb8	-6.985053e-05
56	0x3cddb742	0.027064923
57	0x3d5d137c	0.05397366
58	0x1ef9ba1e	2.6440877e-20
59	0x3d08cc7d	0.03339814
60	0x3cca7ece	0.024718668
61	0xbd30b5bc	-0.043142065
62	0xb2e8df6f	-2.710996e-08
63	0x3a754de0	0.00093576126
64	0xbb4e3bb6	-0.0031468696
65	0xbcbc0ca3	-0.022955244
66	0x3d0aba76	0.03386923
67	0x3d24d8d5	0.04024585
68	0xbbfd603a	-0.0077324184
69	0x3c14c68a	0.0090805385
70	0x3cb07769	0.021541314
71	0xbaacfce6	-0.0013197928
72	0xa3005b30	-6.958204e-18
73	0xbcf2a1a8	-0.0296181
74	0xb835f5a6	-4.338254e-05
75	0x3c30b5ce	0.010785533
76	0x9958a742	-1.1200716e-23
77	0xb4296e9c	-1.5779591e-07
78	0x3d1a2186	0.037629627
79	0x3b5769a6	0.0032869368
80	0x3ca1823b	0.019715419
81	0x3bf7d182	0.007562817
82	0x3af93b98	0.0019014953
83	0xbbf373da	-0.007429582
84	0x3d39bc77	0.04534575
85	0xbc429d6f	-0.011878355
86	0x199ffadf	1.654154e-23
87	0xbcbc8b81	-0.02301574
88	0xb9507d22	-0.00019883041
89	0x3d1794f7	0.0370073
90	0x20ed2276	4.0172166e-19
91	0x196a76bc	1.2121495e-23
92	0xbcd55b9e	-0.026044663
93	0x3ca3ae6a	0.019980628
94	0x3d017898	0.031609148
95	0xba473774	-0.0007599511
96	0x3b604528	0.0034220908
97	0xbb31c5d6	-0.0027125976
98	0xbd002b11	-0.03129107
99	0xbb98cf4d	-0.004663384
100	0xad1af35b	-8.807922e-12
101	0x3d428274	0.04748769
102	0x3a9e2efb	0.0012068445
103	0x3d14683a	0.03623221
104	0x3cf8f403	0.030389791
105	0xbd079fdd	-0.033111442
106	0xba5a9cba	-0.0008339394
107	0xbb2ab3f9	-0.0026047213
108	0x1ccad013	1.3421025e-21
109	0xbc23c0e2	-0.009994717
110	0xbd0155f9	-0.03157613
111	0xa0c01748	-3.2541471e-19
112	0x3d55ce24	0.052198544
113	0xbaffd94a	-0.0019519713
114	0xbd2041a0	-0.039125085
115	0x383ffd69	4.5773955e-05
116	0x3a594a79	0.00082889904
117	0xbb6bbb84	-0.0035969922
118	0x3c97a601	0.018511774
119	0xbba45e0a	-0.005016093
120	0x3d7cde77	0.061735597
121	0xa936a67e	-4.0556527e-14
122	0x3d03fabe	0.03222155
123	0xbd33aa4d	-0.043863583
124	0x3d01e133	0.031708907
125	0xbcfa46a5	-0.030551264
126	0x3b3e46a3	0.0029033802
127	0xbc550ba3	-0.013003263

weight f4 [128, 128]
0	0xbc478730	-0.012178227
1	0x983fab54	-2.477267e-24
2	0xbc31f0d0	-0.010860637
3	0xbc428610	-0.011872783
4	0x9680611a	-2.0740795e-25
5	0x97471d84	-6.433762e-25
6	0xbc380d29	-0.011233606
7	0x18bd20e5	4.888857e-24
8	0x9690d42e	-2.339836e-25
9	0x16b24928	2.880362e-25
10	0x19f48008	2.528072e-23
11	0xbc42d8e0	-0.011892527
12	0x184ad2e2	2.6214357e-24
13	0xbc30b727	-0.010785854
14	0xbc1993c2	-0.009373607
15	0xbc4ad10c	-0.012378942
16	0xbc19cdec	-0.0093874745
17	0x169a5b3a	2.4937614e-25
18	0x9942eb31	-1.00770615e-23
19	0x973feb15	-6.2012144e-25
20	0xbc3d50e4	-0.01155493
21	0x1924fbc0	8.529442e-24
22	0xbc0a886e	-0.008455379
23	0x978f118a	-9.245586e-25
24	0xbbd1b9ef	-0.006400339
25	0xbc386516	-0.0112545695
26	0xbc3e0fe7	-0.011600471
27	0x170820ef	4.398554e-25
28	0x9828b50d	-2.1804898e-24
29	0x961ddad4	-1.2751409e-25
30	0xbbe7781b	-0.0070638782
31	0x162ed34f	1.4122285e-25
32	0xbc3831fc	-0.011242386
33	0x17ed05cf	1.5317232e-24
34	0x9a5d0e80	-4.5713442e-23
35	0x954d26a3	-4.14299e-26
36	0x154b61e4	4.1072746e-26
37	0x14333967	9.048511e-27
38	0xbc50299d	-0.012705234
39	0x1936a34b	9.442156e-24
40	0x189c889e	4.0463003e-24
41	0x18432726	2.5222924e-24
42	0xbc40b044	-0.011760775
43	0x15de0a57	8.96814e-26
44	0x9438438c	-9.302947e-27
45	0xbc17ea34	-0.009272147
46	0x96b06894	-2.8500332e-25
47	0xbc307940	-0.010771096
48	0xbbf35bcd	-0.007426715
49	0x1803df1f	1.7044e-24
50	0x96dcd6af	-3.5678401e-25
51	0x98fd1695	-6.542177e-24
52	0xbad11e93	-0.0015954546
53	0xbbb6a6ab	-0.0055740676
54	0x177684e2	7.965461e-25
55	0x97b26ed0	-1.1530953e-24
56	0x966e7f9f	-1.9265757e-25
57	0xbbca3fe9	-0.0061721695
58	0x9913f7d6	-7.649772e-24
59	0x1711d20a	4.7117133e-25
60	0xbc432af8	-0.0119121
61	0x19076c78	7.0012415e-24
62	0x17879796	8.762436e-25
63	0x975d2c47	-7.1464837e-25
64	0xb6d44904	-6.3265925e-06
65	0xbc3f1a59	-0.011663997
66	0x9bbb049b	-3.093953e-22
67	0xbc436e38	-0.011928134
68	0x95f7b7ff	-1.000528e-25
69	0x98a112f2	-4.1636654e-24
70	0xbc4f6f67	-0.012660838
71	0x1a143225	3.064619e-23
72	0x16464340	1.6015533e-25
73	0x15a19eb1	6.527775e-26
74	0x97ce1b30	-1.3319301e-24
75	0xbc2e1915	-0.010626097
76	0x9716f0de	-4.877163e-25
77	0x14a55b7b	1.6696825e-26
78	0xbbba680a	-0.005688672
79	0x1a45b591	4.0885313e-23
80	0x979d3f4c	-1.0161866e-24
81	0x97a5a6f1	-1.0705017e-24
82	0x17ed6734	1.5341818e-24
83	0x9b274a59	-1.3837939e-22
84	0xb919659b	-0.00014629068
85	0xbbe43487	-0.0069642696
86	0x997e36c8	-1.3142555e-23
87	0x9421b760	-8.164587e-27
88	0xbc4ee236	-0.012627175
89	0x1b35ee87	1.5049041e-22
90	0x1ac4f08a	8.145231e-23
91	0x98170879	-1.952057e-24
92	0xbbf3b381	-0.00743717
93	0x154642dc	4.0038524e-26
94	0x95d454f4	-8.576015e-26
95	0xbc4767e3	-0.012170765
96	0xbc19cc17	-0.009387038
97	0x98241a2b	-2.1209715e-24
98	0x142f1148	8.83865e-27
99	0x9787a7a2	-8.766487e-25
100	0x9b37ccaa	-1.5203536e-22
101	0xbc4d531a	-0.01253202
102	0x15825072	5.26335e-26
103	0x95ae6308	-7.0434284e-26
104	0x19193bdf	7.9220055e-24
105	0xbc26de3c	-0.010184821
106	0xbb364ed2	-0.0027817977
107	0x17e601ab	1.4863823e-24
108	0x1622178f	1.309369e-25
109	0x1b37d04a	1.5204707e-22
110	0x1767cf4f	7.4901786e-25
111	0x17651732	7.4023167e-25
112	0xbc39f342	-0.011349501
113	0x9482a582	-1.3191927e-26
114	0xbc1569c1	-0.009119452
115	0x9abe9d57	-7.8836354e-23
116	0x16ffa92c	4.1304234e-25
117	0xbc327bb3	-0.01089375
118	0xbc37193e	-0.011175452
119	0x949c08a0	-1.5755377e-26
120	0xbc4a1445	-0.012333934
121	0x97a7d47f	-1.0845764e-24
122	0x1726b8fc	5.3870976e-25
123	0xbbff147d	-0.007784425
124	0xbc6062d5	-0.013695438
125	0xbc5227f1	-0.012826906
126	0xbc124039	-0.008926445
127	0x9862268c	-2.9229277e-24
128	0xbb53d325	-0.0032321897
129	0x961e30f6	-1.2778588e-25
130	0x3b64cb90	0.0034911372
131	0x3b71592d	0.0036826835
132	0x99794d8d	-1.28886595e-23
133	0xbc3d8feb	-0.011569957
134	0x3a33c8b3	0.00068582146
135	0x165f429c	1.8034815e-25
136	0x17ee384a	1.5394599e-24
137	0x9728bcb6	-5.4521914e-25
138	0x9701c96d	-4.1936383e-25
139	0xbd360f57	-0.044448223
140	0x97920eb9	-9.438745e-25
141	0xbd2afb1c	-0.041743383
142	0x3c431df5	0.011908998
143	0x3ac9992b	0.0015380731
144	0xbc4e6466	-0.012597179
145	0x15a33ce8	6.593127e-26
146	0x15d30105	8.522383e-26
147	0x196f5db9	1.23749375e-23
148	0xbc96f564	-0.018427558
149	0x16fe3cf9	4.1074392e-25
150	0xbd528f1c	-0.05140601
151	0x150b70cb	2.8159804e-26
152	0xbc0eb141	-0.008709253
153	0x3d1ed823	0.038780343
154	0xbc149fff	-0.009071349
155	0x97b41c55	-1.1639379e-24
156	0x97101cd9	-4.656532e-25
157	0x18b88177	4.769361e-24
158	0x3da681a6	0.08130197
159	0x150872ad	2.7555445e-26
160	0xbaeb1d61	-0.0017937833
161	0x1743196b	6.303998e-25
162	0x172f4814	5.6636525e-25
163	0x97f6c97a	-1.5948237e-24
164	0x969181b1	-2.350786e-25
165	0x16e9fff2	3.7804704e-25
166	0x3be67d51	0.007033982
167	0x962f1c8f	-1.4145399e-25
168	0x971190bf	-4.703472e-25
169	0xbc04a69e	-0.008096365
170	0xbc5df2e9	-0.013546684
171	0x95862c2e	-5.419187e-26
172	0x3c4f0b3e	0.012636958
173	0x3a0d5318	0.0005391105
174	0x172092b3	5.188395e-25
175	0x3a9c201f	0.0011911428
176	0x3da99f11	0.08282293
177	0x96d756ad	-3.4789823e-25
178	0x17bc7f55	1.2181358e-24
179	0x995aa699	-1.130398e-23
180	0x3df674fd	0.120340325
181	0x3c053e59	0.008132541
182	0x17f242d0	1.5655749e-24
183	0x970fc214	-4.6450753e-25
184	0x16c9de5e	3.2613635e-25
185	0xbcd6c556	-0.026217144
186	0x1ad9af94	9.003276e-23
187	0x99c06993	-1.9894976e-23
188	0x3998d60a	0.0002915117
189	0x1ac5395d	8.1569966e-23
190	0x32bff133	2.2345011e-08
191	0x96aee4cc	-2.8255607e-25
192	0xbd753a31	-0.05986995
193	0x3c91da08	0.01780416
194	0x18855f9c	3.4476235e-24
195	0x3c9d744b	0.019220492
196	0xbaf8ef0e	-0.0018992142
197	0x9686120e	-2.1660262e-25
198	0xbb838a2d	-0.0040142746
199	0xbc846b31	-0.016164394
200	0x971af9af	-5.007523e-25
201	0x954844ce	-4.0443956e-26
202	0x969a4155	-2.4921272e-25
203	0xbc5af4b2	-0.013364004
204	0x9791c65b	-9.420477e-25
205	0x189b6e4c	4.0177932e-24
206	0xbd8d3979	-0.06895728
207	0x97de3945	-1.4360871e-24
208	0x9935f5a7	-9.40709e-24
209	0x968c6222	-2.268015e-25
210	0x17256c7d	5.3451307e-25
211	0xbc28cabb	-0.010302241
212	0xbd1bacbb	-0.038006525
213	0xbd4988b1	-0.049202625
214	0x980afb25	-1.7962878e-24
215	0x16693320	1.8837722e-25
216	0xbab88ce0	-0.001408007
217	0x974f322e	-6.6948643e-25
218	0x1aece5af	9.7978386e-23
219	0x97361073	-5.8828134e-25
220	0xba7c3c9e	-0.000962207
221	0x959d9284	-6.3642956e-26
222	0x95a58f15	-6.686871e-26
223	0x39459f02	0.00018846619
224	0xbb5c02cc	-0.0033571003
225	0x3b8cdb76	0.0042986227
226	0x15a276d0	6.561873e-26
227	0xbbeb9891	-0.007189818
228	0x98ea9487	-6.0637557e-24
229	0xbcd848ea	-0.026401956
230	0x9736d55b	-5.9076664e-25
231	0x9626a37c	-1.346096e-25
232	0x16d10e03	3.3774614e-25
233	0xbd05bb12	-0.032649107
234	0xbc8f8307	-0.017518533
235	0x15d6d992	8.677718e-26
236	0x1a86098e	5.543654e-23
237	0x96fde2a8	-4.1017395e-25
238	0x988210bd	-3.3621114e-24
239	0x16812634	2.0865184e-25
240	0x3af4f9f9	0.001869022
241	0x97e3ee95	-1.4729758e-24
242	0xbcb4aae4	-0.022054143
243	0x18f32f76	6.286195e-24
244	0x997c6660	-1.3048769e-23
245	0x3d5bec2a	0.05369202
246	0xbc55fb20	-0.013060361
247	0x3c1a061f	0.009400873
248	0x3c3f590c	0.011678945
249	0xaa9ee080	-2.8222216e-13
250	0x172df905	5.621362e-25
251	0xbcc22b68	-0.023702338
252	0x3d100b36	0.03516694
253	0x3cef6dfe	0.029227253
254	0xbd27e1d7	-0.040986862
255	0x969bd1b8	-2.5173952e-25

bias f4 [128]
0	0xbbb26cc9	-0.005445097
1	0x3d1e5fa2	0.03866542
2	0xbd85d177	-0.06534093
3	0x3cc1c2cd	0.023652459
4	0x9a8e49b0	-5.884887e-23
5	0x2f704f5c	2.1856067e-10
6	0x3ca00ae3	0.019536441
7	0x3db9c9fe	0.0907173
8	0x3cfcbe0f	0.030852346
9	0x3d8ce91e	0.06880401
10	0xbcde1b6a	-0.027112681
11	0xbd98c0ac	-0.07458624
12	0x3d61d983	0.055139076
13	0xbd7b7605	-0.06139185
14	0xbd88224f	-0.06647169
15	0x3d82f4c7	0.06394344
16	0xbd3a7dd6	-0.045530163
17	0xbc09f364	-0.008419845
18	0xba560c73	-0.0008165307
19	0x3c519c20	0.012793571
20	0xbd09744c	-0.033558175
21	0xbcf1119d	-0.029427344
22	0x3d8d7a54	0.06908098
23	0xbc3cbb3b	-0.011519249
24	0xbcc7fe23	-0.024413174
25	0x3dbe1945	0.092821635
26	0xbd2f8953	-0.042855572
27	0x3d8cb5ce	0.06870614
28	0x3dc12d66	0.09432487
29	0x3ccb3a33	0.024808025
30	0x3cfe81c7	0.031067742
31	0xbb2d2c14	-0.0026423978
32	0xbcefc203	-0.029267317
33	0x3d607697	0.054800596
34	0xbd923ead	-0.07140861
35	0x3bd2ec8b	0.0064368895
36	0x3d037299	0.03209171
37	0xbd55c971	-0.052194063
38	0x3a30d9da	0.00067463296
39	0xbd5c017b	-0.05371235
40	0xbd9ac2be	-0.075566754
41	0x3cc8a181	0.024491074
42	0xbcb71551	-0.022349032
43	0xbd16811b	-0.03674422
44	0xbcd42b07	-0.025899423
45	0xbd587855	-0.052849133
46	0x3d4f01fa	0.050538994
47	0xbafff308	-0.0019527385
48	0xba8d356e	-0.001077337
49	0x3cc483bf	0.023988603
50	0x3d6dcab5	0.058054645
51	0x3d73f350	0.059558213
52	0xba5f919a	-0.0008528471
53	0xbce54782	-0.0279882
54	0xbd5d241a	-0.053989507
55	0x3d84039a	0.064459994
56	0xbd875de5	-0.06609706
57	0x3cc00ceb	0.02344366
58	0x3d8feb96	0.07027356
59	0x3d0e1187	0.034684684
60	0xba5439f5	-0.00080957945
61	0xbdc1ad51	-0.094568856
62	0xbca77b01	-0.020444395
63	0xbbfe1723	-0.007754223
64	0xbb39fb08	-0.0028378386
65	0xba83d7b2	-0.0010058789
66	0x3c196f0a	0.009364853
67	0x3d72ccff	0.05927753
68	0x3d8f8abe	0.07008885
69	0x3d669a0b	0.05629925
70	0xb8cda266	-9.805411e-05
71	0xbcce36a1	-0.025172533
72	0x3d3b7373	0.045764398
73	0x3c874665	0.016513059
74	0xbb725864	-0.0036978954
75	0xbd80584c	-0.06266841
76	0xbd0e5b93	-0.0347553
77	0xbd3fa159	-0.046784732
78	0x3db248d6	0.087052986
79	0x3c30a46c	0.010781389
80	0x3cbf9c49	0.023389952
81	0x3d8fe853	0.07026734
82	0x3b48128f	0.003052864
83	0x3d96e6ff	0.07368278
84	0x3c81fce8	0.015867665
85	0xbb6f56b7	-0.0036520192
86	0x3d71f931	0.059075538
87	0x3cb578c8	0.02215232
88	0x3d99c442	0.07508136
89	0xbbe9f3c6	-0.0071396558
90	0xbd2efc5b	-0.042721134
91	0x3d6c926e	0.057756834
92	0xbd835942	-0.06413509
93	0xbbcdece5	-0.0062843435
94	0xbb8557d5	-0.0040693083
95	0xbbf15811	-0.0073652347
96	0xbc45152c	-0.012028974
97	0x3d9074b0	0.070535064
98	0x3dc5eec8	0.096646845
99	0x3c710b16	0.014712116
100	0xbd53400c	-0.05157475
101	0x3d9cc46c	0.07654652
102	0xbc241803	-0.01001549
103	0xbd13ddde	-0.03610026
104	0xbd69b6a3	-0.05705894
105	0xbd84b761	-0.06480289
106	0x3d741832	0.059593387
107	0xbc1ade5c	-0.009452429
108	0xbbb8da5c	-0.005641265
109	0x3b7d663c	0.0038665673
110	0x3d97cd92	0.07412256
111	0xbbc9a598	-0.0061537735
112	0xbda8b571	-0.08237732
113	0xbb8af7f8	-0.004240986
114	0xbb9310eb	-0.0044881008
115	0x3cb0df7d	0.021590943
116	0xb78f0b1d	-1.7052103e-05
117	0x3b855d0b	0.0040699295
118	0x3d0899dc	0.033349857
119	0xb34588ac	-4.599194e-08
120	0x3ce1bc9f	0.027555762
121	0x3add3893	0.0016877822
122	0xbdb3590d	-0.087572195
123	0x28a127e0	1.7891884e-14
124	0x3d3ed9d0	0.04659444
125	0x3c2ec272	0.010666477
126	0x3c8f37c2	0.017482642
127	0xbd6d04ec	-0.057866022

weight f4 [128, 128]
0	0x9686e3ac	-2.1792549e-25
1	0x183b8ded	2.4240838e-24
2	0xbbadfec9	-0.005309914
3	0x98a0860e	-4.149439e-24
4	0x97f69e1c	-1.593729e-24
5	0x1809cf0a	1.7811363e-24
6	0x1732d8ae	5.778839e-25
7	0xbb126d7c	-0.002234309
8	0x18c91906	5.198255e-24
9	0x3d3e398e	0.046441607
10	0xbbe29374	-0.0069145504
11	0xbcd7fff7	-0.02636717
12	0xbc08a3e4	-0.008339856
13	0x1b202ada	1.3248736e-22
14	0x9aac3b0e	-7.123294e-23
15	0xbc70d802	-0.014699938
16	0x9860181f	-2.89635e-24
17	0x1a34a260	3.7354293e-23
18	0x97c4a109	-1.2706854e-24
19	0xbd7625a3	-0.060094487
20	0xbd1affe1	-0.03784168
21	0x94b935b8	-1.8701415e-26
22	0x3c8c3d57	0.017119093
23	0x9bb49358	-2.987372e-22
24	0x3d23524a	0.0398734
25	0xbb94e28e	-0.004543609
26	0xbb594925	-0.003315517
27	0x1acd46d1	8.490042e-23
28	0xbd434a4f	-0.047678288
29	0x9700284c	-4.140989e-25
30	0x9606f369	-1.090124e-25
31	0x9538282c	-3.7190194e-26
32	0xbbced1c5	-0.0063116276
33	0x91640240	-1.7986722e-28
34	0xba1ac61b	-0.0005904154
35	0x1486bf58	1.3606014e-26
36	0x3c8a1f23	0.01686055
37	0xbd094158	-0.033509582
38	0x9a442acf	-4.056643e-23
39	0xbd3af24e	-0.045641236
40	0xbba113d0	-0.004915692
41	0x964055e0	-1.5536734e-25
42	0x179b7ea0	1.0048605e-24
43	0x9b2f76d0	-1.4514051e-22
44	0xbbc86272	-0.006115251
45	0x1adad74f	9.0510537e-23
46	0x158f1a70	5.779895e-26
47	0x96dca71c	-3.5648378e-25
48	0x1706815c	4.346101e-25
49	0x16fb743c	4.0624591e-25
50	0xbd403875	-0.04692884
51	0x3d0017c4	0.031272665
52	0x9bba665d	-3.083727e-22
53	0x962d7444	-1.4011516e-25
54	0xbbc44752	-0.0059899474
55	0xbcde27eb	-0.027118644
56	0x98980121	-3.929222e-24
57	0xbbde3f82	-0.006782473
58	0xbc941079	-0.018074261
59	0x979e4f64	-1.0230552e-24
60	0x17344acf	5.825556e-25
61	0x17e7f7d1	1.4990583e-24
62	0x3b47d690	0.003049288
63	0x194f68c0	1.0722803e-23
64	0x948e22f4	-1.4352122e-26
65	0x95a66566	-6.7206845e-26
66	0xbd0c575d	-0.034263004
67	0xbbac47e3	-0.005257593
68	0xbb7f35bb	-0.0038941938
69	0x98649105	-2.9541525e-24
70	0x9928bd35	-8.7236065e-24
71	0x181154ab	1.8783557e-24
72	0x18874604	3.496738e-24
73	0x17d680b3	1.3861914e-24
74	0x98e392dc	-5.8826415e-24
75	0xbbbae26d	-0.0057032616
76	0xbbfb91aa	-0.0076772766
77	0x3d145efc	0.036223397
78	0xbc080cd6	-0.008303842
79	0x1b3145f7	1.4663704e-22
80	0xbbc9270f	-0.0061386894
81	0x3d48685b	0.048927646
82	0x967ec155	-2.0578961e-25
83	0xb8467146	-4.7312373e-05
84	0x95457c2d	-3.988179e-26
85	0x96aa09d6	-2.7471189e-25
86	0x93426260	-2.4534745e-27
87	0x3c8816b0	0.01661238
88	0xbba41a3f	-0.0050080116
89	0x95253584	-3.33637e-26
90	0xbc3b7fba	-0.011444027
91	0xbc2bd532	-0.010487841
92	0x15e9dec5	9.445942e-26
93	0x1a5c2224	4.5522512e-23
94	0x178ec473	9.226126e-25
95	0x18110c5a	1.8747047e-24
96	0x3d47dec6	0.048796438
97	0xbbd92deb	-0.0066277883
98	0xbbb35d4b	-0.005473768
99	0x1a83ce83	5.451397e-23
100	0x16422801	1.5683818e-25
101	0x97697171	-7.5429544e-25
102	0x99627358	-1.170722e-23
103	0xbc6f7c96	-0.014617106
104	0x14d475ea	2.1453038e-26
105	0x9687d2f1	-2.194355e-25
106	0x9b355481	-1.4999274e-22
107	0x9b2f7d72	-1.4516194e-22
108	0x999a88b7	-1.5978445e-23
109	0xbd792b62	-0.06083239
110	0xbc00cfc7	-0.007862038
111	0x1680c6bb	2.0804932e-25
112	0x9610bf6d	-1.1692631e-25
113	0x95420366	-3.918067e-26
114	0x183802d7	2.3782876e-24
115	0x16883637	2.20062e-25
116	0x15bc65e0	7.6093326e-26
117	0x19fd4fc6	2.6191807e-23
118	0xbd3bab1a	-0.045817472
119	0x9ae0a1dc	-9.2905727e-23
120	0x1a0bd5f8	2.891737e-23
121	0x99a6e682	-1.7257099e-23
122	0x16b42b5f	2.910794e-25
123	0x163fb894	1.54871e-25
124	0xbbbca51a	-0.0057569863
125	0x16dd0024	3.5704564e-25
126	0x3d539b36	0.051661693
127	0x3d40a0bf	0.0470283
128	0x9717fbf2	-4.910873e-25
129	0x1b3229fd	1.4737382e-22
130	0x3c30290e	0.010751976
131	0x18078650	1.7516152e-24
132	0x16e0ed92	3.633908e-25
133	0x967f73ae	-2.0635238e-25
134	0x1545cebf	3.9946927e-26
135	0xbb7c6f66	-0.0038518547
136	0x16ab672a	2.7691646e-25
137	0xbb009672	-0.0019620922
138	0xbce3ceab	-0.027808508
139	0xb9304cba	-0.00016813251
140	0xbc787f05	-0.015167003
141	0x18ad89c9	4.485858e-24
142	0x16a5d424	2.6791067e-25
143	0xbc13fd6d	-0.009032589
144	0x16b4b997	2.9197692e-25
145	0x179c5dbf	1.0104929e-24
146	0x18a69a7f	4.3065995e-24
147	0xbb400067	-0.0029297115
148	0x3c7e1539	0.01550799
149	0x9718f9ba	-4.942905e-25
150	0xb841b3af	-4.618213e-05
151	0x972f8f98	-5.672679e-25
152	0xbb50f622	-0.0031884988
153	0x3ac4c113	0.0015011154
154	0xbc266d62	-0.010157915
155	0x9a0a9e7c	-2.8665754e-23
156	0x3bfb33d8	0.0076660924
157	0x159fa59f	6.448089e-26
158	0x1bb3abd8	2.9724117e-22
159	0x161f77e8	1.2881753e-25
160	0xb9848fd3	-0.0002528416
161	0x17ae5385	1.126557e-24
162	0x3b055ec0	0.0020350665
163	0x9758043b	-6.9798704e-25
164	0x3bed16cc	0.0072353836
165	0xbce66a46	-0.028126847
166	0x9608537f	-1.1012339e-25
167	0x99d83872	-2.2356675e-23
168	0x15dc0a22	8.887328e-26
169	0x97c3f793	-1.2664076e-24
170	0x969d97c9	-2.5460508e-25
171	0x18db5527	5.6696155e-24
172	0x395f8435	0.00021316188
173	0x16b552a5	2.9294283e-25
174	0x16b6cd56	2.953327e-25
175	0x1a00486c	2.652828e-23
176	0x97376370	-5.9255997e-25
177	0x17dc0d5a	1.4220537e-24
178	0xbaaaac61	-0.0013021344
179	0xbb8ec826	-0.0043573556
180	0x9544dd66	-3.9756537e-26
181	0x9b2b2c8d	-1.4159184e-22
182	0xbaf4eea0	-0.0018686838
183	0xbb8ca5d7	-0.0042922306
184	0x96f0e1b7	-3.8916537e-25
185	0xbc843c8b	-0.01614215
186	0x976a4727	-7.5699285e-25
187	0x973b2460	-6.046887e-25
188	0x963eab52	-1.5402137e-25
189	0x16b6e493	2.9547936e-25
190	0xbca79cd8	-0.020460531
191	0x175c65d6	7.121437e-25
192	0x98d812ba	-5.58536e-24
193	0xbae7fa8e	-0.0017698572
194	0xbb33d932	-0.002744269
195	0xbaf329b8	-0.0018551862
196	0x3c99cecf	0.018775372
197	0x9aa7ecb6	-6.945201e-23
198	0x9985f75f	-1.385179e-23
199	0x1a1500b8	3.0813058e-23
200	0x991cbc86	-8.103083e-24
201	0x961d5f7e	-1.2712491e-25
202	0x19159f33	7.7352695e-24
203	0xbbab0ee5	-0.0052202814
204	0x3b573752	0.003283937
205	0xb763d260	-1.3579236e-05
206	0xbbb4bd5c	-0.0055157375
207	0x187fa182	3.3039518e-24
208	0xbbb424e4	-0.005497562
209	0xbb82a351	-0.003986754
210	0x16bc9c64	3.0471734e-25
211	0x18a76116	4.326652e-24
212	0x961d586f	-1.2710264e-25
213	0x1b2ac3f8	1.4125391e-22
214	0x97c83251	-1.2937399e-24
215	0xbb7751da	-0.0037737996
216	0xbc097a19	-0.008390927
217	0x9812f96f	-1.899599e-24
218	0xbca48062	-0.020080749
219	0xbb413d9d	-0.0029486187
220	0x98d514be	-5.5080154e-24
221	0x17eec67b	1.5430493e-24
222	0x97b120c2	-1.1446626e-24
223	0x16a0aac6	2.5957167e-25
224	0xbb8f0147	-0.004364166
225	0xbba93ea9	-0.0051649404
226	0xbc8de044	-0.017318852
227	0x96a53725	-2.669199e-25
228	0x1838d558	2.3889154e-24
229	0x1ae57320	9.4898175e-23
230	0x96b9f20c	-3.0041115e-25
231	0xbc9b9df7	-0.018996222
232	0x9ac42e79	-8.113878e-23
233	0x164d6668	1.6592082e-25
234	0x98c21505	-5.016905e-24
235	0x9653fa8f	-1.7123507e-25
236	0x99040a31	-6.826298e-24
237	0xbae75379	-0.0017648778
238	0xb8c33c88	-9.3095994e-05
239	0x15ddecb0	8.9634616e-26
240	0x1a0ce31f	2.9134788e-23
241	0x18ddbebf	5.7319765e-24
242	0x96945caa	-2.396917e-25
243	0x9706314b	-4.335995e-25
244	0x1b93f5ff	2.447808e-22
245	0x1703a174	4.2532165e-25
246	0xb70ff8e2	-8.581412e-06
247	0x972e1fb8	-5.6262467e-25
248	0x966f38d8	-1.9324203e-25
249	0x16c7f724	3.2306152e-25
250	0x15357816	3.664739e-26
251	0x1a1000d4	2.977917e-23
252	0x3c85610d	0.016281629
253	0x9806149f	-1.7329505e-24
254	0xbc091010	-0.008365646
255	0xbcf9df65	-0.03050203

bias f4 [128]
0	0xbcbcce42	-0.02304757
1	0x3c1d0155	0.009582837
2	0xbb9aef04	-0.0047282
3	0x32fd5cbb	2.9495245e-08
4	0xbcadd54a	-0.021219868
5	0xb9a26044	-0.0003097077
6	0x3cbe0565	0.023195932
7	0xbb1fdf81	-0.0024394693
8	0x3d29a7ce	0.041419797
9	0x3da0d42a	0.07852967
10	0xbd6b2b9c	-0.057414636
11	0x3cc65451	0.024210127
12	0xbd85c64d	-0.065319635
13	0xbc09d47d	-0.008412478
14	0x3dbdf3ef	0.09275042
15	0x3d8af10e	0.06784259
16	0x3d2d4ae9	0.042307768
17	0xbd739e03	-0.059476864
18	0xb80e4750	-3.3921853e-05
19	0x3d8c4593	0.06849208
20	0xbda25c0e	-0.07927714
21	0x3d6f2dfc	0.058393463
22	0x3d649752	0.055808373
23	0xbc032403	-0.008004191
24	0x3c18bf0e	0.009322895
25	0x3d9652b6	0.073399946
26	0xbc1391bb	-0.009006913
27	0x3a655abf	0.0008749179
28	0x3d361635	0.044454772
29	0xbcc34042	-0.023834351
30	0x3d1f96f3	0.038962316
31	0xbda410a7	-0.08010989
32	0xbd09671c	-0.0335456
33	0xbb2bab20	-0.0026194528
34	0xbd3a40ca	-0.045471944
35	0xbb10d446	-0.002209918
36	0x3c8dc1d2	0.017304335
37	0xbdae70be	-0.085175976
38	0xbd97e46d	-0.07416616
39	0xbbd2884e	-0.00642494
40	0x3d16ed5e	0.036847465
41	0xb531c154	-6.621897e-07
42	0x3d61e915	0.055153925
43	0x3b6cf72d	0.003615807
44	0x3db69325	0.08914784
45	0xbba20353	-0.004944244
46	0x3d3b5226	0.04573264
47	0x3da9a45f	0.082833044
48	0xbc365bce	-0.011130286
49	0xbb2be179	-0.0026226921
50	0x3dae3123	0.08505466
51	0xbd9f7d90	-0.07787621
52	0x3d18776f	0.037223276
53	0xbb16fa2c	-0.0023037298
54	0xbd41c19e	-0.04730379
55	0xb16ce07f	-3.4470131e-09
56	0xbd27e807	-0.040992763
57	0xbd57e5b0	-0.05270928
58	0xbc65ef8d	-0.014034164
59	0x3d569074	0.052383855
60	0xbd56c7e2	-0.052436717
61	0xbd2c32b2	-0.042040534
62	0xbc015344	-0.007893387
63	0xbc1ea3ee	-0.009682639
64	0xbc0b2c9d	-0.008494523
65	0xbc881eeb	-0.016616305
66	0x3d8a9d61	0.06768299
67	0xbab5d22c	-0.001387184
68	0xbd8fd8a5	-0.070237435
69	0x3c8c3015	0.017112771
70	0xbd76259e	-0.06009447
71	0x3ce40bf5	0.027837733
72	0x3c989c44	0.0186292
73	0x3d0c3196	0.034226976
74	0x3da43ee3	0.08019807
75	0x9c1f1876	-5.26403e-22
76	0x3ccc4a39	0.024937736
77	0x3c5c804a	0.013458321
78	0xbc18c594	-0.00932445
79	0x3d4862de	0.048922412
80	0xbcf39a4a	-0.029736657
81	0x3d2d1da7	0.042264607
82	0xbd60756d	-0.054799486
83	0x3d6d8ed7	0.05799755
84	0xbd6672d6	-0.05626186
85	0x3a44da4f	0.0007509337
86	0xbd01001c	-0.031494245
87	0xbd836973	-0.06416597
88	0xbb6a8fb7	-0.0035791227
89	0xbc5bfe74	-0.013427366
90	0xb4cc8271	-3.809287e-07
91	0xbda8be0c	-0.082393736
92	0xbcd8d462	-0.02646846
93	0xb9d81014	-0.0004121071
94	0x3c9f40a1	0.019439997
95	0x240cf2bd	3.0563268e-17
96	0xbcc05ade	-0.023480829
97	0xbc10031a	-0.008789802
98	0xbd0b628c	-0.03402953
99	0xbd9c2da9	-0.076258965
100	0x3cf27903	0.029598719
101	0x380bc0bf	3.331969e-05
102	0x3b07da2f	0.0020729413
103	0x3dcd12e6	0.1001337
104	0xbc141cca	-0.009040067
105	0xbd1db43f	-0.038501974
106	0xbc1a5f2f	-0.009422108
107	0xbd621afe	-0.055201523
108	0x3b48ff71	0.0030669833
109	0xbdaadd43	-0.083429836
110	0xbba863bc	-0.0051388424
111	0xbd8d3c8e	-0.068963155
112	0x3d18b09e	0.03727781
113	0x3dc0320f	0.09384548
114	0xbaaee0a7	-0.0013342098
115	0xbd9bf9d0	-0.07616007
116	0x3d169ae4	0.03676881
117	0x3d39bb2e	0.045344524
118	0xbba42fc6	-0.005010578
119	0xbda7e7ea	-0.08198531
120	0x3dc247fe	0.09486388
121	0x3d89a9f2	0.067218676
122	0x3d5f276e	0.054480962
123	0xbd270633	-0.040777396
124	0x3d235fb8	0.039886206
125	0xbb8ddf71	-0.004329615
126	0x3d80eea6	0.062955186
127	0xba624751	-0.0008631843

weight f4 [128, 128]
0	0x94f018e4	-2.4243625e-26
1	0x96d67613	-3.464808e-25
2	0x17904abc	9.3246475e-25
3	0x969b9496	-2.5135371e-25
4	0x929c5880	-9.866801e-28
5	0x167058fa	1.9415122e-25
6	0x19368df4	9.437847e-24
7	0x99be48a4	-1.9674879e-23
8	0xbbf11f36	-0.007358457
9	0xbbeacb08	-0.0071653165
10	0xbbf92a7d	-0.007603942
11	0x99a68c5a	-1.7220685e-23
12	0x18fc5c9d	6.523399e-24
13	0x99175e71	-7.825589e-24
14	0xbbcd2552	-0.0062605524
15	0x1618d856	1.2346726e-25
16	0xbbfae041	-0.0076561277
17	0x1a1e4250	3.27272e-23
18	0x15fa274e	1.0103621e-25
19	0xbbf4b90c	-0.0074683484
20	0xbbe62f89	-0.0070247096
21	0xbbedba26	-0.0072548566
22	0xbbcb19e4	-0.0061981548
23	0x17911bea	9.377452e-25
24	0xbbbe9c5f	-0.0058169807
25	0xb9f2e09c	-0.00046325184
26	0x9b3c78e5	-1.5590059e-22
27	0xbbf8d2fe	-0.0075935116
28	0xbbda8efe	-0.006669878
29	0xbbe755ef	-0.0070598046
30	0x18098aba	1.7776874e-24
31	0x965ef08b	-1.8008919e-25
32	0xbbf7964b	-0.007555758
33	0x1648887b	1.6198937e-25
34	0xbbe2586b	-0.006907513
35	0x971dc7f6	-5.098182e-25
36	0x172da5b9	5.6108486e-25
37	0x17023b0e	4.2079803e-25
38	0xbbec7be9	-0.0072169197
39	0x16e52732	3.702168e-25
40	0x95b51cc2	-7.315069e-26
41	0x1865470c	2.9633426e-24
42	0x1781445e	8.353688e-25
43	0x17297590	5.475523e-25
44	0xbbfeb461	-0.0077729677
45	0xbbfe0121	-0.0077515994
46	0x21d067bc	1.4122087e-18
47	0xbbec4acc	-0.007211065
48	0xbbe41345	-0.006960305
49	0x9a6349b2	-4.700203e-23
50	0xbbefc952	-0.0073177004
51	0x9af2a505	-1.0035546e-22
52	0xbbffa12c	-0.0078011956
53	0x17b5a25c	1.1737836e-24
54	0xbbf0cb0d	-0.0073484243
55	0x97a2aff7	-1.0513424e-24
56	0xbbfbda77	-0.007685955
57	0xbbc7e5fe	-0.0061004153
58	0x14041f18	6.670429e-27
59	0xbc030cc0	-0.007998645
60	0x982738c3	-2.1612901e-24
61	0x1a82c766	5.4088885e-23
62	0x1a7ab3f5	5.1844156e-23
63	0x1f2a865d	3.6110043e-20
64	0x17d6db1e	1.3884739e-24
65	0xbbf380b9	-0.0074311164
66	0x190a06c2	7.1357975e-24
67	0x975729ce	-6.952301e-25
68	0xbbe0e954	-0.0068637524
69	0x176d5627	7.668757e-25
70	0xbbf9eb77	-0.0076269465
71	0xbbfba542	-0.0076796124
72	0x9a07035c	-2.792006e-23
73	0x9ace2a1e	-8.526765e-23
74	0xbc01f380	-0.00793159
75	0x16f4be5f	3.9540467e-25
76	0x9704ad5a	-4.28703e-25
77	0xbbeef6f4	-0.0072926227
78	0x961713e6	-1.2203962e-25
79	0x978803db	-8.789767e-25
80	0xbbf1f1bd	-0.007383554
81	0xbbf59abb	-0.007495252
82	0xbbd235f4	-0.006415123
83	0x17671cce	7.467648e-25
84	0x172906e9	5.4615567e-25
85	0xbbaa5021	-0.0051975404
86	0x970e04e0	-4.588883e-25
87	0x95ce233a	-8.3258315e-26
88	0x193cee6a	9.7675195e-24
89	0xbbed4c82	-0.0072417865
90	0x160aba30	1.1206302e-25
91	0x1bb94f0c	3.0656766e-22
92	0x97936dd7	-9.52738e-25
93	0x9aaa9ebe	-7.0566814e-23
94	0xbbed999d	-0.007250978
95	0x97901639	-9.311392e-25
96	0x9905238b	-6.883117e-24
97	0x95fc7435	-1.0196533e-25
98	0x96d98127	-3.5139747e-25
99	0xbbe6c7ee	-0.0070428764
100	0xbbdcea89	-0.006741826
101	0x1541150c	3.8992643e-26
102	0x170b779f	4.5064305e-25
103	0xbc01586e	-0.007894618
104	0x12a209c0	1.0226041e-27
105	0x1970bd06	1.2445882e-23
106	0x95d99c1e	-8.789191e-26
107	0x9812de03	-1.8982145e-24
108	0x95e6414f	-9.29993e-26
109	0x9705b30f	-4.320062e-25
110	0x174ce858	6.6209214e-25
111	0x1723a18e	5.287205e-25
112	0xbb4c412f	-0.0031166782
113	0xbbe891bd	-0.0070974515
114	0x17221f18	5.238427e-25
115	0x141c4b64	7.8908555e-27
116	0x96fdb140	-4.0986215e-25
117	0x99c43be7	-2.029012e-23
118	0x96f2b62c	-3.9212175e-25
119	0x17f2f1c7	1.5699917e-24
120	0xbc02394f	-0.007948234
121	0xbbf8875c	-0.0075844955
122	0xbbd4eeea	-0.0064982073
123	0xbbf65295	-0.0075171688
124	0x17067f8e	4.345873e-25
125	0x184cb58b	2.6458038e-24
126	0x9aaafa1c	-7.0714426e-23
127	0x991c4c02	-8.080361e-24
128	0x16acc89b	2.7914699e-25
129	0x19ee9292	2.4667823e-23
130	0x1904ae4c	6.859439e-24
131	0x96ad4c1e	-2.7997694e-25
132	0x994f041f	-1.07024814e-23
133	0x9686a0e5	-2.1750406e-25
134	0x170760ce	4.3743037e-25
135	0x19f9abc4	2.5815372e-23
136	0xbbb87cac	-0.0056300964
137	0xbbaee8c1	-0.005337805
138	0xbbac9e55	-0.005267898
139	0x97197646	-4.958625e-25
140	0x9b1ba2dd	-1.2873923e-22
141	0x9730e91c	-5.7162893e-25
142	0xbbb1f939	-0.005431321
143	0x958927fb	-5.539694e-26
144	0xbba892df	-0.0051444615
145	0x9588d38a	-5.526371e-26
146	0x96f0963f	-3.886891e-25
147	0xbbab7377	-0.0052322703
148	0xbb88c859	-0.004174274
149	0xbbb5a06a	-0.0055428045
150	0xbb8b60b5	-0.0042534717
151	0x194df94d	1.06485975e-23
152	0xbbac833b	-0.0052646673
153	0x1f084b55	2.8861433e-20
154	0x15010b90	2.6060464e-26
155	0xbbb47aae	-0.0055077886
156	0xbbb0fae4	-0.0054010022
157	0xbba52309	-0.005039577
158	0x17dc6d25	1.4244719e-24
159	0x1833afd5	2.322398e-24
160	0xbbbd3f4a	-0.005775367
161	0x1699d5b8	2.4853359e-25
162	0xbba75bcc	-0.0051073786
163	0x9395a1b8	-3.7772355e-27
164	0x962157c3	-1.3033169e-25
165	0x9680da2c	-2.08172e-25
166	0xbbbce76a	-0.0057648914
167	0x967f1d5b	-2.0607999e-25
168	0x1aac52f3	7.1271544e-23
169	0x9840d275	-2.4921672e-24
170	0x99fd4225	-2.6186302e-23
171	0x1727c2e4	5.4206597e-25
172	0xbbbdc3fd	-0.005791186
173	0xbbc09c5e	-0.0058780154
174	0x18167c93	1.944994e-24
175	0xbbba7243	-0.0056898906
176	0xbbaf176c	-0.0053433683
177	0x1a0c11e6	2.896578e-23
178	0xbbbb26f9	-0.005711433
179	0x99b41c9f	-1.8623124e-23
180	0xbbc16b53	-0.0059026866
181	0x9a6fbb0c	-4.9575137e-23
182	0xbbba0cdd	-0.005677803
183	0x97186d27	-4.925162e-25
184	0xbbbd9cdf	-0.0057865228
185	0xbb92e516	-0.0044828756
186	0x35311385	6.5966043e-07
187	0xbbbf50a9	-0.005838473
188	0x195e59ce	1.1495267e-23
189	0x97706cbc	-7.7685425e-25
190	0x17c3f654	1.2663762e-24
191	0x9b1b1913	-1.2829401e-22
192	0x271f9ecf	2.2151773e-15
193	0xbbb9aa00	-0.0056660175
194	0x976201fa	-7.3027033e-25
195	0x9aee2ea0	-9.850982e-23
196	0xbbb100e8	-0.0054017194
197	0x16661f8b	1.8589205e-25
198	0xbbbb6b9e	-0.005719616
199	0xbbb8d406	-0.0056405095
200	0x9798c723	-9.873039e-25
201	0x17143054	4.788238e-25
202	0xbbb86b10	-0.005627997
203	0x181473a9	1.9186945e-24
204	0x963e2b34	-1.536171e-25
205	0xbbb8313f	-0.005621105
206	0x98ce04e6	-5.32547e-24
207	0x1702b454	4.223287e-25
208	0xbbb80e37	-0.005616929
209	0xbbbca50d	-0.0057569803
210	0xbba91693	-0.0051601618
211	0x1492072f	1.4745066e-26
212	0x153b7358	3.785534e-26
213	0xbba7b7fa	-0.0051183673
214	0x145b7078	1.1078855e-26
215	0x1ad883c8	8.954841e-23
216	0x9507c2fe	-2.7416855e-26
217	0xbbae3578	-0.0053164326
218	0x17d44990	1.3718749e-24
219	0x1ae569ad	9.488291e-23
220	0x16aa6bad	2.7532934e-25
221	0x982aa306	-2.205429e-24
222	0xbbb392e9	-0.0054801595
223	0x9977fdee	-1.28208814e-23
224	0x97999b28	-9.92656e-25
225	0x95ea22ee	-9.4566957e-26
226	0x16e59154	3.708866e-25
227	0xbbb8ac25	-0.0056357556
228	0xbbbc37b4	-0.005743945
229	0x18d14ff9	5.4105986e-24
230	0x187c940c	3.2644981e-24
231	0xbbbae807	-0.0057039293
232	0x989df61a	-4.0832048e-24
233	0x99628425	-1.17106125e-23
234	0x17d4c2b4	1.3749329e-24
235	0x9503ef6a	-2.6644104e-26
236	0x9710b6f0	-4.675981e-25
237	0x97f1b99f	-1.5621117e-24
238	0x16da4030	3.5260308e-25
239	0x9b370ea9	-1.5142142e-22
240	0xba261376	-0.00063352974
241	0xbbb4e25a	-0.0055201473
242	0x176b1fad	7.5972576e-25
243	0x97b0b82d	-1.1420226e-24
244	0x99a2cb67	-1.6832561e-23
245	0x9a9aab7a	-6.396994e-23
246	0x192cec4d	8.939912e-24
247	0x14c4b9ae	1.986418e-26
248	0xbbc04767	-0.005867887
249	0xbbbb1f22	-0.0057104984
250	0xbba67dd2	-0.005080917
251	0xbbb9cd58	-0.005670231
252	0x18fc3338	6.519219e-24
253	0x94c82407	-2.020905e-26
254	0x96575226	-1.7393483e-25
255	0x16a775e6	2.705471e-25

bias f4 [128]
0	0xbc021ade	-0.007940976
1	0xbba610b0	-0.0050679073
2	0xbcb45123	-0.022011345
3	0x3da5afb4	0.08090153
4	0x3d9f2382	0.077704445
5	0xbdcde64b	-0.100536905
6	0x3c88c0e9	0.01669355
7	0xb9b2b0fe	-0.00034082675
8	0x3d95463e	0.07288788
9	0xbc4b0be1	-0.012392969
10	0xbdac5fe8	-0.0841673
11	0xbc7cbb8f	-0.015425577
12	0xbcbad18a	-0.022804994
13	0xb9cc0d6c	-0.00038919912
14	0x3d8b18ec	0.06791863
15	0xbd045b4f	-0.03231364
16	0xbd2c13d5	-0.0420111
17	0x3ca3e24f	0.020005373
18	0xbcd94dd4	-0.02652637
19	0xbb9d21f1	-0.004795306
20	0xbb256971	-0.002523985
21	0xbcf78734	-0.030215837
22	0x3cf46f47	0.029838217
23	0xbd291b36	-0.041285716
24	0x3ce6ba98	0.028165147
25	0x3d285b0f	0.041102465
26	0xbb684ea8	-0.0035447273
27	0xb86e2685	-5.6779496e-05
28	0x3ca94003	0.020660406
29	0xbd8fc332	-0.070196524
30	0xbc071ae9	-0.008246162
31	0x3b55d990	0.0032630898
32	0x3d18ac6a	0.037273802
33	0xbb4b813c	-0.0031052371
34	0xbc2f5479	-0.010701292
35	0x3d9cee90	0.0766269
36	0x3d1ee92d	0.038796593
37	0xbcb063e8	-0.021532014
38	0x38a96c86	8.078762e-05
39	0xbbce445c	-0.00629477
40	0xbc21aca9	-0.009867826
41	0xbbe1daaf	-0.006892524
42	0x3d82820e	0.06372462
43	0x3dc4b66e	0.09605108
44	0x3d9f2456	0.077706024
45	0x3d09b764	0.03362216
46	0xbccc0a1b	-0.024907162
47	0x3c9b40b8	0.018951759
48	0xbdac874d	-0.08424244
49	0x3dc25a48	0.09489876
50	0x3d2471b9	0.040147517
51	0xbd2c4c59	-0.042065
52	0x3dce16b9	0.10062928
53	0x3da32e0d	0.07967768
54	0xbd1999ee	-0.037500314
55	0xbc2264f5	-0.009911765
56	0xba8285cd	-0.0009958089
57	0x3d9bf7e9	0.076156445
58	0x3d5dbf21	0.054137353
59	0x3d4a2c87	0.04935887
60	0x3cc76df2	0.024344418
61	0xbc668ac2	-0.014071168
62	0x3d56400b	0.05230717
63	0xbcfa04e9	-0.03051992
64	0xbd81f4cf	-0.06345522
65	0x3a885967	0.001040262
66	0x3d401722	0.04689706
67	0x3d38c23e	0.04510712
68	0xbae1b881	-0.0017221124
69	0x3d63792c	0.05553548
70	0xbca241c8	-0.019806758
71	0x3cc0010e	0.023438003
72	0x3d1917e7	0.03737631
73	0xb823ff6b	-3.9100105e-05
74	0x3d3af024	0.045639172
75	0xbdbbeec5	-0.09176401
76	0x3d6daf10	0.05802828
77	0xbc5cff31	-0.013488577
78	0x3d1e4de0	0.038648486
79	0xbb7c37d2	-0.003848542
80	0x3d758199	0.059938047
81	0xbd32fc7b	-0.043697815
82	0x3ccf8051	0.02532974
83	0xbbba0556	-0.0056769056
84	0x3d46823d	0.04846405
85	0xbbbf7820	-0.0058431774
86	0x3d9c1850	0.07621825
87	0xb987dfa6	-0.00025915838
88	0xbdbece26	-0.093166634
89	0xbb067a40	-0.0020519644
90	0xbd9d62a0	-0.07684827
91	0x3aab2133	0.0013056159
92	0xbb84c7c9	-0.0040521366
93	0xbcf0323f	-0.029320834
94	0xbb39aff5	-0.0028333638
95	0x3d8632db	0.06552669
96	0x3da6f81d	0.081527926
97	0xbd054941	-0.032540563
98	0xbc2bde6b	-0.01049004
99	0xbcd4ece0	-0.025991857
100	0x3ccf8ee2	0.025336687
101	0x1c4dff09	6.8158435e-22
102	0xbbe7e692	-0.0070770467
103	0x3cae1a52	0.021252785
104	0x3c4dfd8d	0.012572658
105	0x3b695fa6	0.003560999
106	0xbdb4b876	-0.08824246
107	0x3c225a9b	0.009909297
108	0xbc553316	-0.013012668
109	0x3c80c4c3	0.015718823
110	0xbc4d45a2	-0.012528809
111	0xbb99e91b	-0.004696978
112	0x3d9b11d7	0.07571762
113	0x3d16f8d8	0.03685841
114	0x3dc38f3a	0.09548803
115	0xbd98353c	-0.07432029
116	0x3d9c31a8	0.07626659
117	0xbbb66aa8	-0.0055669136
118	0x3c8752ce	0.016518977
119	0xbaf32f83	-0.0018553588
120	0xbcbf9ceb	-0.023390254
121	0x3dcc34b6	0.09970991
122	0xbd5e30ce	-0.054245763
123	0xbd1c0d99	-0.038098905
124	0x3d74f865	0.0598072
125	0xbc8c3e36	-0.017119508
126	0x3d03c3d5	0.03216918
127	0x3d85920f	0.06521999

weight f4 [1, 128]
0	0x3c0384a3	0.0080272285
1	0xbbcd5ac3	-0.006266923
2	0xbc6b76a9	-0.0143715525
3	0xbd205d25	-0.03915133
4	0x3dadfe2a	0.084957436
5	0xbd852908	-0.06501967
6	0x3d6748bb	0.056465846
7	0x3c4c2271	0.012459383
8	0x3d94119a	0.0722992
9	0x3cb41668	0.02198334
10	0xbaa9d482	-0.0012957009
11	0x3d01f8e1	0.03173149
12	0x3ce3551e	0.027750548
13	0x3ba3dd27	0.0050007286
14	0xbcc7da73	-0.024396157
15	0x3a4d3b5b	0.0007828974
16	0xbd85557b	-0.06510445
17	0xbd90d04c	-0.070709795
18	0x3c15856c	0.009126049
19	0x3c6c738f	0.014431848
20	0x30b2b19d	1.3001685e-09
21	0xbc1c823c	-0.009552535
22	0x3c1fd2d7	0.009754858
23	0x3d96d90c	0.07365617
24	0x3c6234d4	0.0138065405
25	0x3d386351	0.04501659
26	0xbb8013eb	-0.0039086244
27	0xbc543156	-0.012951216
28	0x3d800fec	0.06253037
29	0xbd1cc44f	-0.038273152
30	0x3c1fba10	0.009748951
31	0xbbbb8c14	-0.0057234857
32	0xbc77edd7	-0.015132389
33	0x3c285e23	0.01027635
34	0x3c829186	0.015938532
35	0xbd4aacd7	-0.04948124
36	0x3d74d994	0.05977781
37	0x3d92527f	0.07144641
38	0x3dba8adc	0.091085166
39	0xbcc33821	-0.023830475
40	0x3c30f618	0.010800861
41	0xbd679f95	-0.056548674
42	0xbd51364c	-0.051077172
43	0x3dac936e	0.084265575
44	0x3da18d90	0.07888329
45	0xbd3e121f	-0.046404
46	0x3d905566	0.070475385
47	0xbd7667ca	-0.060157575
48	0xbc9a694a	-0.018849034
49	0x3cc500eb	0.02404829
50	0x3d32cb9e	0.043651216
51	0x3c844035	0.016143898
52	0x3cece8ca	0.028919596
53	0x3d80cb19	0.06288738
54	0xbcbf880c	-0.023380302
55	0xbc8798be	-0.016552325
56	0xbc501b59	-0.012701833
57	0xbcf488ba	-0.029850353
58	0xbd7409d0	-0.05957967
59	0x3a2d1afe	0.00066034484
60	0xbd6d1d03	-0.057888996
61	0xbc2c1a01	-0.010504247
62	0x3d106e16	0.035261236
63	0xbd7a555c	-0.06111656
64	0xbd243d5c	-0.04009758
65	0xbc09131e	-0.008366374
66	0xbbebf7a5	-0.0072011524
67	0x3befc02e	0.007316611
68	0xbc558beb	-0.013033847
69	0x3c92dcaa	0.017927486
70	0xbbce5ac7	-0.0062974426
71	0xbda231a4	-0.079196244
72	0x3da11ef6	0.078672335
73	0x3c34bdf3	0.011031616
74	0x3d5fa399	0.05459938
75	0xbbf349bf	-0.0074245627
76	0x3cb03f70	0.021514624
77	0x2bb19288	1.2617277e-12
78	0xbd2c549f	-0.04207289
79	0x3b9b5240	0.0047400296
80	0xbc5a34a3	-0.013318214
81	0x3db70f00	0.08938408
82	0xbc1dfc0e	-0.009642614
83	0xbc3b6b77	-0.011439196
84	0x3cec188f	0.028820304
85	0xbd1edcd0	-0.038784802
86	0x3d92780d	0.07151804
87	0xbc476937	-0.012171081
88	0xbbfab7b4	-0.0076512937
89	0xbc52d1dd	-0.012867418
90	0xbd214d6a	-0.03938047
91	0x3d5bbcd9	0.053646896
92	0x3d6c432a	0.05768124
93	0xbc254d5f	-0.0100892475
94	0xbc633561	-0.013867707
95	0x3cee10ef	0.029060809
96	0x3d38bbf6	0.04510113
97	0xbbd32f48	-0.0064448453
98	0x3dac9fbf	0.08428907
99	0x3d10bb99	0.035335157
100	0x3d69a40f	0.057041224
101	0xba0d6c0c	-0.00053948234
102	0xbc0cbd60	-0.008590072
103	0xbc88a4df	-0.01668018
104	0x3d78e1a2	0.060762055
105	0x3b757b2d	0.0037457452
106	0xbd674c0a	-0.056469
107	0xbd1889d8	-0.037240833
108	0x3db3b582	0.08774854
109	0x3d5fb2bb	0.05461381
110	0xbd3326ac	-0.043738052
111	0x3c7ccd7f	0.015429853
112	0x3cf10374	0.029420592
113	0xbd1626e3	-0.03665818
114	0x3d2408f7	0.040047612
115	0xbce44552	-0.027865086
116	0xb9dae716	-0.00041752373
117	0x3c5e7e95	0.013579984
118	0x3d040fb0	0.032241523
119	0xbbed25b8	-0.0072371624
120	0xbcf0bb4c	-0.029386185
121	0x3c6d026a	0.014465908
122	0xbd632303	-0.05545331
123	0xbcdc92ce	-0.02692547
124	0xbd620510	-0.05518061
125	0x3d650f99	0.05592308
126	0x3c65347f	0.013989567
127	0x3c63d3a6	0.013905441
