data/saved_models/model_saved.pt (torch, 534755 bytes, 18 tensors)

weight f4 [128, 381]
0.016702812 -0.051070932 0.0004877175 -0.01553297 -0.0646576 -0.019419437 -0.029953456 0.019284243
-0.024011603 -0.04294032 0.0075064683 -0.03455783 -0.06272132 -0.07372812 -0.03791189 0.03272258
-0.06266804 -0.051778395 -0.06539036 -0.03138561 0.017238453 -0.04306999 0.009955953 -0.035657525
-0.03943737 -0.08299927 -0.06429823 -0.025985766 0.0067280093 0.035476204 0.008162927 0.032194607
-0.03501136 0.02653355 -0.037934087 -0.006178101 -0.013677711 -0.037371278 -0.07320959 -0.060811
-0.005422534 -0.039684672 -0.03471387 0.038724568 -0.04583659 0.026226588 -0.037071157 -0.06370931
0.018415496 -0.07103369 -0.036168706 -0.0010976625 -0.019735895 -0.05226854 -0.005366456 -0.053797405
-0.036683008 0.03733842 0.029269904 0.024990514 0.009268333 -0.031015832 -0.032636467 0.021069307
-0.040351324 -0.08016144 -0.02601542 -0.08838806 -0.09578244 -0.0703806 0.0154154 0.04440705
0.02085451 -0.024189819 -0.042444058 -0.04819753 -0.054277215 -0.058989078 -0.04382052 -0.0765104
-0.01588162 0.00854446 -0.014201541 -0.05494029 -0.01918614 0.024722533 -0.021999903 -0.051221017
-0.05816104 -0.062090844 -0.047995575 -0.042778276 -0.036105014 -0.030499231 -0.06458629 -0.027592778
-0.06743805 -0.110499956 -5.9643302e-05 -0.018844921 0.040159915 0.0468615 -0.017069321 0.013181258
0.02866787 -0.05224493 -0.08577778 0.017079517 -0.019807614 -0.002168275 -0.013250709 -0.08444413
0.005355229 0.010609729 -0.009764315 0.039704822 -0.029166423 0.0040134247 -0.018804634 0.014878722
-0.03752679 -0.006251682 -0.019074399 0.019602384 -0.030617114 -0.057244413 0.0029524905 0.02974871
0.02629888 0.028084924 -0.026268175 0.027113365 -0.041609585 -0.035857536 -0.030969774 0.04101827
-0.013468316 0.01712937 -0.04500132 -0.07042949 0.039313667 -0.040180076 0.009223594 0.011798949
-0.00088649517 0.03662089 0.010085481 0.026744854 0.0305173 0.010170291 0.0032169493 -0.043372385
-0.034864064 0.025062956 0.020029996 0.009511757 -0.045204084 -0.021090748 0.031900514 0.04046915
-0.022584151 0.055317685 0.005702666 -0.03630896 -0.014063216 -0.016777573 0.028205695 -0.04408994
0.023646504 0.096964456 -0.042472716 0.004242502 -0.02533444 0.002685578 -0.027197247 -0.06923366
0.019731214 0.0063868305 -0.004080284 0.052549634 -0.024169205 -0.024784142 -0.056081682 0.0049326327
-0.10895349 -0.058325123 -0.020963961 0.021150667 0.032196462 -0.033186648 -0.03222186 0.034314167
0.021972468 -0.02513251 0.006542885 0.008271397 0.025126576 -0.006981082 -0.004897734 -0.030317664
-0.01876443 -0.048145294 -0.022825457 -0.034170404 -0.019942457 0.023813335 -0.059663825 0.026101833
0.013875154 -0.0012249014 -0.029860321 0.029732753 -0.054730404 -0.025723308 -0.08494642 -0.045490447
-0.09103274 -0.03419869 -0.05760891 0.0128870355 -0.036154583 0.029130962 -0.00042734962 0.011320846
0.030671721 -0.0365984 -0.019853437 -0.063423336 -0.046672657 -0.033173725 -0.09708932 -0.12991866
-0.027752392 0.034629863 0.0067003635 -0.0313164 0.021278154 0.0256118 0.030626042 0.008308771
-0.029517557 -0.005610577 -0.043724623 -0.07512897 -0.04068708 -0.048444737 0.02305089 -0.024394548
-0.056487575 0.04046936 -0.011384871 0.032983888 -0.017073054 -0.04043933 -0.04427884 0.00012739717
00000000: 56d4 883c c12f 51bd 56b4 ff39 007e 7ebc
00000010: 346b 84bd 8315 9fbc f360 f5bc fdf9 9d3c
00000020: fbb3 c4bc 30e2 2fbd d2f8 f53b 838c 0dbd
00000030: 0974 80bd c5fe 96bd 7f49 1bbd 1d08 063d
00000040: 1a58 80bd 9515 54bd 62eb 85bd 338e 00bd
00000050: a837 8d3c 286a 30bd 4b1e 233c a00d 12bd
00000060: 1489 21bd 85fb a9bd caae 83bd 1ae0 d4bc
00000070: a276 dc3b 7f4f 113d ccbd 053c 7ede 033d
00000080: 1268 0fbd e35c d93c c660 1bbd ab71 cabb
00000090: 7a18 60bc a012 19bd e9ee 95bd f514 79bd
000000a0: 83af b1bb 658c 22bd 2230 0ebd a79d 1e3d
000000b0: 26bf 3bbd 24d9 d63c edd7 17bd 077a 82bd
000000c0: 18dc 963c 1c7a 91bd a325 14bd 71df 8fba
000000d0: 2cad a1bc 8917 56bd 19d9 afbb ab5a 5cbd
000000e0: ec40 16bd 2cf0 183d 70c7 ef3c e8b8 cc3c
000000f0: 35da 173c ea14 febc d1ad 05bd 8a99 ac3c
00000100: 6e47 25bd ae2b a4bd 4a1e d5bc cd04 b5bd
00000110: 9529 c4bd b423 90bd e090 7c3c 2be4 353d
00000120: 14d7 aa3c ba29 c6bc d2d9 2dbd c66a 45bd
00000130: c951 5ebd 889e 71bd 257d 33bd 7cb1 9cbd
00000140: 2c1a 82bc 10fe 0b3c 95ad 68bc 1209 61bd
00000150: 402c 9dbc e986 ca3c 2439 b4bc 21cd 51bd
00000160: 453a 6ebd f852 7ebd 0297 44bd 4638 2fbd
00000170: dae2 13bd 86d9 f9bc d145 84bd 400a e2bc
00000180: f61c 8abd cd4d e2bd 8229 7ab8 aa60 9abc
00000190: b97e 243d d8f1 3f3d f6d4 8bbc 34f6 573c
000001a0: e2d8 ea3c c8fe 55bd 43ac afbd 58ea 8b3c
000001b0: 9443 a2bc 9e19 0ebb 8019 59bc 0bf1 acbd
000001c0: eb7a af3b 6ed4 2d3c 81fa 1fbc 86a1 223d
000001d0: 6cee eebc 0c83 833b 2d0c 9abc e2c5 733c
000001e0: b1b5 19bd e9da ccbb ea41 9cbc 2e95 a03c
000001f0: bed0 fabc 1e79 6abd 927e 413b 91b3 f33c
00000200: c070 d73c 5b12 e63c 5b30 d7bc d91c de3c
00000210: d06e 2abd 5adf 12bd 53b4 fdbc c602 283d
00000220: 36aa 5cbc e452 8c3c 4e53 38bd 563d 90bd
00000230: 5e07 213d dd93 24bd 8f1e 173c 6150 413c
00000240: af63 68ba c9ff 153d 933d 253c 0618 db3c
00000250: 6bff f93c 4ba1 263c 74d3 523b 3ea7 31bd
00000260: 9fcd 0ebd d450 cd3c f215 a43c 33d7 1b3c
00000270: eb27 39bd 81c6 acbc 1daa 023d fbc2 253d
00000280: 6602 b9bc cc94 623d 6edd ba3b b4b8 14bd
00000290: 6769 66bc 1f71 89bc a10f e73c a797 34bd
000002a0: 50b6 c13c 4d95 c63d dff7 2dbd b004 8b3b
000002b0: 2c8a cfbc 8600 303b c3cc debc 61ca 8dbd
000002c0: 5ba3 a13c 9e48 d13b e7b3 85bb 493e 573d
000002d0: 7ffe c5bc 1d08 cbbc e8b5 65bd eca1 a13b
000002e0: 0223 dfbd 53e6 6ebd 9dbc abbc 2a44 ad3c
000002f0: 70e0 033d b9ee 07bd 12fb 03bd 038d 0c3d
00000300: 9bff b33c b2e2 cdbc b365 d63b c184 073c
00000310: 40d6 cd3c 8fc1 e4bb 2c7d a0bb c05c f8bc
00000320: ddb7 99bc 0034 45bd 74fc babc 44f6 0bbd
00000330: 5d5e a3bc 2f14 c33c 0e62 74bd 83d3 d53c
00000340: 9d54 633c df8c a0ba a29d f4bc 1a92 f33c
00000350: fd2c 60bd b0b9 d2bc 63f8 adbd 3154 3abd
00000360: 606f babd ed13 0cbd 52f7 6bbd 2524 533c
00000370: d416 14bd 0ea4 ee3c e50d e0b9 127b 393c
00000380: 4343 fb3c 34e8 15bd ada3 a2bc 18e4 81bd
00000390: d42b 3fbd 2ce1 07bd c4d6 c6bd 6609 05be
000003a0: fc58 e3bc 0bd8 0d3d b98e db3b a045 00bd
000003b0: 864f ae3c d6cf d13c 77e3 fa3c 8321 083c
000003c0: cece f1bc eed8 b7bb 9718 33bd 38dd 99bd
000003d0: 7fa7 26bd fd6d 46bd 38d5 bc3c 13d7 c7bc
000003e0: 845f 67bd 33c3 253d 9c87 3abc 1d1a 073d
000003f0: cadc 8bbc b6a3 25bd bb5d 35bd eb95 0539

bias f4 [128]
-0.03293017 -0.020634886 0.035634503 -0.011829321 0.0437114 -0.04480913 0.0055898274 -0.0458002
0.04215676 -0.03898086 0.006105775 -0.013416598 -0.06434955 -0.02285331 0.043150764 0.0002537632
0.067244485 -0.009465177 -0.038861606 0.037316717 0.014273662 -0.065144196 -0.03748484 -0.009462241
0.0028392754 0.009306868 -0.019087331 0.0063986527 0.026512148 0.028061312 -0.029723404 -0.01963986
0.00014207544 -0.022869963 0.033066887 -0.05780528 -0.010382266 0.012533558 -0.07638995 0.027289018
-0.0021139926 -0.00998483 -0.03694334 0.039049234 -0.025143657 0.061584324 0.05742567 0.015640756
-0.07907679 -0.0075671393 0.056773026 -0.068934225 0.037120484 -0.017564133 0.06947329 -0.07574351
0.028467257 -0.058443386 -0.050786335 0.0043775644 0.0017307168 0.008756242 -0.0050768075 0.0036506422
0.030269202 -0.011500607 -0.0188789 0.02666937 0.027983265 -0.0032219386 0.02229274 0.024098856
-0.043550223 -0.029879276 -0.0011958646 0.015528953 0.028269397 0.018790673 0.050556313 0.044989824
0.06183446 0.017861534 -0.00031788996 0.022863833 0.016700339 -0.056860734 -0.0013445646 0.029409008
0.013647607 0.061679184 -0.03327865 0.016321188 -0.06386097 -0.04915716 0.0114304125 0.016712353
0.0028314046 0.03714683 0.046678007 0.026012901 0.037444707 0.004284593 0.015399995 -0.042554855
-0.020469928 0.009375137 0.06771493 0.004438934 0.034326926 0.032390602 0.012172057 0.028045448
0.054385122 0.0133696 0.011948592 -0.030876243 -0.055053283 -0.031194128 0.036674596 -0.038898706
0.02998497 -0.0022944226 0.026949612 0.03646393 -0.03305047 0.00016634307 -0.0104076145 0.039280843
00000000: c9e1 06bd 7e0a a9bc 7cf5 113d c5cf 41bc
00000010: ba0a 333d c789 37bd df2a b73b fe98 3bbd
00000020: 91ac 2c3d 65aa 1fbd f412 c83b 4ad1 5bbc
00000030: b2c9 83bd dd36 bbbc dbbe 303d 850b 8539
00000040: 7ab7 893d d413 1bbc 592d 1fbd 6ad9 183d
00000050: 14dc 693c 526a 85bd b489 19bd 8407 1bbc
00000060: 2313 3a3b d57b 183c 095d 9cbc caab d13b
00000070: 0130 d93c d6e0 e53c 7f7e f3bc c6e3 a0bc
00000080: 16fa 1439 ca59 bbbc 2571 073d 3bc5 6cbd
00000090: 611a 2abc 8d59 4d3c 5672 9cbd 388d df3c
000000a0: e98a 0abb 6a97 23bc e651 17bd 17f2 1f3d
000000b0: 12fa cdbc d83f 7c3d 2e37 6b3d 0b21 803c
000000c0: 03f3 a1bd c4f5 f7bb d58a 683d 632d 8dbd
000000d0: a60b 183d a8e2 8fbc 0348 8e3d 6a1f 9bbd
000000e0: 2a34 e93c 5562 6fbd 5505 50bd ac71 8f3b
000000f0: 38d9 e23a 5776 0f3c 595b a6bb 9d3f 6f3b
00000100: 1ef7 f73c 0b6d 3cbc eca7 9abc b979 da3c
00000110: 293d e53c 2927 53bb 449f b63c f76a c53c
00000120: b861 32bd 62c5 f4bc 8fbe 9cba 266d 7e3c
00000130: 3995 e73c e6ee 993c 2314 4f3d 4047 383d
00000140: 2146 7d3d 5a52 923c 78aa a6b9 ef4c bb3c
00000150: 26cf 883c cde6 68bd 1a3c b0ba 29eb f03c
00000160: 369a 5f3c 50a3 7c3d 324f 08bd 03b4 853c
00000170: 8ac9 82bd 0559 49bd a046 3b3c 58e8 883c
00000180: 168f 393b 4627 183d 7031 3f3d 0219 d53c
00000190: 9f5f 193d c565 8c3b 4350 7c3c 004e 2ebd
000001a0: 8db0 a7bc 2d9a 193c 20ae 8a3d 7a74 913b
000001b0: 649a 0c3d 02ac 043d 4f6d 473c 91bf e53c
000001c0: efc2 5e3d 2b0c 5b3c 07c4 433c 2df0 fcbc
000001d0: 8d7f 61bd d48a ffbc 1a38 163d 4054 1fbd
000001e0: 0aa3 f53c 065e 16bb 6fc5 dc3c 345b 153d
000001f0: ee5f 07bd 616c 2e39 b384 2abc f3e4 203d

weight f4 [88, 128]
-0.009976177 -0.028160715 -0.089644276 -0.08640574 -0.012964509 -0.05266629 -0.070415534 0.07136699
0.0679145 0.03995417 0.0021899668 -0.07804962 -0.007060713 0.06289706 0.08450081 0.03915979
0.0060612764 0.031725794 0.052221313 -0.029724503 -0.026715018 0.060328748 -0.06280886 0.090154186
0.06032436 -0.030535381 0.0026730394 0.07398336 0.04433805 0.022558685 0.061436117 -0.018208658
-0.06123375 -0.0062279566 0.010496995 0.02849778 0.06679735 -0.07134316 -0.0038243395 -0.058205068
-0.06745926 0.041481372 -0.016223567 -0.07230974 -0.09251823 0.012474893 0.057983354 0.05085399
0.075131446 -0.043187216 -0.004379351 -0.016445914 0.046225663 -0.08303358 -0.077445306 -0.068010435
0.07223766 0.033445116 -0.01666052 0.041314792 -0.06855509 0.045266245 0.07152065 0.014453996
-0.05013367 -0.03284389 0.005775179 0.033067353 0.043314703 -0.08408572 0.03897769 -0.03557785
0.038737465 0.026502058 -0.027142428 0.06664114 0.076778226 -0.05990368 -0.006759943 -0.013154194
-0.01797532 0.046330594 -0.056650195 -0.048643384 -0.05707134 0.0429785 -0.07825818 -0.07653587
0.034454327 0.048656907 0.029196722 0.06883318 -0.02589056 -0.04217843 0.03873436 0.07506138
-0.042681582 -0.04221156 -0.024478454 0.025585212 -0.016451469 -0.011894827 -0.069470935 0.016644217
-0.010478679 0.077722594 -0.070643045 0.05989766 -0.013447808 0.033486217 -0.044653717 0.050077617
0.016391883 -0.078801565 -0.06730491 0.053875722 -0.056948256 0.027961174 -0.038921934 0.07234377
-0.058343347 -0.06564132 -0.0826024 -0.08435015 0.052279547 0.036815453 -0.08446081 0.05630561
0.018231254 0.048479114 -0.032791346 0.08721603 -0.093846336 -0.02098784 0.03950158 -0.06341984
0.03621008 0.06999241 0.065588586 0.05356291 0.06688183 -0.0007222981 -0.029317366 -0.060911044
-0.012702744 -0.07350634 0.043265592 0.048683554 0.035904117 -0.0053443555 -0.037061177 -0.038464736
-0.021504037 0.06865302 -0.07217954 -0.011181763 0.00846269 0.07646629 0.06117802 -0.070890225
0.048370756 -0.09021769 0.04092793 0.04028696 0.0037361623 0.0040907515 -0.031611957 0.047162604
0.019203052 -0.0014074688 0.09985651 -0.06913719 0.0704861 0.050897818 -0.076532036 -0.110298656
0.008511007 0.08416595 -0.0288906 0.08888825 0.0676104 -0.02092453 -0.07828539 -0.020553386
0.03597981 0.06898388 -0.0094650965 -0.047761504 -0.03592114 -0.087482795 -0.010371007 -0.0011491674
0.044396188 0.08710259 0.015922017 -0.045345586 -0.07035938 0.07318609 -0.049701028 0.01000584
-0.00013689187 0.035277396 0.010934458 0.058940187 0.034570694 -0.053207874 -0.025610192 -0.012158156
-0.06277949 -0.016316231 0.04163082 0.038643003 0.04378718 -0.02124761 -0.04639947 0.0019831138
0.038087033 -0.03635323 0.0017537639 0.024041392 -0.051111232 0.036468413 0.06879857 0.06448316
0.012873391 0.0006548807 -0.015061868 -0.078063816 0.036208037 -0.053693853 -0.02049681 0.042907357
0.09415957 -0.022642933 0.027898565 -0.019291481 -0.036715165 0.11178872 -0.07242036 -0.019066822
0.04719251 0.04667791 -0.02963121 -0.013189081 0.07707985 -0.055595644 -0.022700345 0.05284194
-0.09301249 0.0079709 0.09329795 -0.08091982 0.006720724 0.046090707 0.05695078 -0.032149512
00000000: 1e73 23bc 4db1 e6bc 6b97 b7bd 7ef5 b0bd
00000010: 1869 54bc 9cb8 57bd 0536 90bd db28 923d
00000020: c216 8b3d fca6 233d 8c85 0f3b 7bd8 9fbd
00000030: 8e5d e7bb 2cd0 803d c30e ad3d 0466 203d
00000040: ac9d c63b e8f2 013d 04e6 553d cd80 f3bc
00000050: 74d9 dabc 471b 773d eea1 80bd c2a2 b83d
00000060: ad16 773d 5625 fabc 292e 2f3b 9684 973d
00000070: d19b 353d fecc b83c 70a4 7b3d 532a 95bc
00000080: 3ed0 7abd e313 ccbb 97fb 2b3c 2d74 e93c
00000090: 0dcd 883d 5d1c 92bd c5a1 7abb 7068 6ebd
000000a0: 1528 8abd 5fe8 293d 49e7 84bc 2117 94bd
000000b0: 337a bdbd 7e63 4c3c f47f 6d3d 464c 503d
000000c0: 84de 993d 14e5 30bd a980 8fbb 95b9 86bc
000000d0: 1f57 3d3d 820d aabd a59b 9ebd 0e49 8bbd
000000e0: 57f1 933d bffd 083d a57b 88bc b339 293d
000000f0: 9c66 8cbd 1969 393d 6b79 923d 74d0 6c3c
00000100: f758 4dbd 5187 06bd b63d bd3b a271 073d
00000110: c26a 313d 2235 acbd 12a7 1f3d 14ba 11bd
00000120: 2dab 1e3d d81a d93c cc59 debc 267b 883d
00000130: e73d 9d3d 905d 75bd 8382 ddbb b084 57bc
00000140: fa40 93bc 26c5 3d3d 090a 68bd 493e 47bd
00000150: a3c3 69bd 390a 303d d345 a0bd d7be 9cbd
00000160: fb1f 0d3d 774c 473d f72d ef3c 69f8 8c3d
00000170: 7118 d4bc 4ac3 2cbd eca7 1e3d c8b9 993d
00000180: e2d2 2ebd 07e6 2cbd 0a87 c8bc 1498 d13c
00000190: 3bc5 86bc 85e2 42bc c746 8ebd 7459 883c
000001a0: c4ae 2bbc 062d 9f3d 4dad 90bd 4057 753d
000001b0: 3254 5cbc d828 093d d1e6 36bd 301e 4d3d
000001c0: 4548 863c b762 a1bd 28d7 89bd caac 5c3d
000001d0: 9342 69bd d50e e53c 9b6c 1fbd f828 943d
000001e0: 6ff9 6ebd f56e 86bd 722b a9bd c5bf acbd
000001f0: 1423 563d cdcb 163d caf9 acbd b6a0 663d
00000200: b659 953c 0992 463d 3850 06bd 519e b23d
00000210: 8232 c0bd b1ee abbc 69cc 213d 43e2 81bd
00000220: 0551 143d 2e58 8f3d 4f53 863d c864 5b3d
00000230: 57f9 883d 9b58 3dba f92a f0bc dc7d 79bd
00000240: 2c1f 50bc 7e8a 96bd 4337 313d 6868 473d
00000250: 3210 133d b41f afbb 76cd 17bd 338d 1dbd
00000260: 3c29 b0bc f499 8c3d ded2 93bd b733 37bc
00000270: 18a7 0a3c 5c9a 9c3d ce95 7a3d e52e 91bd
00000280: 6a20 463d 0dc4 b8bd 0ca4 273d f003 253d
00000290: 67da 743b b60b 863b 8a7b 01bd 932d 413d
000002a0: b84f 9d3c d17a b8ba 9281 cc3d cd97 8dbd
000002b0: 045b 903d 3b7a 503d d4bc 9cbd 43e4 e1bd
000002c0: c071 0b3c 335f ac3d fbab ecbc 0b0b b63d
000002d0: 5277 8a3d ec69 abbc 1754 a0bd 935f a8bc
000002e0: 915f 133d 6c47 8d3d 7e13 1bbc 91a1 43bd
000002f0: 0c22 13bd 2e2a b3bd 28eb 29bc a99f 96ba
00000300: c7d8 353d d862 b23d e46e 823c 4bbc 39bd
00000310: 9418 90bd 97e2 953d 4e93 4bbd 89ef 233c
00000320: a28a 0fb9 087f 103d 7126 333c 446b 713d
00000330: 009a 0d3d 80f0 59bd 77cc d1bc 0133 47bc
00000340: 8992 80bd 9ea9 85bc 1485 2a3d 2048 1e3d
00000350: 305a 333d 780f aebc 5f0d 3ebd 21f7 013b
00000360: 2601 1c3d 20e7 14bd 8dde e53a 74f2 c43c
00000370: 035a 51bd e75f 153d 44e6 8c3d bf0f 843d
00000380: eaea 523c 4dac 2b3a 0ec6 76bc ecdf 9fbd
00000390: e14e 143d 16ee 5bbd ede8 a7bc a0bf 2f3d
000003a0: bcd6 c03d ac7d b9bc 888b e43c 2b09 9ebc
000003b0: a462 16bd 7cf1 e43d 2051 94bd 0632 9cbc
000003c0: ef4c 413d 5631 3f3d 27bd f2bc 0417 58bc
000003d0: 0adc 9d3d 42b8 63bd 13f6 b9bc ca70 583d
000003e0: 557d bebd 6198 023c ff12 bf3d 4ab9 a5bd
000003f0: 8539 dc3b 9cc9 3c3d 3945 693d 35af 03bd

bias f4 [88]
-0.07148164 -0.048371352 0.035935648 -0.022146357 0.002676738 0.09295206 0.019164756 -0.049413443
-0.01057436 -0.04681749 0.071305044 0.036230367 -0.01004054 0.01819974 -0.10412495 -0.04007861
-0.06322163 -0.06954201 -0.03768573 -0.058724817 0.055292185 0.043909293 -0.009597408 -0.0026854181
0.016068887 0.07108889 -0.08600829 0.024596646 -0.04150338 -0.07161284 0.04735188 0.0059630387
-0.029657912 0.07427137 0.0362835 -0.07577404 -0.04006547 0.036695544 0.065204784 0.02280153
-0.018387081 -0.029115027 -0.114523225 0.05071726 -0.0879905 0.02813755 0.057077736 -0.07786813
-0.030428583 0.055295274 -0.007848549 -0.093720146 0.001582029 -0.07108103 0.048839424 -0.05186237
-0.007569508 -0.09926537 -0.02536245 -0.13256457 -0.06625879 0.08840087 0.036329135 -0.03504825
0.033551026 0.07719587 0.088686295 -0.07344506 -0.011061025 -0.013279154 0.048627317 0.04795087
-0.010908164 -0.011060674 0.016483719 0.08558615 -0.046619408 -0.011623627 -0.036629613 -0.025766054
0.01289851 -0.04420478 -0.07596547 -0.0591899 -0.05282798 -0.011550558 0.044427626 -0.052279834
00000000: f764 92bd 0a21 46bd 4231 133d 476c b5bc
00000010: 366c 2f3b a65d be3d 68ff 9c3c c065 4abd
00000020: 1540 2dbc b2c3 3fbd 6108 923d 4b66 143d
00000030: 1481 24bc 9f17 953c 763f d5bd 7829 24bd
00000040: 587a 81bd 0b6c 8ebd 5a5c 1abd 6f89 70bd
00000050: 0f7a 623d 3bda 333d 723e 1dbc d7fd 2fbb
00000060: e6a2 833c 0d97 913d 1d25 b0bd e87e c93c
00000070: 73ff 29bd c1a9 92bd 0cf4 413d 9865 c33b
00000080: 26f5 f2bc 971b 983d 029e 143d 6b2f 9bbd
00000090: b11b 24bd 114e 163d 168a 853d 46ca ba3c
000000a0: 81a0 96bc a382 eebc 278b eabd e7bc 4f3d
000000b0: 5d34 b4bd b880 e63c 58ca 693d 5379 9fbd
000000c0: 5d45 f9bc 4c7d 623d 3397 00bc 59f0 bfbd
000000d0: 165c cf3a ee92 91bd d90b 483d a36d 54bd
000000e0: a309 f8bb a44b cbbd eac4 cfbc 02bf 07be
000000f0: b0b2 87bd 840b b53d dccd 143d c18e 0fbd
00000100: cd6c 093d de18 9e3d 29a1 b53d 5d6a 96bd
00000110: 4d39 35bc cf90 59bc 702d 473d 2268 443d
00000120: 28b8 32bc d437 35bc dd08 873c cb47 af3d
00000130: fef3 3ebd 0671 3ebc ef08 16bd 5513 d3bc
00000140: 4654 533c 1210 35bd c993 9bbd 1c71 72bd
00000150: 2762 58bd 8d3e 3dbc bef9 353d 6123 56bd

weight f4 [49, 88]
0.03216631 0.12159724 -0.051497504 -0.08166656 0.040803626 0.05916978 -0.004402877 0.07587346
-0.072238564 -0.03188051 0.093513064 0.028382706 -0.036776975 0.07682392 -0.09926829 -0.07236932
0.05179669 -0.03461006 0.0022237618 -0.0925914 -0.021610675 0.10284802 -0.0238972 -0.008481174
-0.07146806 -0.075767934 -0.041542374 -0.023589147 0.01351447 -0.024935104 0.068202354 0.09440143
-0.035594292 0.03792619 0.019704666 0.063460246 -0.09147517 -0.086593464 -0.029445767 -0.08521709
-0.071487814 0.057364836 -0.06617696 0.08985161 0.07537019 -0.096878536 0.07806658 0.050103795
0.10987683 -0.053601272 0.110738434 0.058187384 -0.0765156 0.03424318 0.044934556 -0.06656169
0.021335825 -0.02424117 0.010873653 -0.012005452 0.020667223 -0.04349596 -0.045885634 0.06851335
0.0017269524 0.064864755 -0.03525133 0.04468431 0.03678277 0.06663915 -0.07863603 0.013569333
-0.06437598 0.078119464 0.03075962 -0.09442836 -0.08463302 -0.096709274 -0.07892839 0.056113567
0.05984033 0.0093953395 0.0669252 0.052066006 -0.017705819 -0.06375393 -0.07791862 -0.030018725
0.09504674 0.053429496 0.0064811506 0.05216723 0.036576606 -0.057858907 -0.019624094 0.04561211
-0.10103523 -0.06481088 0.022710472 -0.031665817 0.07114511 -0.089223765 0.025514279 -0.08052062
-0.037078753 -0.0059733093 -0.0658251 0.010929512 0.098346695 0.0038811262 0.06515655 -0.11332798
0.106629156 0.09209664 -0.051537722 -0.0968557 -0.031900086 0.06354801 -0.03433832 0.066127464
0.049127493 -0.044845756 0.038378283 0.12566082 -0.06305391 0.05849979 0.076347746 -0.013600377
-0.02020213 -0.07060488 0.006803296 -0.04193173 0.07380661 0.09400597 -0.00209898 -0.0065887505
-0.1044869 -0.015270827 -0.027893022 0.016524488 -0.06765206 -0.044498388 -0.075957164 -0.037236378
0.09343611 -0.015645735 -0.095491074 -0.016938867 -0.021262527 -0.10156465 0.038496256 -0.09176885
0.043474995 -0.04122152 -0.044666845 -0.08400534 0.0873872 0.06819547 -0.07844631 0.10428285
-0.0357838 -0.06025846 -0.0061204117 0.085296564 -0.06718233 -0.057971843 0.04114581 -0.0071093226
-0.102570936 -0.035563774 0.042259865 0.06182273 -0.10459579 0.031271994 -0.05771174 0.05217331
-0.0065174676 0.08410143 0.013751471 -0.07405171 0.03847776 0.0347134 0.09703228 0.011603323
-0.06787725 -0.018070342 0.008880605 -0.090410866 0.1077554 -0.11736797 0.03390221 0.031757936
0.019936496 -0.0012815522 0.092872955 0.049911145 0.050149504 0.01038277 0.02801852 -0.049987715
-0.015698535 0.004078185 0.013414734 0.06757666 0.10553671 0.11891475 0.06014416 0.052307237
0.011841772 -0.026427321 -0.061263658 -0.059278212 0.01833073 0.035999283 0.0695287 0.070530884
0.06833648 0.074280664 -0.07513258 0.07196087 0.0005021032 -0.036087345 -0.09439339 -0.0692078
-0.1010909 -0.016398741 -0.026264979 -0.0033363248 -0.06119483 0.09502011 -0.021168604 -0.04310172
-0.004283675 -0.039027672 0.04360645 0.014476409 -0.024786822 0.14776371 0.08120344 0.023542153
0.074431054 0.029951844 0.014852127 0.04747107 -0.0018440619 0.0004468441 -0.031833854 0.058244113
-0.069735035 0.07155365 -0.0446538 0.07632258 0.04186783 0.036009114 -0.0019896082 0.08687988
00000000: d2c0 033d f907 f93d 0cef 52bd cc40 a7bd
00000010: b421 273d 035c 723d 0246 90bb 8b63 9b3d
00000020: d0f1 93bd 2395 02bd c783 bf3d d982 e83c
00000030: 74a3 16bd dc55 9d3d 2c4d cbbd 5e36 94bd
00000040: c428 543d 47c3 0dbd 88bc 113b 8fa0 bdbd
00000050: df08 b1bc fca1 d23d 10c4 c3bc 9ff4 0abc
00000060: d95d 92bd 382c 9bbd 5628 2abd 073e c1bc
00000070: cc6b 5d3c b444 ccbc adad 8b3d 8955 c13d
00000080: 52cb 11bd 7e58 1b3d ae6b a13c 72f7 813d
00000090: 5557 bbbd ea57 b1bd 4038 f1bc 4c86 aebd
000000a0: 3468 92bd 64f7 6a3d c987 87bd 1f04 b83d
000000b0: b05b 9a3d 4168 c6bd 5fe1 9f3d a339 4d3d
000000c0: 1a07 e13d 028d 5bbd d5ca e23d e555 6e3d
000000d0: 36b4 9cbd 9442 0c3d 4c0d 383d 7f51 88bd
000000e0: 78c8 ae3c 6b95 c6bc 6827 323c 84b2 44bc
000000f0: 4f4e a93c d228 32bd 93f2 3bbd ba50 8c3d
00000100: e85a e23a d0d7 843d b363 10bd e506 373d
00000110: 88a9 163d 1b7a 883d ed0b a1bd e851 5e3c
00000120: 8ed7 83bd 19fd 9f3d 99fb fb3c a863 c1bd
00000130: 1454 adbd 830f c6bd 35a5 a1bd 57d7 653d
00000140: 221b 753d e9ee 193c 1410 893d 2a43 553d
00000150: cb0b 91bc 6c91 82bd cc93 9fbd d4e9 f5bc
00000160: dda7 c23d e3d8 5a3d d55f d43b 4ead 553d
00000170: 5ad1 153d 76fd 6cbd b5c2 a0bc c4d3 3a3d
00000180: 8feb cebd 91bb 84bd 500b ba3c 04b4 01bd
00000190: 87b4 913d f3ba b6bd 5203 d13c ffe7 a4bd
000001a0: e4df 17bd c0bb c3bb 4fcf 86bd b211 333c
000001b0: fe69 c93d 7e5a 7e3b cc70 853d 8018 e8bd
000001c0: 6360 da3d 2a9d bc3d 3819 53bd 485c c6bd
000001d0: aaa9 02bd 7625 823d 57a6 0cbd d66d 873d
000001e0: e939 493d 2fb0 37bd 8c32 1d3d 3bad 003e
000001f0: 6922 81bd 7a9d 6f3d 355c 9c3d 1ed4 5ebc
00000200: f07e a5bc 4b99 90bd 2fee de3b 9bc0 2bbd
00000210: ec27 973d 3486 c03d 0a8f 09bb 72e6 d7bb
00000220: 3afd d5bd 7e32 7abc e87f e4bc 5d5e 873c
00000230: 2a8d 8abd f143 36bd 6e8f 9bbd 2c85 18bd
00000240: 6e5b bf3d 7c2b 80bc d390 c3bd 61c3 8abc
00000250: c02e aebc 2101 d0bd 40ae 1d3d 4ff1 bbbd
00000260: d612 323d e6d7 28bd 95f4 36bd fe0a acbd
00000270: 0ff8 b23d 11aa 8b3d 75a8 a0bd 3f92 d53d
00000280: 0992 12bd 93d1 76bd bc8d c8bb f7af ae3d
00000290: e496 89bd e273 6dbd 8288 283d 52f5 e8bb
000002a0: b610 d2bd 52ab 11bd ae18 2d3d d539 7d3d
000002b0: 5136 d6bd 1017 003d 2563 6cbd aeb3 553d
000002c0: 7b90 d5bb 5f3d ac3d da4d 613c 6ca8 97bd
000002d0: db9a 1d3d a32f 0e3d dcb8 c63d dd1b 3e3c
000002e0: 3a03 8bbd 4108 94bc f57f 113c 5529 b9bd
000002f0: ddae dc3d 9e5e f0bd 0bdd 0a3d 9c14 023d
00000300: dd51 a33c c2f9 a7ba 2d34 be3d a16f 4c3d
00000310: 9169 4d3d 7e1c 2a3c 1887 e53c ebbf 4cbd
00000320: 379a 80bc 4ca2 853b 79c9 5b3c a265 8a3d
00000330: a123 d83d 9489 f33d b959 763d 1d40 563d
00000340: fe03 423c 1c7e d8bc 9aef 7abd b6cd 72bd
00000350: 542a 963c fc73 133d 1065 8e3d 7f72 903d
00000360: fff3 8b3d 7620 983d 1cdf 99bd 3860 933d
00000370: 939f 033a 53d0 13bd 5251 c1bd d2bc 8dbd
00000380: bf08 cfbd a756 86bc a729 d7bc 3ea6 5abb
00000390: 6ea7 7abd e799 c23d c869 adbc 6e8b 30bd
000003a0: 125e 8cbb 7bdb 1fbd ad9c 323d 762e 6d3c
000003b0: bc0d cbbc 5f4f 173e fd4d a63d 79db c03c
000003c0: 4f6f 983d 925d f53c 5656 733c 0671 423d
000003d0: 73b4 f1ba 6646 ea39 3764 02bd 6191 6e3d
000003e0: 3ed1 8ebd b88a 923d e7e6 36bd 034f 9c3d
000003f0: 9a7d 2b3d 4b7e 133d 1664 02bb 14ee b13d

bias f4 [49]
-0.027150858 0.005574574 0.028740812 0.037633236 -0.13640969 0.10012546 0.10684119 -0.012088956
-0.028749444 0.09356359 0.031275384 -0.04782306 -0.06397358 -0.057843115 0.10556459 -0.11234222
-0.11684326 -0.12396077 0.13218147 0.05852635 -0.094715595 0.029502006 0.026642589 0.117059365
-0.027978322 0.024474744 0.037138812 -0.0136021 -0.077429846 0.00016382262 -0.06165658 -0.09404473
-0.05081964 -0.080960445 0.009685621 -0.08997473 0.031679917 -0.024629226 0.061601885 -0.007262792
0.04495394 0.10696311 0.060866125 0.05634671 0.023406522 0.06271803 -0.08950957 0.004619647
0.10436625
00000000: 7a6b debc ebaa b63b da71 eb3c 4f25 1a3d
00000010: fbae 0bbe 940e cd3d 8ecf da3d c210 46bc
00000020: f483 ebbc 449e bf3d 9e1a 003d 1de2 43bd
00000030: 9504 83bd e7ec 6cbd 3f32 d83d ae13 e6bd
00000040: 854b efbd 25df fdbd 945a 073e 53b9 6f3d
00000050: 40fa c1bd 31ae f13c 8f41 da3c d2bc ef3d
00000060: cb32 e5bc 427f c83c de1e 183d 58db 5ebc
00000070: 8a93 9ebd cdc7 2b39 9c8b 7cbd 869a c0bd
00000080: 4128 50bd 97ce a5bd 70b0 1e3c ac44 b8bd
00000090: cdc2 013d 3bc3 c9bc 4252 7c3d b7fc edbb
000000a0: 9f21 383d 7a0f db3d c24e 793d cfcb 663d
000000b0: 09bf bf3c 4f72 803d cb50 b7bd 6860 973b
000000c0: f9bd d53d

weight f4 [10, 49]
0.007372742 -0.008167006 -0.031999677 -0.09021903 0.0636914 -0.08073033 -0.05721598 0.10383142
-0.084376745 -0.017686527 0.009686934 0.13679063 0.13049352 -0.012624559 -0.11307287 -0.061895173
-0.09202676 -0.016009623 0.11100875 -0.019216454 0.10995753 -0.13833441 -0.029056633 0.104805924
0.009851519 -0.06604256 -0.022574661 0.0066499375 0.06495028 0.08461256 -0.0025667697 0.051674545
0.09273722 -0.033301 0.043834373 -0.023820192 0.01797143 0.042098865 0.07980271 -0.07433531
0.03544658 -0.039504938 -0.07504694 -0.03956894 -0.014177346 -0.08239507 -0.022830121 0.003527027
0.08467152 0.10179151 -0.0149231395 0.025431063 -0.0019768076 -0.047112722 -0.083460875 0.052190874
-0.1093583 0.11305701 -0.05729051 0.11177793 4.1915293e-05 -0.09371728 -0.1331441 -0.059020977
0.034207344 0.115591854 0.05937836 0.03049163 -0.019823924 0.0061811837 -0.08466715 -0.0059505836
-0.0083333375 -0.070203625 -0.0102642635 -0.077881426 -0.07840321 0.048792053 -0.083315454 0.064872585
-0.06522215 0.009242296 -0.04621075 -0.027493298 -0.1084145 -0.005150062 0.04862934 -0.13749067
-0.12485158 -0.081970155 0.033648368 -0.0040120855 -0.0021878243 0.014640683 -0.089181446 -0.027668634
-0.088708475 0.024854112 0.06992844 -0.11428045 0.071614586 -0.06294444 0.0075642834 -0.046905227
0.050096236 0.098798655 0.022855096 -0.12663735 0.14604071 0.0030996574 0.010328649 -0.0955658
-0.036355253 0.11701264 0.049099054 -0.07983475 -0.10935372 0.0009051409 0.13877857 -0.08630825
-0.062338986 0.05650584 -0.10724758 -0.088569984 -0.020291619 0.07450165 -0.023260828 0.044126555
0.051199354 -0.059756767 -0.029439017 -0.047141332 -0.016878877 0.049856953 0.042637184 -0.029616565
0.015568584 0.07724211 -0.06462873 -0.07530868 -0.06907815 -0.10302931 0.040530365 0.028535193
0.1136385 -0.117635235 0.021487692 -0.0884066 -0.049019188 -0.09064262 0.074557886 -0.07316096
0.03554483 -0.019983927 0.037488237 -0.052467328 0.033088505 -0.04878482 -0.032079943 -0.050917536
-0.0054483926 -0.12891237 -0.119996265 -0.08601191 -0.1045367 -0.024493443 0.06712911 0.03730359
-0.078719124 0.063951746 0.05275745 -0.03945226 0.047243487 0.103405595 -0.07676322 0.09698976
-0.063771166 0.043109853 0.0053521967 -0.116014525 0.09318788 0.07376346 0.05636455 -0.061685354
0.021293696 0.107969366 0.074925385 0.040983636 0.07630648 -0.043941002 0.026576925 0.104411766
-0.013998494 -0.04538788 0.08975468 -0.14522357 -0.0238607 0.09141871 -0.023875186 0.049542643
-0.03267473 0.052233454 0.07619992 -0.05577134 -0.08107088 -0.12935059 0.019317651 0.062311973
-0.046710216 -0.14073019 -0.11679289 0.00022540378 -0.061596315 0.10593314 -0.016828308 -0.07513638
-0.019460378 -0.01163684 0.10297961 0.033135466 0.037364215 0.03301044 0.10944016 0.10000659
0.11687869 -0.08912864 -0.038921278 0.1262792 -0.008411273 0.076486774 -0.0078040697 0.058487188
-0.09601156 -0.062211003 -0.041466415 -0.10843943 0.14041007 0.06827281 -0.04922873 0.063931294
0.05034903 -0.08452166 0.006841835 -0.039597735 -0.13090146 -0.007553386 0.050251685 -0.10620946
-0.06134982 -0.022679912 -0.03223331 -0.11525574 0.046017617 0.059286226 0.053914327 -0.0011997734
00000000: 0b97 f13b e8ce 05bc 1812 03bd c1c4 b8bd
00000010: a370 823d f155 a5bd 4e5b 6abd 91a5 d43d
00000020: b7cd acbd 56e3 90bc f2b5 1e3c d812 0c3e
00000030: 18a0 053e 3dd7 4ebc c092 e7bd cb85 7dbd
00000040: 8778 bcbd 9d26 83bc 8e58 e33d d36b 9dbc
00000050: 6a31 e13d 89a7 0dbe 2d08 eebc 7da4 d63d
00000060: 4468 213c 5241 87bd 7fee b8bc b8e7 d93b
00000070: a704 853d 5a49 ad3d 4037 28bb b0a8 533d
00000080: 03ed bd3d a166 08bd ac8b 333d 9022 c3bc
00000090: d238 933c dc6f 2c3d 9a6f a33d 1c3d 98bd
000000a0: 6f30 113d eecf 21bd 36b2 99bd 0a13 22bd
000000b0: 1948 68bc bfbe a8bd 3c06 bbbc b225 673b
000000c0: 4368 ad3d 1178 d03d 2f80 74bc ce54 d03c
000000d0: 548d 01bb 45f9 40bd 89ed aabd 19c6 553d
000000e0: 3ff7 dfbd 6f8a e73d 74a9 6abd d4eb e43d
000000f0: 34ce 2f38 d8ee bfbd ed56 08be fbbf 71bd
00000100: 001d 0c3d 6cbb ec3d b936 733d 95c9 f93c
00000110: c865 a2bc 878b ca3b f965 adbd 1dfd c2bb
00000120: 8d88 08bc ebc6 8fbd 712b 28bc 4c80 9fbd
00000130: dd91 a0bd 2dda 473d 4ba1 aabd ebdb 843d
00000140: 3193 85bd 006d 173c 7c47 3dbd a039 e1bc
00000150: 6c08 debd dac1 a8bb 8f2f 473d 5bca 0cbe
00000160: 2fb2 ffbd f8df a7bd dfd2 093d d077 83bb
00000170: 9a61 0fbb 7adf 6f3c c3a4 b6bd 55a9 e2bc
00000180: caac b5bd da9a cb3c a436 8f3d de0b eabd
00000190: abaa 923d 04e9 80bd cfdd f73b b21f 40bd
000001a0: b631 4d3d f356 ca3d 9c3a bb3c 39ad 01be
000001b0: b28b 153e 9f23 4b3b 7e39 293c 01b8 c3bd
000001c0: 3fe9 14bd 53a4 ef3d 171c 493d 6780 a3bd
000001d0: d8f4 dfbd fa46 6d3a f81b 0e3e 61c2 b0bd
000001e0: 2a57 7fbd ab72 673d 9fa4 dbbd 2e64 b5bd
000001f0: 9c3a a6bc 5294 983d 7e8d bebc 0cbe 343d
00000200: 6ab6 513d 83c3 74bd 182a f1bc 4517 41bd
00000210: 9245 8abc ce36 4c3d 54a4 2e3d 709e f2bc
00000220: 6013 7f3c 1d31 9e3d 115c 84bd 703b 9abd
00000230: d878 8dbd 0801 d3bd 2b03 263d a3c2 e93c
00000240: 4dbb e83d beea f0bd f506 b03c 850e b5bd
00000250: 58c8 48bd d7a2 b9bd ceb1 983d 6ad5 95bd
00000260: 7597 113d 55b5 a3bc 448d 193d fbe7 56bd
00000270: d087 073d 97d2 47bd 4266 03bd e88e 50bd
00000280: 6e88 b2bb 9b01 04be 9ac0 f5bd 0327 b0bd
00000290: 5617 d6bd 79a6 c8bc fd7a 893d a6cb 183d
000002a0: 7e37 a1bd 22f9 823d 3218 583d b198 21bd
000002b0: 6382 413d 50c6 d33d 0936 9dbd 91a2 c63d
000002c0: 759a 82bd f593 303d 7b61 af3b 0699 edbd
000002d0: 4ad9 be3d 4c11 973d 84de 663d c8a9 7cbd
000002e0: 1e70 ae3c 0b1f dd3d 7b72 993d 75de 273d
000002f0: 9246 9c3d 7bfb 33bd dab7 d93c d6d5 d53d
00000300: f059 65bc a4e8 39bd 4dd1 b73d 7db5 14be
00000310: 8477 c3bc bc39 bb3d e595 c3bc 3aed 4a3d
00000320: f0d5 05bd bff2 553d b40e 9c3d 7d70 64bd
00000330: 7d08 a6bd 7b74 04be 0d40 9e3c d73a 7f3d
00000340: 3653 3fbd 931b 10be 1c31 efbd 5e5a 6c39
00000350: 6b4c 7cbd 79f3 d83d 85db 89bc 1ae1 99bd
00000360: 5f6b 9fbc 72a8 3ebc f9e6 d23d 0eb9 073d
00000370: 380b 193d f535 073d 2a22 e03d 41d0 cc3d
00000380: 185e ef3d 1489 b6bd eb6b 1fbd 564f 013e
00000390: 70cf 09bc 19a5 9c3d 48b9 ffbb 4390 6f3d
000003a0: b5a1 c4bd f7d0 7ebd b0d8 29bd 7e15 debd
000003b0: a8c7 0f3e 9dd2 8b3d 11a4 49bd 69ee 823d
000003c0: c93a 4e3d b119 adbd 7931 e03b 3c31 22bd
000003d0: 080b 06be 6582 f7bb b6d4 4d3d 5884 d9bd
000003e0: f349 7bbd 39cb b9bc 1307 04bd 340b ecbd
000003f0: f87c 3c3d 1dd6 723d 45d5 5c3d b741 9dba

bias f4 [10]
0.085803166 0.033501297 0.06306796 0.052586768 0.061712813 0.09533964 -0.050532088 0.05879468
0.13713904 -0.1367101
00000000: 92b9 af3d a838 093d c629 813d 3965 573d
00000010: 93c6 7c3d 6e41 c33d bcfa 4ebd b1d2 703d
00000020: 2d6e 0c3e bcfd 0bbe

weight f4 [10, 49]
0.06556855 0.09882374 0.039656375 -0.10568826 0.09445757 0.081082985 0.016516747 0.014239797
-0.07388176 -0.10197988 0.0015113238 -0.015481293 -0.028280646 0.012596854 0.13633558 0.023443243
0.05613707 0.04148177 -0.07473999 -0.01572711 0.034752846 -0.042021442 -0.017577508 0.07210814
-0.09535859 0.025068197 0.043500274 0.016578164 -0.098894365 -0.04863177 0.06927969 -0.06434314
0.066919506 -0.024672933 -0.04807525 0.112794235 0.053000536 0.021405997 0.10070749 0.044061903
-0.048903268 -0.07938391 -0.11118194 0.0873406 -0.068184786 -0.028398762 0.027886676 -6.6673594e-05
0.08750438 -0.021696705 0.08978814 0.053286474 0.039807867 0.109115034 -0.065383896 -0.037433904
-0.071481846 0.06454456 0.07062288 -0.042820245 -0.12432844 0.05452647 -0.04149444 -0.0859198
0.031245712 -0.12462006 0.085172474 0.117828555 -0.042034212 0.0016578371 -0.10597136 0.08796551
0.031938724 -0.03295304 0.1364879 0.0024226543 0.074737534 0.030306632 -0.10546714 -0.033689093
-0.02175612 -0.008377111 -0.032701984 0.009958703 0.06671574 -0.09514447 -0.008878283 -0.023926836
0.094874896 0.053670436 -0.01601326 -0.07468007 0.13388065 0.08859482 -0.0366719 -0.08954078
0.04065566 -0.081424415 -0.07463214 0.002686467 -0.11676858 -0.14500365 0.080963686 -0.047929913
-0.07301296 -0.037451964 -0.012579118 0.07761444 -0.03763675 0.009006891 0.09247003 0.014883347
-0.019822916 0.061847355 -0.008828339 0.020718452 0.028945187 0.1036881 -0.00413881 -0.038384166
0.055652767 -0.088383935 -0.0549653 0.098737255 0.07452837 -0.06910749 -0.07329929 0.029043501
-0.08467506 -0.075390495 0.07452289 0.10315976 0.008876586 -0.009681713 0.08198459 0.02675197
0.08258549 0.06544235 -0.038668986 0.08803787 0.09819674 -0.04328015 0.13289157 0.13746786
-0.10187289 0.043712776 0.02141194 -0.08102808 0.036026485 0.07084864 -0.08469398 0.1458243
-0.1139752 -0.049862284 -0.051553633 0.11381742 -0.10342319 0.119298756 0.050445084 0.10777071
-0.0057108514 -0.1051176 -0.011040409 -0.030611234 -0.110618 0.117694676 0.034065075 0.063289605
-0.0014098048 -0.058057383 -0.002895 -0.07808494 0.09155144 0.08389596 -0.07655326 0.048055988
-0.08744343 -0.03101948 0.09045594 -0.081664436 -0.058926888 -0.071334474 -0.071721174 0.07383128
0.089455456 -0.056855116 -0.08893694 -0.05576996 0.08843185 -0.046524886 0.03241308 0.12339936
-0.051919404 0.091690674 -0.1208736 -0.10446792 -0.07246868 -0.0970356 0.0673779 0.12700693
0.063579544 -0.10682977 0.01248221 -0.045907952 -0.10548645 0.090703316 0.021088583 -0.068713084
0.104501985 0.09957333 0.04736176 -0.05643205 -0.056625564 0.03285633 0.028855324 -0.0007079623
-0.038611438 0.030864712 -0.04319569 -0.039993472 0.13273154 -0.02574975 -0.09038031 0.08687472
0.029021878 0.038223356 4.822119e-05 -0.055227965 0.08792002 -0.012198246 -0.09021624 0.10234029
-0.04481727 -0.04006264 -0.070923336 0.06275081 0.07319984 0.007557708 -0.042002182 0.10989399
-0.04566256 -0.0037677006 0.018535772 -0.04811202 -0.07134091 0.008930613 -0.024904948 -0.009982662
0.10638604 -0.003311443 0.008324467 -0.08421355 -0.049869385 -0.08807279 0.0989675 -0.08348273
00000000: ce48 863d 1a64 ca3d b96e 223d 1673 d8bd
00000010: f872 c13d d60e a63d 214e 873c 0a4e 693c
00000020: 524f 97bd d4da d0bd 9d17 c63a 40a5 7dbc
00000030: d0ac e7bc 0963 4e3c 8e9b 0b3e 0b0c c03c
00000040: fcef 653d cae8 293d 4811 99bd 24d6 80bc
00000050: 0059 0e3d ad1e 2cbd b5fe 8fbc 6fad 933d
00000060: 5d4b c3bd d25b cd3c 582d 323d eece 873c
00000070: 2189 cabd 1b32 47bd 83e2 8d3d 56c6 83bd
00000080: 180d 893d e41e cabc 8eea 44bd aa00 e73d
00000090: 1717 593d a15b af3c bb3f ce3d 417a 343d
000000a0: cb4e 48bd 0894 a2bd 5bb3 e3bd a1df b23d
000000b0: 77a4 8bbd 85a4 e8bc 9972 e43c 1dd3 8bb8
000000c0: 7f35 b33d 4abd b1bc d8e2 b73d eb42 5a3d
000000d0: 930d 233d b477 df3d fee7 85bd 4b54 19bd
000000e0: 1365 92bd f02f 843d baa2 903d 4864 2fbd
000000f0: e99f febd 2657 5f3d 13f6 29bd b8f6 afbd
00000100: 02f7 ff3c cd38 ffbd e86e ae3d 1950 f13d
00000110: 112c 2cbd c84b d93a 8307 d9bd 4327 b43d
00000120: 2ed2 023d c4f9 06bd 7cc3 0b3e 65c5 1e3b
00000130: fe0f 993d 9d45 f83c 28ff d7bd 93fd 09bd
00000140: e439 b2bc 2640 09bc 84f2 05bd d429 233c
00000150: 43a2 883d 1bdb c2bd 3876 11bc 3602 c4bc
00000160: c54d c23d 88d5 5b3d 3e2e 83bc ddf1 98bd
00000170: 0218 093e 3371 b53d 4635 16bd 2861 b7bd
00000180: 8d86 263d d8c1 a6bd bcd8 98bd 700f 303b
00000190: 5e24 efbd d67b 14be 4ad0 a53d 2852 44bd
000001a0: d287 95bd 3b67 19bd a518 4ebc 52f4 9e3d
000001b0: fe28 1abd a491 133c ed60 bd3d 48d9 733c
000001c0: ab63 a2bc a753 7d3d bda4 10bc beb9 a93c
000001d0: 751e ed3c 6d5a d43d db9e 87bb b738 1dbd
000001e0: 28f4 633d a302 b5bd 4b23 61bd c236 ca3d
000001f0: 54a2 983d 3a88 8dbd f01d 96bd a3ec ed3c
00000200: 1e6a adbd 5566 9abd 759f 983d 6d45 d33d
00000210: 1a6f 113c 0ca0 1ebc 89e7 a73d f326 db3c
00000220: 9522 a93d a406 863d 5f63 1ebd 334d b43d
00000230: 5f1b c93d 8746 31bd ba14 083e 60c4 0c3e
00000240: bca2 d0bd 2b0c 333d 1868 af3c 0df2 a5bd
00000250: 8290 133d 1719 913d 0a74 adbd f752 153e
00000260: d46b e9bd 653c 4cbd e729 53bd 1c19 e93d
00000270: 8acf d3bd e852 f43d 819f 4e3d e4b6 dc3d
00000280: 1822 bbbb e547 d7bd d5e2 34bc 69c4 fabc
00000290: b18b e2bd e809 f13d d287 0b3d fb9d 813d
000002a0: 33c9 b8ba 94cd 6dbd 0aba 3dbb ffea 9fbd
000002b0: 527f bb3d a5d1 ab3d f5c7 9cbd 5bd6 443d
000002c0: 8b15 b3bd 911c febc f740 b93d af3f a7bd
000002d0: 525d 71bd cf17 92bd 8de2 92bd db34 973d
000002e0: 6c34 b73d e9e0 68bd 9224 b6bd 0b6f 64bd
000002f0: c21b b53d e190 3ebd 94c3 043d ceb8 fc3d
00000300: 71a9 54bd 52c8 bb3d 948c f7bd 47f3 d5bd
00000310: 766a 94bd 9aba c6bd 6dfd 893d 1b0e 023e
00000320: fe35 823d 91c9 dabd 2f82 4c3c fa09 3cbd
00000330: 4809 d8bd a9c2 b93d f7c1 ac3c 72b9 8cbd
00000340: 2305 d63d 1aed cb3d 68fe 413d 4b25 67bd
00000350: 35f0 67bd 5c94 063d 0062 ec3c 8c96 39ba
00000360: 0727 1ebd fed7 fc3c f7ed 30bd 32d0 23bd
00000370: c7ea 073e 24f1 d2bc 5019 b9bd 60eb b13d
00000380: 4abf ed3c 1890 1c3d 1c41 4a38 b836 62bd
00000390: 690f b43d 27db 47bc 4bc3 b8bd c997 d13d
000003a0: 5092 37bd b918 24bd 4140 91bd 7f83 803d
000003b0: cce9 953d a6a6 f73b 7b0a 2cbd 1a10 e13d
000003c0: aa08 3bbd 87eb 76bb 55d8 973c 1c11 45bd
000003d0: 2f1b 92bd b551 123c 7605 ccbc 528e 23bc
000003e0: ede0 d93d cb04 59bb 5863 083c 2778 acbd
000003f0: d743 4cbd 825f b4bd 79af ca3d fef8 aabd

bias f4 [10]
-0.015071659 0.009469261 0.10021379 0.12944257 -0.030899068 0.008683457 0.05713098 -0.095944926
-0.08425285 -0.042475
00000000: 1fef 76bc f624 1b3c e33c cd3d 988c 043e
00000010: 0b20 fdbc 0f45 0e3c 2d02 6a3d c67e c4bd
00000020: c28c acbd 44fa 2dbd

weight f4 [50, 11]
0.15686508 0.05350674 -0.07615948 -0.04774708 -0.027562207 -0.031547368 -0.09229145 0.013153464
0.39828753 -0.17115417 0.12443927 0.18519953 0.12862512 0.1148289 0.1687499 0.097165905
-0.09979256 -0.20302866 0.12031028 -0.19974968 -0.1896923 0.116216935 -0.06683321 0.11547415
-0.10083916 -0.10022787 -0.07872548 -0.12227855 0.17806627 -0.111272015 -0.43971997 -0.07966644
0.027253665 0.20302697 0.2307372 -0.16171664 -0.055567075 0.05838646 -0.22977516 -0.22921786
-0.0043393318 -0.06161817 -0.06760404 0.1246456 0.10708706 -0.048766784 -0.07521027 -0.08674425
0.20581725 0.12071467 0.23167458 -0.18048565 0.132117 -0.16126694 0.1983664 0.04319334
0.044710513 0.07040652 -0.024973644 -0.13267897 -0.003601708 0.21755953 0.14396223 0.12092768
-0.21337615 0.06421933 0.07824274 -0.22045796 0.13273361 -0.01727438 0.17976637 -0.080448315
0.23423897 -0.1470223 0.19108483 -0.114198536 -0.14867355 0.15697682 -0.2203641 0.115642585
0.10040091 -0.07725639 -0.10042727 0.05450704 -0.18193804 0.17027485 -0.12628558 0.027517172
0.04213618 -0.118727684 0.12314777 0.20489068 -0.0905779 0.016097749 0.20924698 -0.18691908
-0.107875675 -0.10487967 -0.103036255 -0.012219369 0.094949424 -0.18626758 0.046537973 -0.12837261
-0.17933126 -0.19728205 -0.14726327 -0.26918787 0.017085213 0.05515075 0.09569432 -0.069262765
-0.21219619 -0.15925758 -0.032531966 0.13692251 0.03815053 -0.22701488 -0.28934768 0.232745
0.15530537 -0.044520065 0.124658145 0.022927137 0.05119321 -0.19647865 -0.09824458 0.22033745
-0.09428583 0.03256929 -0.06945468 0.04373362 0.10385858 -0.0483598 0.09471671 0.14248468
-0.21062459 0.2129311 -0.16905966 0.1394087 0.14311735 0.18115363 0.21481015 0.028793715
0.20723203 0.17368329 0.0024260695 0.2407608 0.18238196 0.14065851 -0.050622012 0.18920198
0.21492688 0.2927578 -0.21831419 -0.11715155 -0.19020356 -0.14719865 0.23086877 -0.15940475
0.15565947 0.20514463 0.093230054 -0.028387418 -0.0052968715 0.07740075 0.21735515 0.05839016
0.124555305 0.10078088 0.09002519 -0.23240565 -0.027799957 -0.17605022 0.24606983 -0.035727493
0.19173233 -0.13531607 -0.058120664 0.1455878 0.16163252 -0.008805079 -0.028534962 -0.06330586
-0.0030162751 -0.12697567 -0.26451764 0.063115254 0.10760858 0.078424506 0.07493983 0.13029626
0.17909901 0.22934483 0.24552861 0.18237583 -0.15727143 -0.019339375 -0.00981955 -0.025731137
0.026374772 -0.12513779 -0.08948722 -0.020423753 -0.21555151 -0.17932221 0.2886485 0.016249057
0.11383393 -0.035090465 0.08752743 -0.07851589 -0.042284243 0.010706058 0.11485883 0.053781964
0.045449305 -0.0070500458 0.075948946 0.23484756 0.17057095 -0.11067864 0.06648066 0.033293843
0.18851112 0.020920405 0.16523279 -0.0064004213 -0.31134945 0.04281954 -0.002690384 -0.09228199
-0.14360617 0.14106695 -0.085565925 -0.050269328 -0.16769814 -0.06355196 0.01817638 0.06762613
-0.027758125 0.18234323 0.16421066 -0.19753124 0.070950665 0.14970689 -0.008830383 -0.07461304
-0.17151937 0.15971474 0.13512278 -0.15707955 -0.11298161 0.1819167 0.19760607 0.0039031997
00000000: 3da1 203e e229 5b3d 80f9 9bbd 7192 43bd
00000010: 23ca e1bc d037 01bd 4d03 bdbd a081 573c
00000020: 58ec cb3e 0a43 2fbe 04da fe3d f2a4 3d3e
00000030: 4eb6 033e 6a2b eb3d c6cc 2c3e ebfe c63d
00000040: 0b60 ccbd bfe6 4fbe 3c65 f63d 2e8b 4cbe
00000050: b33e 42be 2503 ee3d dadf 88bd b67d ec3d
00000060: c384 cebd 4544 cdbd d33a a1bd 2d6d fabd
00000070: 0157 363e 95e2 e3bd fa22 e1be 2928 a3bd
00000080: 1443 df3c 4de6 4f3e 5f46 6c3e 0c99 25be
00000090: 4d9a 63bd a426 6f3d 2e4a 6bbe 16b8 6abe
000000a0: f430 8ebb 5663 7cbd fd73 8abd 3146 ff3d
000000b0: 7650 db3d aebf 47bd d807 9abd f8a6 b1bd
000000c0: c2c1 523e 4139 f73d 1a3c 6d3e 3bd1 38be
000000d0: ae49 073e 2923 25be 9020 4b3e 80eb 303d
000000e0: 5f22 373d 4b31 903d 8795 ccbc ffdc 07be
000000f0: a20a 6cbb edc7 5e3e d66a 133e eea8 f73d
00000100: 477f 5abe 6d85 833d bb3d a03d bbbf 61be
00000110: 52eb 073e 0083 8dbc ad14 383e 16c2 a4bd
00000120: 57dc 6f3e 048d 16be beab 433e ece0 e9bd
00000130: e13d 18be 88be 203e 20a7 61be 05d6 ec3d
00000140: fe9e cd3d 9938 9ebd d0ac cdbd c642 5f3d
00000150: f74d 3abe 885c 2e3e 0251 01be b16b e13c
00000160: fd96 2c3d 8027 f3bd e634 fc3d ddce 513e
00000170: e880 b9bd 6ddf 833c d744 563e b767 3fbe
00000180: eced dcbd 27cb d6bd ac04 d3bd c033 48bc
00000190: d874 c23d eebc 3ebe 9a9e 3e3d 1c74 03be
000001a0: 9da2 37be 4e04 4abe 2fcc 16be fed2 89be
000001b0: 4af6 8b3c c1e5 613d 62fb c33d a3d9 8dbd
000001c0: f549 59be 6b14 23be 3d40 05bd 6a35 0c3e
000001d0: bb43 1c3d 9776 68be 6125 94be b554 6e3e
000001e0: 5f08 1f3e ac5a 36bd c54c ff3d b1d1 bb3c
000001f0: f9af 513d b331 49be 7434 c9bd 24a0 613e
00000200: ee18 c1bd 6067 053d 413e 8ebd 0622 333d
00000210: cfb3 d43d ed14 46bd d6fa c13d 81e7 113e
00000220: f9ad 57be 9c0a 5a3e fa1d 2dbe 27c1 0e3e
00000230: 5b8d 123e 5680 393e 31f7 5b3e cce0 eb3c
00000240: a234 543e 08da 313e b1fe 1e3b 008a 763e
00000250: 56c2 3a3e c908 103e 0759 4fbd 2abe 413e
00000260: cb15 5c3e 5ae4 953e c18d 5fbe 27ed efbd
00000270: b9c4 42be 3ebb 16be dd68 6c3e 003b 23be
00000280: 3265 1f3e 6f11 523e 66ef be3d bb8c e8bc
00000290: 6191 adbb 4984 9e3d 5992 5e3e 852a 6f3d
000002a0: da16 ff3d 3566 ce3d 205f b83d bffb 6dbe
000002b0: bcbc e3bc 8246 34be bbf9 7b3e fe56 12bd
000002c0: 7b55 443e 4c90 0abe ef0f 6ebd f814 153e
000002d0: ff82 253e 2e43 10bc 27c2 e9bc 81a6 81bd
000002e0: b3ac 45bb e905 02be db6e 87be 9242 813d
000002f0: e361 dc3d 079d a03d 0e7a 993d 626c 053e
00000300: bb65 373e 5fd9 6a3e da6b 7b3e bbc0 3a3e
00000310: c30b 21be 9c6d 9ebc 2ee2 20bc 1bca d2bc
00000320: e80f d83c 1f24 00be 1345 b7bd b74f a7bc
00000330: 89b9 5cbe 3ea0 37be bcc9 933e be1c 853c
00000340: c321 e93d 05bb 0fbd 9541 b33d f0cc a0bd
00000350: 3e32 2dbd 7668 2f3c 1b3b eb3d 7a4a 5c3d
00000360: 0d29 3a3d 1204 e7bb 1f8b 9b3d e17b 703e
00000370: 27aa 2e3e 7cab e2bd 0327 883d 205f 083d
00000380: 0f09 413e 4561 ab3c c932 293e a0ba d1bb
00000390: 3269 9fbe 8b63 2f3d 2751 30bb 57fe bcbd
000003a0: 7f0d 13be db73 103e 303d afbd 36e7 4dbd
000003b0: 10b9 2bbe 8827 82bd a2e6 943c 927f 8a3d
000003c0: 0265 e3bc 2fb8 3a3e d726 283e a145 4abe
000003d0: 954e 913d c34c 193e 50ad 10bc b9ce 98bd
000003e0: c6a2 2fbe 438c 233e a05d 0a3e 76d9 20be
000003f0: e762 e7bd 5f48 3a3e 3f59 4a3e d3cc 7f3b

bias f4 [50]
0.20039243 -0.11930206 -0.17431858 -0.31450826 -0.19567414 0.18956222 0.21545541 -0.19650091
0.16577344 -0.19666854 0.023860073 -0.2846217 -0.20781636 -0.10275395 0.2426727 0.3683667
0.05330221 -0.26024023 0.20005466 -0.25309768 0.023721127 -0.25083312 0.19833808 0.116441935
0.28909805 -0.22950096 0.046524808 0.15320562 0.17491183 -0.16456637 0.3216588 0.21389931
-0.2851616 0.25861582 0.1840567 -0.27203888 -0.29375648 -0.12503146 -0.029954182 -0.07199537
0.3528683 -0.18347323 0.34651276 0.041478723 0.21806678 0.17680763 -0.18021049 -0.13585675
0.23104937 -0.06482763
00000000: ac33 4d3e a354 f4bd 9280 32be 3a07 a1be
00000010: cd5e 48be 991c 423e 58a0 5c3e 8937 49be
00000020: 83c0 293e 7a63 49be 3376 c33c efb9 91be
00000030: d0cd 54be aa70 d2bd 317f 783e 8f9a bc3e
00000040: 6b53 5a3d 353e 85be 21db 4c3e 0596 81be
00000050: cf52 c23c 336d 80be 2319 4b3e 1c79 ee3d
00000060: a904 943e 4d02 6bbe cc90 3e3d efe1 1c3e
00000070: 161c 333e 1684 28be 76b0 a43e 6c08 5b3e
00000080: b400 92be 4b69 843e 5c79 3c3e ae48 8bbe
00000090: 4067 96be 3f08 00be 7962 f5bc 4f72 93bd
000000a0: 27ab b43e 68e0 3bbe 1f6a b13e 98e5 293d
000000b0: e64c 5f3e 0f0d 353e 1989 38be 081e 0bbe
000000c0: 3598 6c3e 59c4 84bd
